CubeStackTask/logs/skrl/object_red_stack/2025-10-09_17-18-16_ppo_torch/checkpoints/agent_43200.pt (torch, 660141 bytes, 46 tensors)

log_std_parameter f4 [8]
-3.2533202 -2.8696578 -3.1775577 -3.2617955 -3.8664465 -3.46404 -4.0129213 -2.820115
00000000: 6636 50c0 79a8 37c0 1b5d 4bc0 42c1 50c0
00000010: dc73 77c0 d5b2 5dc0 da69 80c0 c47c 34c0

net_container.0.weight f4 [256, 45]
0.015774556 -0.21422544 0.004276831 -0.07736757 -0.13513495 0.044529546 0.0996683 -0.008972327
0.019777363 -0.096462145 -0.04670851 0.09569117 0.0621705 -0.17378959 -0.035007805 -0.08133192
0.12332872 -0.09233088 -0.006768015 -0.0999745 -0.1517784 0.11951906 0.14094803 -0.0947746
-0.075410865 -0.0020267803 -0.104310535 0.010242817 0.15679227 -0.093304366 -0.1823834 0.015171934
0.07861079 -0.1182914 -0.09708071 0.1366954 -0.05931225 -0.062522784 -0.14688964 0.09527825
0.05699423 -0.006547297 0.12172086 0.033984423 0.08373801 0.05888738 -0.096686065 0.05452919
-0.1498855 0.05444736 -0.11420821 0.16722307 0.14570776 0.10987914 -0.042862806 -0.10371398
0.08710666 -0.03388409 -0.099639535 0.19245756 -0.014710578 -0.07546806 -0.14935711 -0.08412769
0.0010537199 -0.009635685 -0.0072002094 -0.04136002 0.07583465 -0.070345685 0.008599636 0.06378877
-0.10033288 -0.12332363 0.2529299 -0.058004655 -0.027473338 -0.008238043 0.08276585 -0.015484699
0.10432336 -0.003043204 0.05029516 0.05043897 0.12536943 -0.06608649 -0.07528635 -0.06700105
0.086302355 -0.09440088 0.15559578 0.14290541 -0.0490829 0.11164534 0.04349602 -0.109724134
-0.0062202793 0.085189946 -0.13747153 0.036498208 -0.09636542 0.16235949 -0.031571876 -0.11016601
-0.052104056 -0.08076901 0.0155597925 0.15834329 0.095447175 0.09801186 -0.10719915 -0.07963488
0.11032992 0.057162408 0.07812229 0.09373567 0.1501725 -0.009621435 0.11961574 0.034554742
-0.063888445 0.009693526 0.11000973 0.013353082 -0.086789265 -0.03598866 0.11290777 -0.00449841
0.09335053 -0.05448948 0.11984489 -0.06869114 -0.07750284 -0.07825712 -0.09079924 -0.16530716
-0.023158725 0.05924201 0.039081093 0.17792122 0.00037362028 0.020779073 0.0038344234 -0.22719467
-0.091637306 -0.14441669 0.13907297 0.14572154 -0.008387906 -0.17652398 0.042118225 0.03818276
0.15919761 -0.14596759 -0.03763185 0.044193476 0.09315387 -0.018118124 0.08949673 -0.116674505
0.0075276885 0.0069931145 -0.032079406 0.048741985 0.05977627 0.102895044 -0.13389525 -0.06004633
0.097829804 0.123675585 0.10120841 0.11531152 0.05050575 -0.07913483 -0.0014258717 0.18540753
-0.024811374 0.013741742 -0.10270542 -0.069808304 -0.05451697 0.05617627 0.01181314 0.06979373
-0.18802647 -0.042882673 0.047707662 -0.034235004 0.043910146 0.11850913 0.030975576 -0.10547835
0.031813107 0.18410356 -0.062200844 -0.008301263 0.11367597 0.024020676 0.035206992 -0.12876777
0.15808715 0.00083821296 -0.017124685 0.007121828 -0.112856045 0.11811191 -0.06729942 -0.047631405
0.007928204 -0.031850245 -0.09023285 0.028614637 -0.06779935 0.16601725 -0.07796183 0.10709942
0.091865994 0.10854633 -0.118819155 0.1473744 -0.03634029 0.03307787 0.16352792 -0.14869852
-0.0046917293 -0.08425402 -0.1399253 -0.04574243 -0.010870858 -0.100821644 0.057212986 0.11114508
0.14150584 0.021589957 -0.050397053 -0.062088184 -0.098013796 -0.11755253 0.033920962 -0.03735904
-0.081101686 0.066363774 -0.024353 0.1634257 0.040991053 0.029562837 -0.09136377 -0.003467568
-0.0066961627 -0.075813524 0.10750338 0.14417253 0.123789504 0.04527103 0.023349022 -0.16564566
00000000: a439 813c ea5d 5bbe a924 8c3b e372 9ebd
00000010: d160 0abe 9d64 363d e51e cc3d ab00 13bc
00000020: 2304 a23c f28d c5bd 6c51 3fbd bbf9 c33d
00000030: 7fa6 7e3d e6f5 31be 5864 0fbd 5a91 a6bd
00000040: c593 fc3d f917 bdbd 3ac6 ddbb 6ebf ccbd
00000050: cc6b 1bbe 69c6 f43d ae54 103e 2f19 c2bd
00000060: 0371 9abd bbd3 04bb c3a0 d5bd 7dd1 273c
00000070: 278e 203e 5c16 bfbd b7c2 3abe b493 783c
00000080: b2fe a03d c342 f2bd 40d2 c6bd e1f9 0b3e
00000090: 67f1 72bd f20b 80bd 3d6a 16be 3e21 c33d
000000a0: c872 693d b58a d6bb c948 f93d 4033 0b3d
000000b0: d57e ab3d e533 713d 5803 c6bd 005a 5f3d
000000c0: 967b 19be 3204 5f3d fee5 e9bd 863c 2b3e
000000d0: 6a34 153e 5108 e13d e990 2fbd ff67 d4bd
000000e0: fa64 b23d 0bca 0abd d00f ccbd 9813 453e
000000f0: a304 71bc 008f 9abd 12f1 18be 234b acbd
00000100: f91c 8a3a fede 1dbc bcef ebbb 2069 29bd
00000110: 324f 9b3d 6611 90bd 7de5 0c3c b0a3 823d
00000120: 537b cdbd 1991 fcbd 0780 813e 4a96 6dbd
00000130: c40f e1bc dbf8 06bc 2481 a93d 89b3 7dbc
00000140: 7ca7 d53d 7e70 47bb 4c02 4e3d 1899 4e3d
00000150: d860 003e 5b58 87bd bb2f 9abd d937 89bd
00000160: 4abf b03d 4055 c1bd 8054 1f3e cc55 123e
00000170: 270b 49bd 50a6 e43d e228 323d 0cb7 e0bd
00000180: 7cd3 cbbb 1178 ae3d 56c5 0cbe 257f 153d
00000190: 3c5b c5bd 9141 263e 8351 01bd b89e e1bd
000001a0: 106b 55bd 396a a5bd 80ee 7e3c be24 223e
000001b0: cf79 c33d 71ba c83d 3a8b dbbd 9d17 a3bd
000001c0: a7f4 e13d 2123 6a3d 94fe 9f3d 7df8 bf3d
000001d0: d2c6 193e 39a3 1dbc 19f9 f43d 4689 0d3d
000001e0: f2d7 82bd 98d1 1e3c c84c e13d e3c6 5a3c
000001f0: 92be b1bd d868 13bd 303c e73d 6667 93bb
00000200: 902e bf3d 5c30 5fbd 3d71 f53d f1ad 8cbd
00000210: cfb9 9ebd 4545 a0bd f4f4 b9bd 4846 29be
00000220: 5eb7 bdbc c0a7 723d 7f13 203d fb30 363e
00000230: 77e2 c339 e038 aa3c f34a 7b3b b8a5 68be
00000240: 57ac bbbd f8e1 13be 2569 0e3e 0738 153e
00000250: 6d6d 09bc b4c2 34be 2984 2c3d 8765 1c3d
00000260: b304 233e 8778 15be db23 1abd 3804 353d
00000270: 75c7 be3d 766c 94bc 104a b73d 0bf3 eebd
00000280: d4aa f63b 7f26 e53b b265 03bd ada5 473d
00000290: f6d7 743d a3ba d23d d61b 09be 24f3 75bd
000002a0: fe5a c83d a049 fd3d 5b46 cf3d 7228 ec3d
000002b0: 1edf 4e3d 7111 a2bd 51e4 baba 79db 3d3e
000002c0: 3941 cbbc 0b25 613c 3857 d2bd a8f7 8ebd
000002d0: 304d 5fbd 1719 663d e68b 413c 04f0 8e3d
000002e0: 038a 40be bea5 2fbd 1c69 433d 013a 0cbd
000002f0: 20db 333d eab4 f23d 7ec0 fd3c 0805 d8bd
00000300: 764e 023d a585 3c3e 50c6 7ebd 0502 08bc
00000310: f2ce e83d 02c7 c43c 3535 103d b3db 03be
00000320: 99e1 213e 85bb 5b3a 1149 8cbc 395e e93b
00000330: 1221 e7bd a8e4 f13d 47d4 89bd 2619 43bd
00000340: 4ce5 013c 6775 02bd 00cc b8bd 3e69 ea3c
00000350: 63da 8abd 6d00 2a3e 74aa 9fbd f156 db3d
00000360: 3d24 bc3d 8a4d de3d 7557 f3bd 51e9 163e
00000370: 8ed9 14bd a97c 073d dd73 273e 6d44 18be
00000380: 14bd 99bb 5f8d acbd 9448 0fbe 6a5c 3bbd
00000390: af1b 32bc 947b cebd 2a58 6a3d 08a0 e33d
000003a0: e8e6 103e 6cdd b03c 246d 4ebd 2e50 7ebd
000003b0: 75bb c8bd 61bf f0bd b5f0 0a3d cb05 19bd
000003c0: a418 a6bd bbe9 873d f17f c7bc 1159 273e
000003d0: 3ce6 273d c32d f23c ee1c bbbd 2340 63bb
000003e0: 7c6b dbbb 1f44 9bbd bb2a dc3d f7a1 133e
000003f0: 5a85 fd3d 1e6e 393d 7346 bf3c 049f 29be

net_container.0.bias f4 [256]
0.20526291 -0.13474956 0.03757032 0.0117940325 0.043733742 0.044853806 0.15256006 0.13529712
0.088475324 0.0018693507 0.036024738 -0.046957053 0.06310838 -0.041879635 0.13926566 -0.09879464
0.10847657 -0.11607003 0.12166467 0.060907975 0.017115481 0.05010884 -0.072617225 0.17692028
0.088452384 0.05146146 -0.05196522 -0.2055281 -0.12883408 -0.10175222 -0.0834393 -0.032826938
0.13034493 0.09051312 0.027286254 -0.19018014 0.10556464 -0.015413289 0.09246788 -0.10373429
-0.17473438 0.14824922 -0.09517072 -0.051480748 0.019795517 -0.06083733 -0.006521227 -0.11533358
0.12042114 0.05100312 -0.070714295 -0.05794098 -0.121573664 -0.0767782 -0.12925313 -0.06465353
0.15037814 0.019002086 0.14015742 0.11775957 -0.07146564 0.1008005 0.15420534 -0.01673945
0.008766097 0.1641529 0.09708523 -0.067304365 0.087869816 0.099029064 0.119883455 -0.113124765
0.12884367 0.04637699 -0.034860265 0.073676616 0.13150996 -0.02280175 0.15075596 0.090297766
-0.14485775 -0.1163019 0.082998924 0.108258255 0.0035380104 0.12351623 0.0983614 0.14751033
-0.059603304 0.13102332 -0.075724825 -0.09688529 0.058853034 -0.111713104 -0.036431372 0.03461858
0.060955398 0.009549911 -0.17554419 0.0037084948 0.08503484 0.06958676 -0.17390469 -0.0077554337
-0.015330948 0.055286266 -0.019448144 -0.073464274 -0.03419255 -0.054969817 0.015882792 0.08270181
-0.09540999 -0.11691806 0.103860326 0.12372989 -0.16891606 0.04459279 -0.039069396 0.055162944
-0.06215672 -0.058984637 0.17563936 -0.17550437 0.015318596 -0.0925107 -0.09169019 0.1319516
0.091623485 -0.2396883 0.13346992 -0.05467077 -0.17812242 -0.050826166 -0.08974825 0.004131506
0.21711862 0.07711978 0.0941443 0.055334006 0.12950923 -0.16990463 -0.027741063 -0.1470974
-0.07343996 0.09894227 -0.03973742 -0.13627374 -0.09310875 -0.15796995 -0.03688623 0.06396618
-0.047293525 0.02215931 0.13571899 -0.06271365 -0.06683095 -0.10947308 -0.09295103 -0.028629797
-0.080314994 0.11641344 0.11184966 0.01841698 0.07955113 -0.068337254 -0.116997175 0.031420548
-0.14856233 -0.16234551 0.10667988 -0.06558234 0.1636146 -0.1585 0.1532484 0.15432207
-0.05798471 -0.13019735 -0.089976765 0.13485558 -0.12359515 0.07655083 0.07420738 -0.054346718
-0.12398528 0.047152642 0.0477994 0.043449227 -0.059304032 -0.09856165 0.0063470225 -0.10464446
-0.027905675 -0.06506536 0.13599648 0.05649113 -0.123701274 0.040954906 -0.032499462 0.051126298
0.014535346 0.07719038 0.053099956 0.03804546 0.12196733 -0.020249488 0.037459884 -0.11133239
-0.03236398 0.1870153 -0.014006559 0.07550627 0.17735796 0.10241095 -0.13226467 0.057393
0.10175229 0.06517006 0.14932382 0.10336769 0.010713028 0.050984684 0.021500448 -0.14095812
0.116959944 -0.11600307 -0.06642041 0.057862774 -0.07493491 -0.07468142 0.19599277 0.020845044
-0.11308903 0.14060096 0.12746914 0.0981874 0.02176524 0.1766629 0.050274543 0.101606406
-0.035691507 -0.06609401 0.15004574 0.030582279 0.030848263 0.08826514 -0.18331003 0.005758343
0.00011955678 -0.011658948 0.14395314 0.00047854712 -0.10117556 0.018454675 -0.21703443 0.04675483
00000000: 7130 523e cafb 09be 56e3 193d c23b 413c
00000010: 2722 333d a0b8 373d b438 1c3e 548b 0a3e
00000020: 8d32 b53d 0005 f53a ad8e 133d 0a56 40bd
00000030: f73e 813d fb89 2bbd a89b 0e3e d854 cabd
00000040: f728 de3d 20b6 edbd 542b f93d a47a 793d
00000050: c435 8c3c ed3e 4d3d 57b8 94bd 972a 353e
00000060: 8626 b53d 40c9 523d 7cd9 54bd f575 52be
00000070: 15ed 03be 7863 d0bd 39e2 aabd 8a75 06bd
00000080: 2479 053e f15e b93d 6c87 df3c 95be 42be
00000090: 4632 d83d 0588 7cbc cd5f bd3d a572 d4bd
000000a0: 92ed 32be a5ce 173e dee8 c2bd 7add 52bd
000000b0: 352a a23c 9030 79bd 04b0 d5bb 0334 ecbd
000000c0: 5c9f f63d a6e8 503d a8d2 90bd 8553 6dbd
000000d0: 9dfb f8bd e43d 9dbd ef5a 04be 1269 84bd
000000e0: bafc 193e 43aa 9b3c 6d85 0f3e ee2b f13d
000000f0: 945c 92bd 7e70 ce3d 01e8 1d3e 2c21 89bc
00000100: ad9f 0f3c b317 283e 9fd4 c63d dfd6 89bd
00000110: 17f5 b33d c0cf ca3d 7585 f53d f5ad e7bd
00000120: 98ef 033e ccf5 3d3d a3c9 0ebd c4e3 963d
00000130: 8caa 063e bcca babc c55f 1a3e 09ee b83d
00000140: 9755 14be b12f eebd 57fb a93d 81b6 dd3d
00000150: f7dd 673b 14f6 fc3d b471 c93d f30c 173e
00000160: 9822 74bd fa2a 063e 9e15 9bbd cc6b c6bd
00000170: e10f 713d d7c9 e4bd 1039 15bd 36cc 0d3d
00000180: 5eac 793d 3b77 1c3c dbc1 33be 380a 733b
00000190: bf26 ae3d 8183 8e3d 1214 32be 4b21 febb
000001a0: a82e 7bbc da73 623d b751 9fbc 7074 96bd
000001b0: 7d0d 0cbd 0828 61bd a11c 823c 915f a93d
000001c0: 5066 c3bd bc72 efbd b9b4 d43d 1966 fd3d
000001d0: 55f8 2cbe eea6 363d 3b07 20bd 8af2 613d
000001e0: 0b98 7ebd e099 71bd ceda 333e 6bb7 33be
000001f0: d9fa 7a3c 4076 bdbd 11c8 bbbd 521e 073e
00000200: 18a5 bb3d da70 75be 57ac 083e 75ee 5fbd
00000210: b965 36be 192f 50bd eecd b7bd 9661 873b
00000220: 5854 5e3e faf0 9d3d bace c03d e9a5 623d
00000230: 119e 043e 7bfb 2dbe 3a41 e3bc b3a0 16be
00000240: b167 96bd 3fa2 ca3d b4c3 22bd 588b 0bbe
00000250: cdaf bebd e0c2 21be 0416 17bd b300 833d
00000260: dbb6 41bd 7187 b53c ebf9 0a3e 0470 80bd
00000270: aade 88bd 6c33 e0bd 1c5d bebd 0989 eabc
00000280: 307c a4bd 2b6a ee3d 6f11 e53d 35df 963c
00000290: b4eb a23d 67f4 8bbd 379c efbd d5b2 003d
000002a0: b920 18be e73d 26be fb7a da3d 0950 86bd
000002b0: 968a 273e d34d 22be 26ed 1c3e 9b06 1e3e
000002c0: 6081 6dbd 7452 05be bd45 b8bd 9517 0a3e
000002d0: 741f fdbd aec6 9c3d 0afa 973d aa9a 5ebd
000002e0: ffeb fdbd 2123 413d 4ec9 433d d1f7 313d
000002f0: c9e8 72bd b1da c9bd affa cf3b d64f d6bd
00000300: 719a e4bc fd40 85bd a942 0b3e 3e63 673d
00000310: 1857 fdbd 55c0 273d 281e 05bd cf69 513d
00000320: a925 6e3c fd15 9e3d 577f 593d 8ed5 1b3d
00000330: 02ca f93d 41e2 a5bc 896f 193d 3c02 e4bd
00000340: 1890 04bd f080 3f3e c47b 65bc 08a3 9a3d
00000350: 539d 353e d5bc d13d 6470 07be ec14 6b3d
00000360: 8163 d03d e177 853d 58e8 183e 71b2 d33d
00000370: b285 2f3c 51d5 503d b521 b03c 5357 10be
00000380: b288 ef3d 0493 edbd 6d07 88bd 8401 6d3d
00000390: 7977 99bd 93f2 98bd 54b2 483e 3ac3 aa3c
000003a0: 399b e7bd b3f9 0f3e 4587 023e 7a16 c93d
000003b0: 044d b23c 1fe7 343e aeec 4d3d 0517 d03d
000003c0: 4231 12bd 4c5c 87bd 97a5 193e b087 fa3c
000003d0: 7fb5 fc3c 5bc4 b43d a0b5 3bbe 7bb0 bc3b
000003e0: 8fba fa38 2c05 3fbc 7468 133e 82e5 fa39
000003f0: 2235 cfbd 422e 973c 463e 5ebe fe81 3f3d

net_container.2.weight f4 [128, 256]
0.05755157 -0.02612357 0.00053527893 -0.016561385 0.024336578 -0.027853172 0.027043032 -0.056916364
-0.030624786 0.05827994 -0.049282804 -0.026523208 0.036437277 -0.07042685 0.016439352 -0.0073788585
-0.035596054 0.01980893 0.00458918 0.03678186 -0.04818149 -0.0031165404 -0.041572496 -0.1003274
-0.018310796 0.029742798 -0.043783505 0.08297348 0.016592968 0.008990681 -0.00054419175 0.038395185
-0.07313709 -0.06563832 -0.08126908 0.058400292 -0.010896829 0.072908424 0.026436698 0.03662814
0.06004671 0.05280936 -0.0030247797 -0.03694901 0.04095654 0.03975782 -0.05334133 0.08191423
0.04122337 0.017449027 0.06493545 0.0310123 0.042859327 -0.035922777 0.028236179 0.016263867
-0.09248995 -0.071121156 0.035143 -0.010549246 0.044756923 0.015377243 0.02080761 0.008281016
-0.06139526 -0.053030375 -0.052532177 -0.07020128 -0.017563833 0.028383547 -0.008060265 -0.010206284
0.026771106 -0.030894864 0.014984085 0.070663676 -0.022325443 -0.036993876 0.007957803 0.05562033
0.07485362 0.0779478 -0.042536527 0.04049544 0.00516744 0.043412264 -0.027941387 -0.106986806
0.038125042 -0.03583342 -0.035691723 -0.015490318 -0.025974292 0.037109002 -0.058111154 -0.035321426
-0.018390108 -0.04691562 0.070235536 -0.0020055133 -0.015728753 -0.047840055 -0.00862176 -0.0035079184
0.025084822 -0.054498233 -0.029914334 0.009495349 0.08005027 0.07793355 -0.0019088966 -0.061966088
0.07950602 0.024129378 -0.057887338 -0.06901962 -0.020733058 -0.0333155 0.017240256 0.045407165
-0.036127113 0.040209536 -0.051070437 0.05962173 0.047561806 0.067517325 -0.0033378976 -0.06813747
0.010910849 0.04628758 -0.07222089 -0.0332465 0.045351524 0.02875978 0.07567098 0.024072815
0.063708015 -0.010342896 0.015453082 0.090152144 -0.03392222 0.017425593 -0.053637363 0.03973603
0.0026122588 -0.06939995 0.015964502 0.051380973 -0.037180614 -0.04439992 0.08681005 -0.046148
-0.061658025 0.051520932 -0.092035085 0.0769847 -0.020726861 0.017434806 0.03530545 -0.06960743
0.061458383 -0.028103957 -0.082657166 -0.08214064 0.012521376 -0.015636578 -0.07997782 -0.047955323
0.039309055 0.048989527 -0.009969386 0.07897651 -0.029132186 0.006191328 0.048466727 -0.0039606756
-0.011463395 0.0069492683 0.049403135 -0.06375498 -0.04951107 -0.10274355 0.02031627 -0.0047180364
-0.017146084 0.035815984 -0.02870247 0.008018965 -0.030246533 -0.016929984 -0.02541805 0.08177061
-0.004112038 -0.064563915 -0.0547255 -0.03556714 -0.06589316 0.073262356 0.06368415 -0.040107198
-0.0121404575 0.024386078 -0.07143738 -0.07165495 0.0114642745 0.0339713 0.07940909 -0.047140878
-0.025739469 -0.08039903 -0.010060673 -0.06324989 -0.07693785 -0.04335983 0.030740246 -0.056264546
0.0040100655 -0.006863563 -0.039557256 -0.01422285 0.019096205 0.018877074 -0.021073254 0.025538974
-0.031071307 0.061798837 0.025635187 0.07106142 0.056084525 -0.048493173 0.019164408 0.082574226
-0.041416712 -0.016991531 -0.08567931 -0.057839766 0.061322775 -0.049953878 -0.021173628 0.016752802
-0.02615395 0.026298579 0.027358904 -0.017214991 -0.05383279 0.064148076 0.059657045 -0.0005394747
0.045046594 -0.013194138 -0.09094005 -0.051286034 -0.011418694 -0.040497575 0.04782916 -0.007622821
00000000: 32bb 6b3d 1901 d6bc f651 0c3a beab 87bc
00000010: 815d c73c 562c e4bc 5989 dd3c 2221 69bd
00000020: d5e0 fabc f2b6 6e3d c4dc 49bd 3347 d9bc
00000030: 413f 153d f43b 90bd d2ab 863c 5aca f1bb
00000040: 2bcd 11bd 5646 a23c d560 963b 93a8 163d
00000050: f459 45bd df3e 4cbb ec47 2abd 7478 cdbd
00000060: 8600 96bc 2ba7 f33c 5556 33bd 00ee a93d
00000070: faed 873c a64d 133c 17a8 0eba 4544 1d3d
00000080: e6c8 95bd 626d 86bd 6770 a6bd 2535 6f3d
00000090: 9d88 32bc 0351 953d c691 d83c 6307 163d
000000a0: 8af3 753d a14e 583d 623b 46bb d857 17bd
000000b0: 0bc2 273d 19d9 223d 707c 5abd a6c2 a73d
000000c0: d6d9 283d 43f1 8e3c e1fc 843d 820d fe3c
000000d0: 438d 2f3d c323 13bd 8f4f e73c cd3b 853c
000000e0: 5f6b bdbd f8a7 91bd 1bf2 0f3d bfd6 2cbc
000000f0: 0953 373d d5f0 7b3c b974 aa3c 19ad 073c
00000100: 9979 7bbd 6136 59bd fb2b 57bd b0c5 8fbd
00000110: 07e2 8fbc 9d84 e83c 340f 04bc 4238 27bc
00000120: 144f db3c 3a17 fdbc cf7f 753c 1eb8 903d
00000130: d9e3 b6bc e486 17bd 7261 023c 25d2 633d
00000140: db4c 993d 19a3 9f3d c83a 2ebd 8cde 253d
00000150: a153 a93b 0fd1 313d 56e5 e4bc e61b dbbd
00000160: 0129 1c3d 10c6 12bd 7c31 12bd 1acb 7dbc
00000170: 0ac8 d4bc 9cff 173d f605 6ebd 33ad 10bd
00000180: daa6 96bc 982a 40bd a6d7 8f3d ee6e 03bb
00000190: 96d9 80bc eff3 43bd 4842 0dbc 1be5 65bb
000001a0: af7e cd3c 8a39 5fbd e80e f5bc 6192 1b3c
000001b0: 65f1 a33d a09b 9f3d f133 faba 27d0 7dbd
000001c0: 0dd4 a23d f9aa c53c 461b 6dbd 295a 8dbd
000001d0: 60d8 a9bc d575 08bd 703b 8d3c ddfc 393d
000001e0: 06fa 13bd c1b2 243d 3c2f 51bd ea35 743d
000001f0: 2bd0 423d 8646 8a3d a1c0 5abb a88b 8bbd
00000200: 6bc3 323c 0c98 3d3d 8ce8 93bd 7b2d 08bd
00000210: 85c2 393d a199 eb3c 63f9 9a3d 5a34 c53c
00000220: 5979 823d 4075 29bc ec2e 7d3c b0a1 b83d
00000230: 07f2 0abd 1ec0 8e3c dab2 5bbd 3fc2 223d
00000240: 6e32 2b3b 9021 8ebd fdc7 823c db74 523d
00000250: b34a 18bd b1dc 35bd 78c9 b13d af05 3dbd
00000260: 208d 7cbd 9d07 533d e47c bcbd 28aa 9d3d
00000270: 61cb a9bc 70d3 8e3c 739c 103d 578e 8ebd
00000280: c9bb 7b3d 453a e6bc 2948 a9bd 5a39 a8bd
00000290: 7526 4d3c 4818 80bc 69cb a3bd cd6c 44bd
000002a0: 8802 213d 3ea9 483d a356 23bc 70be a13d
000002b0: 9fa6 eebc a0e0 ca3b 0c85 463d 8ec8 81bb
000002c0: f7d0 3bbc b0b6 e33b f15a 4a3d f991 82bd
000002d0: 1fcc 4abd 366b d2bd 4e6e a63c c299 9abb
000002e0: f275 8cbc c8b3 123d 7121 ebbc fa61 033c
000002f0: 94c7 f7bc c0b0 8abc 8439 d0bc 5977 a73d
00000300: 46be 86bb 163a 84bd d927 60bd d9ae 11bd
00000310: fef2 86bd 930a 963d d66c 823d 7247 24bd
00000320: c5e8 46bc 50c5 c73c c34d 92bd d5bf 92bd
00000330: a7d4 3b3c 7d25 0b3d 3ca1 a23d cb16 41bd
00000340: 94db d2bc 3fa8 a4bd 85d5 24bc 2989 81bd
00000350: 9791 9dbd 149a 31bd f8d2 fb3c a775 66bd
00000360: de66 833b bde7 e0bb ca06 22bd f506 69bc
00000370: a56f 9c3c 18a4 9a3c d1a1 acbc 1c37 d13c
00000380: 4189 febc c720 7d3d e200 d23c a688 913d
00000390: e3b8 653d c7a0 46bd adfe 9c3c ad1c a93d
000003a0: 92a4 29bd d331 8bbc a278 afbd 64e9 6cbd
000003b0: 972d 7b3d 709c 4cbd 5174 adbc 2c3d 893c
000003c0: cf40 d6bc 1e70 d73c c81f e03c 7406 8dbc
000003d0: c67f 5cbd 1160 833d f25a 743d 896b 0dba
000003e0: c782 383d 3a2c 58bc c73e babd 4e11 52bd
000003f0: 7915 3bbc c9e0 25bd 82e8 433d dbc8 f9bb

net_container.2.bias f4 [128]
-0.015584294 -0.09112478 -0.026075592 -0.100726135 -0.09440393 0.040807575 0.07042405 -0.027097238
0.05031086 -0.08493378 0.075158596 -0.03170789 -0.025575347 0.011971998 -0.023725748 0.047013275
-0.10044479 -0.014438128 0.01952981 0.013111495 0.07837649 0.0019627456 -0.006887924 -0.017908331
0.01907838 0.023475379 0.011631509 -0.12897518 -0.0847047 -0.058866594 -0.09660402 -0.03769047
-0.012424378 -0.004937368 0.06529891 0.036025036 -0.02851769 -0.07823176 -0.02013082 0.00860088
-0.12031626 -0.02070818 -0.067162864 0.05684519 0.05374915 0.03740833 0.05276785 0.07532095
0.063450955 0.042591356 -0.029456371 -0.11486477 0.005319071 0.08004044 -0.08768185 -0.04616956
0.071896404 -0.106293485 0.073497556 0.048870463 -0.11305066 0.0605507 -0.025813878 -0.045531582
0.01947573 -0.02950354 0.116034046 -0.04738798 -0.0023451548 -0.02895306 -0.08708617 -0.05957751
-0.10516912 0.028558277 -0.030137649 -0.045457806 -0.00335121 0.029844256 -0.07604872 0.0028955953
0.011204859 -0.061650056 0.0875782 -0.0015332391 -0.06525566 -0.011233345 0.09394534 0.052811645
0.038209513 0.016473236 -0.12605834 0.039831303 -0.10031534 0.0018411502 -0.06882069 0.03405875
0.00014244759 0.04527232 -0.066822216 -0.01608347 -0.09934809 -0.007002359 0.008341845 0.08534975
-0.030355314 -0.023062281 -0.01482644 -0.04623712 -0.0982533 -0.036988948 0.09646214 0.05087668
-0.08122407 -0.019955413 0.011841239 0.053869497 0.0433307 -0.037524536 -0.13339354 0.0126563795
0.058339704 -0.007529887 -0.055753697 -0.033498894 0.0783221 -0.01067715 -0.087807186 -0.05540304
00000000: 4455 7fbc a19f babd 7b9c d5bc 8149 cebd
00000010: d956 c1bd d825 273d 7c3a 903d 07fb ddbc
00000020: c312 4e3d c3f1 adbd c0ec 993d 22e0 01bd
00000030: 6483 d1bc 3326 443c 805c c2bc fe90 403d
00000040: 00b6 cdbd e68d 6cbc fbfc 9f3c 99d1 563c
00000050: da83 a03d 68a1 003b 18b4 e1bb 7eb4 92bc
00000060: 434a 9c3c 704f c03c 1692 3e3c 1212 04be
00000070: a879 adbd 191e 71bd 54d8 c5bd 5361 1abd
00000080: 9e8f 4bbc a5c9 a1bb 6fbb 853d fd8e 133d
00000090: ee9d e9bc f937 a0bd 64e9 a4bc b5ea 0c3c
000000a0: 5f68 f6bd 33a4 a9bc af8c 89bd 80d6 683d
000000b0: 1228 5c3d 7a39 193d 1a23 583d df41 9a3d
000000c0: 93f2 813d 4674 2e3d 7d4e f1bc 383e ebbd
000000d0: 9a4b ae3b 3eec a33d 8b92 b3bd 4b1c 3dbd
000000e0: 6c3e 933d 66b0 d9bd e385 963d 652c 483d
000000f0: 1b87 e7bd 0304 783d a077 d3bc 537f 3abd
00000100: 918b 9f3c 68b1 f1bc 42a3 ed3d e619 42bd
00000110: 2bb1 19bb f82e edbc 3c5a b2bd 8c07 74bd
00000120: e862 d7bd 0cf3 e93c 3be3 f6bc f731 3abd
00000130: f99f 5bbb f17b f43c 6ebf 9bbd 07c4 3d3b
00000140: 9694 373c c584 7cbd 335c b33d f8f6 c8ba
00000150: c2a4 85bd 100c 38bc 6a66 c03d 0651 583d
00000160: 9481 1c3d e1f2 863c 7015 01be 2626 233d
00000170: 2172 cdbd c052 f13a ddf1 8cbd 3081 0b3d
00000180: fc5d 1539 786f 393d 16da 88bd 7bc1 83bc
00000190: 0377 cbbd 0b74 e5bb 3cac 083c dacb ae3d
000001a0: b5ab f8bc 1ced bcbc 99ea 72bc 2263 3dbd
000001b0: 0739 c9bd b981 17bd f18d c53d 1164 503d
000001c0: ce58 a6bd 8979 a3bc c201 423c 43a6 5c3d
000001d0: 887b 313d 54b3 19bd 5198 08be b45c 4f3c
000001e0: 9df5 6e3d 45bd f6bb fd5d 64bd 2336 09bd
000001f0: 5667 a03d 37ef 2ebc 41d4 b3bd 4cee 62bd

net_container.4.weight f4 [64, 128]
0.014911471 0.062233374 -0.07545267 -0.03253093 -0.0012081087 -0.07225149 0.015532684 0.05911644
-0.015159213 -0.051426187 -0.053511653 0.010777494 0.07600715 -0.052217223 -0.020813074 -0.025977332
-0.024780937 -0.036643725 0.00072510703 0.051027678 -0.095148906 -0.100836 0.12456525 -0.08559269
-0.0031435555 0.08060164 0.03090992 -0.014262902 0.078670256 0.03012958 -0.035113394 0.03192206
0.0027622164 -0.026257498 -0.10762043 -0.09449287 -0.014013973 -0.017992254 0.019016646 -0.01992698
-0.019983025 -0.020039612 0.045200747 -0.019241171 -0.0002825306 0.011292741 -0.094595455 0.039468657
-0.049621668 -0.06342594 0.07403657 0.062496178 0.07239418 -0.052067276 0.045826126 -0.016782293
0.06356466 -0.011681052 0.03435777 0.0053633703 0.0641416 -0.008453166 -0.030296119 0.00549191
-0.05555791 -0.04630162 -0.06459164 -0.0707353 0.020337075 0.1098232 -0.022304889 0.0959025
0.066583626 -0.017568216 -0.08605624 -0.03643884 -0.022742206 0.022193015 0.11177362 -0.059060894
-0.048328884 -0.0007157363 -0.053659104 -0.07339136 0.00955248 0.08383741 -0.10558582 0.042407192
0.041005403 0.002556317 0.056815963 -0.09909541 0.057240084 -0.053283606 -0.091388375 -0.11123926
-0.05869338 0.07381876 0.019631362 0.10214213 0.05402993 -0.012101204 0.038767427 -0.016238773
-0.0055000996 0.01624754 0.07672179 -0.08242245 -0.047336563 -0.07385921 -0.00035396384 0.06393168
-0.03163643 0.0050333017 0.04179657 0.028963685 -0.033209976 0.054906923 -0.02856737 -0.07641706
0.020072255 -0.09536175 -0.0034812877 0.05880567 -0.053065304 0.021473438 0.10196531 -0.028248003
0.106102295 -0.07935171 -0.06027356 0.0486813 0.0778107 -0.05313821 -0.019371765 -0.07122656
-0.08472108 -0.081618726 0.05671247 -0.053611852 0.0015371857 0.022456063 0.09350954 -0.07433989
-0.01079835 -0.0685917 -0.056052927 0.054292977 -0.013212689 -0.00718588 0.074797764 0.04815487
0.016499244 -0.017038807 0.01799452 -0.037877835 0.04411833 -0.07466037 0.048199102 0.057471715
0.054458007 0.015661014 -0.028378028 0.001775246 -0.03760393 -0.033077735 -0.01546469 -0.062813744
0.023175133 -0.031529896 -0.12172617 0.019341744 -0.03582939 0.027766548 -0.07665563 0.018934032
-0.08135493 -0.1078321 0.018562408 0.066919886 -0.11345997 0.020927684 -0.082773566 -0.06448716
0.014159085 0.026498824 0.019373694 -0.054148898 0.056532342 0.055797424 0.05883401 -0.0847464
-0.11566792 -0.09440465 0.052705325 0.05308421 0.03637007 0.026445577 -0.075742714 -0.04526186
0.0880874 -0.007777015 0.045026682 0.0591915 -0.033984322 -0.083342224 -0.076689966 -0.026983457
0.002284393 -0.07266609 -0.03607506 -0.019797219 0.00032850652 0.02434142 -0.10842238 -0.06298328
0.06508857 -0.11201263 0.01467738 -0.05105925 0.020940032 0.004478316 0.04643366 0.02888196
0.045328017 -0.049728043 0.03800895 0.010855853 0.08091076 -0.04262622 0.041821092 0.070440814
0.026479794 -0.038351204 -0.052223675 0.005766918 0.02568349 -0.08174544 -0.07404736 -0.11336675
-0.006346788 0.11300346 0.04842715 0.007269235 0.1167775 -0.07329062 0.08007694 0.02880314
-0.009639653 -0.023920357 0.044488516 0.050243795 0.03511621 -0.018831365 0.023659129 0.06314701
00000000: 3e4f 743c 6ce8 7e3d ee86 9abd 273f 05bd
00000010: 6759 9eba 97f8 93bd cc7c 7e3c 1524 723d
00000020: 595e 78bc 44a4 52bd 092f 5bbd 1694 303c
00000030: a3a9 9b3d bae1 55bd 2e80 aabc 6ace d4bc
00000040: 6401 cbbc bb17 16bd 1c15 3e3a 6602 513d
00000050: 6edd c2bd 1b83 cebd 111c ff3d 384b afbd
00000060: 1c04 4ebb 7912 a53d cd36 fd3c f2ae 69bc
00000070: df1d a13d 4fd2 f63c 10d3 0fbd b5c0 023d
00000080: 4d06 353b f719 d7bc 1a68 dcbd 7a85 c1bd
00000090: dd9a 65bc 7e64 93bc ccc8 9b3c e83d a3bc
000000a0: 71b3 a3bc 1d2a a4bc 6b24 393d a99f 9dbc
000000b0: 9d20 94b9 3005 393c 43bb c1bd e3a9 213d
000000c0: 1740 4bbd 76e5 81bd 7ca0 973d fefb 7f3d
000000d0: 6643 943d 7f44 55bd 2db4 3b3d 057b 89bc
000000e0: 302e 823d e261 3fbc bcba 0c3d 36bf af3b
000000f0: ac5c 833d 267f 0abc 912f f8bc 7bf5 b33b
00000100: b190 63bd c4a6 3dbd 9f48 84bd abdd 90bd
00000110: f099 a63c fcea e03d beb8 b6bc 8868 c43d
00000120: ff5c 883d 38eb 8fbc 413e b0bd e540 15bd
00000130: dd4d babc 20ce b53c 91e9 e43d d6e9 71bd
00000140: 82f4 45bd 40a0 3bba a6c9 5bbd 364e 96bd
00000150: 0182 1c3c f3b2 ab3d 613d d8bd 2ab3 2d3d
00000160: 48f5 273d e287 273b dbb7 683d 89f2 cabd
00000170: 9474 6a3d e93f 5abd d429 bbbd 69d1 e3bd
00000180: 7868 70bd 4a2e 973d f3d1 a03c e52f d13d
00000190: 7d4e 5d3d 2144 46bc 98ca 1e3d 2d07 85bc
000001a0: 2e3a b4bb 9019 853c 5020 9d3d 1acd a8bd
000001b0: fce3 41bd 7f43 97bd 3994 b9b9 9dee 823d
000001c0: 3495 01bd 65ee a43b e132 2b3d 4045 ed3c
000001d0: 2f07 08bd 15e6 603d 1e06 eabc 8c80 9cbd
000001e0: 926e a43c 054d c3bd 5126 64bb 37de 703d
000001f0: 015b 59bd 10e9 af3c 30d3 d03d 5b68 e7bc
00000200: 294c d93d 2683 a2bd 69e1 76bd 0b66 473d
00000210: 375b 9f3d 74a7 59bd 89b1 9ebc 3bdf 91bd
00000220: 3f82 adbd b827 a7bd 564b 683d 1a98 5bbd
00000230: 657b c93a c7f5 b73c ee81 bf3d 833f 98bd
00000240: 90eb 30bc ce79 8cbd c197 65bd 5062 5e3d
00000250: 097a 58bc 8877 ebbb 922f 993d 0a3e 453d
00000260: 6c29 873c f894 8bbc 3e69 933c ca25 1bbd
00000270: 6cb5 343d 89e7 98bd 6c6c 453d 7667 6b3d
00000280: 5c0f 5f3d 874b 803c 0a79 e8bc 5faf e83a
00000290: 9406 1abd 857c 07bd 9c5f 7dbc 7ea4 80bd
000002a0: c7d9 bd3c 7e25 01bd 924b f9bd 9472 9e3c
000002b0: d7c1 12bd ac76 e33c a0fd 9cbd 8b1b 9b3c
000002c0: 6a9d a6bd 13d7 dcbd 3110 983c 4b0d 893d
000002d0: b35d e8bd 8970 ab3c 3085 a9bd d811 84bd
000002e0: 82fb 673c 1014 d93c 95b5 9e3c 3ccb 5dbd
000002f0: 758e 673d d78b 643d eefb 703d 858f adbd
00000300: 4de3 ecbd 3a57 c1bd 8ae1 573d d46e 593d
00000310: c8f8 143d 65a4 d83c ff1e 9bbd 8064 39bd
00000320: 2b67 b43d 55d6 febb e66d 383d c972 723d
00000330: 2533 0bbd 54af aabd a10f 9dbd 690c ddbc
00000340: c1b5 153b f6d1 94bd 71c3 13bd c72d a2bc
00000350: 663b ac39 a867 c73c 8e0c debd 61fd 80bd
00000360: 284d 853d e166 e5bd 6579 703c 8123 51bd
00000370: 6e8a ab3c d6be 923b 3931 3e3d dc99 ec3c
00000380: dfa9 393d a2af 4bbd 46af 1b3d bfdc 313c
00000390: 8ab4 a53d d598 2ebd 984c 2b3d 4643 903d
000003a0: 27ec d83c 2716 1dbd 7ee8 55bd 6af8 bc3b
000003b0: 2f66 d23c 276a a7bd 24a6 97bd d42c e8bd
000003c0: b7f8 cfbb 5c6e e73d 8c5b 463d c332 ee3b
000003d0: 0b29 ef3d 6519 96bd 61ff a33d 90f4 eb3c
000003e0: a3ef 1dbc a0f4 c3bc 9739 363d 70cc 4d3d
000003f0: 04d6 0f3d 3c44 9abc cad0 c13c 3853 813d

net_container.4.bias f4 [64]
-0.11211696 -0.056511898 0.087910965 0.0110990945 -0.07850351 -0.01405617 -0.037757937 -0.12486618
-0.12913696 0.081288025 0.0765468 -0.013440091 0.025409192 -0.08670909 -0.035570182 0.10044145
-0.005928842 0.04506522 0.08829329 0.108146116 -0.081790455 0.016792506 -0.10211303 0.021334145
0.049791824 -0.07923779 0.024354553 -0.032657217 -0.066495724 -0.00084628485 -1.8619668e-05 0.07228248
-0.0441061 -0.02583219 0.059055805 -0.010841089 -0.10983277 0.057890948 0.019263398 -0.0005273382
0.01945767 0.033213187 0.0046997815 -0.1653066 -0.03819251 0.0065230555 -0.03938058 -0.072222464
0.051775616 0.14491338 0.096078284 0.0013311164 -0.04187069 -0.10152719 -0.10806751 -0.01753044
0.001441823 0.038579173 -0.06063958 0.044221416 0.06387881 -0.040078104 -0.10955292 -0.08616627
00000000: 949d e5bd 0579 67bd aa0a b43d fad8 353c
00000010: 73c6 a0bd da4b 66bc 11a8 1abd d7b9 ffbd
00000020: 7b3c 04be 567a a63d 92c4 9c3d d433 5cbc
00000030: f026 d03c 8994 b1bd 0ab2 11bd 3fb4 cd3d
00000040: bb46 c2bb 4f96 383d 1dd3 b43d b67b dd3d
00000050: c181 a7bd 7090 893c a320 d1bd f2c4 ae3c
00000060: 83f2 4b3d 6c47 a2bd 3383 c73c 93c3 05bd
00000070: e92e 88bd 37d9 5dba 6f31 9cb7 d608 943d
00000080: 99a8 34bd 079e d3bc 80e4 713d d39e 31bc
00000090: 01f0 e0bd 0f1f 6d3d 46ce 9d3c 113d 0aba
000000a0: b165 9f3c 8d0a 083d a000 9a3b 2246 29be
000000b0: c06f 1cbd 5bbf d53b 884d 21bd 5fe9 93bd
000000c0: ab12 543d 2c64 143e b1c4 c43d db78 ae3a
000000d0: 9a80 2bbd 7ded cfbd 8052 ddbd ff9b 8fbc
000000e0: 8dfb bc3a 3205 1e3d 3561 78bd 8421 353d
000000f0: e5d2 823d f028 24bd 485d e0bd f177 b0bd

policy_layer.weight f4 [8, 64]
-0.038904935 0.0087892385 -0.018050674 0.0014412358 -0.124803446 0.13039842 0.018641949 -0.20337024
-0.0104277525 0.09747791 -0.084110305 0.07510878 0.12901288 0.02179265 0.01858652 0.126251
-0.008991703 -0.01426318 0.1220344 0.032742493 0.062920585 0.024861839 0.101144485 -0.11411964
-0.027045375 0.00799552 0.04483703 0.027173638 0.16533352 0.080904245 -0.050588686 0.09134525
-0.098818116 -0.007840381 0.06284658 -0.1199356 0.14167926 0.09820109 -0.010223438 0.06700026
-0.014343628 0.05202947 -0.10368985 0.13841902 -0.086304225 -0.1403505 0.055680968 0.048495304
0.018050278 0.039946254 -0.10296206 0.009175584 0.0024322448 0.10807991 0.057417717 0.016081484
-0.07294245 0.089418866 0.035317697 0.06744626 0.031801477 0.097064115 0.03598732 -0.11802103
0.10300924 -0.02398107 -0.11408225 0.014800918 -0.008269936 -0.020103086 -0.10227939 0.06950357
0.092136875 -0.100122176 0.007873794 0.0017986916 0.13862829 -0.011602473 -0.0016362052 -0.039457466
-0.0885408 0.1070301 0.11122942 -0.109227575 0.18108675 -0.05312569 0.09890294 0.09011635
-0.042854317 0.1347257 0.14748491 -0.011270975 0.018448524 0.1603262 -0.08615677 -0.01972411
0.1618908 0.12395796 -0.07478555 -0.09366529 0.034090348 -0.010187582 0.026019027 0.10687828
0.026038459 -0.064656526 0.12070529 0.11244921 -0.10139425 -0.059461147 0.09581668 0.12610377
0.03484202 -0.009235464 -0.014209674 0.033202324 -0.11859462 0.10671526 -0.021402108 0.058205523
-0.017248645 -0.13988683 -0.008448134 0.0030731964 -0.04733977 -0.09755876 0.041984715 -0.102491796
-0.0363544 0.10338358 0.06859164 -0.11254537 -0.11414762 0.15271963 0.006950748 0.015195007
-0.05085508 -0.003914691 -0.12191315 -0.05880407 -0.13020955 -0.12764403 -0.00073830783 -0.100491464
0.0011929073 -0.02244029 0.13965341 -0.05600982 0.08818656 0.048550677 0.062499307 0.11899946
-0.02106916 0.15489149 0.14824928 0.029925117 0.06828647 -0.011402147 -0.043647 -0.07380305
0.091179445 0.08433756 -0.048781965 -0.07754693 0.15719801 -0.106594644 0.14524297 0.03011702
-0.054112814 -0.07571689 -0.064761996 -0.0010793329 0.015634043 0.11350148 -0.028527196 0.06602705
-0.004924325 0.02574778 -0.09846194 -0.08322352 0.017571442 0.05486663 0.024713632 0.14775042
-0.13805789 -0.127238 -0.09689927 0.14899328 -0.1219078 0.05130916 -0.06444269 0.03823337
0.032169744 -0.030605577 0.016934766 -0.053990737 0.089409366 0.15391044 -0.0673557 -0.15676536
-0.12321341 -0.09946338 0.016281318 0.02175384 -0.0732641 0.088919 0.0134941805 -0.14426874
-0.12105089 0.118285775 -0.03665456 0.07330057 0.1124532 0.06964418 0.10008922 0.02779345
-0.095102444 -0.019542847 0.035301723 -0.09783895 -0.024289915 -0.08048703 -0.031058364 0.07806671
0.11892151 0.05624803 -0.047410097 0.023096833 0.018525345 0.06754483 0.08459194 0.15003145
0.010101306 0.036759064 0.04117319 0.12736817 -0.14609063 0.011799434 -0.08284982 0.028798738
-0.14567368 -0.07704879 -0.05166525 -0.051574674 0.1486938 0.04534719 -0.04456824 -0.030327376
0.037107788 0.021879885 0.046398863 0.1378773 0.008653267 0.027059307 -0.028075278 0.09702509
00000000: c85a 1fbd bd00 103c 02df 93bc d9e7 bc3a
00000010: f398 ffbd 2a87 053e 00b7 983c 4a40 50be
00000020: 2ad9 2abc 80a2 c73d 0642 acbd a2d2 993d
00000030: f41b 043e 8086 b23c c242 983c f147 013e
00000040: f051 13bc 1db0 69bc 2ced f93d fe1c 063d
00000050: 82dc 803d 0eab cb3c d724 cf3d 8fb7 e9bd
00000060: 438e ddbc a4ff 023c 09a7 373d 409b de3c
00000070: 314d 293e 20b1 a53d 1536 4fbd 3813 bb3d
00000080: 2761 cabd f174 00bc b5b5 803d cca0 f5bd
00000090: 5e14 113e a71d c93d 3580 27bc 6f37 893d
000000a0: 8901 6bbc db1c 553d 585b d4bd b7bd 0d3e
000000b0: 45c0 b0bd 0bb8 0fbe ba11 643d 03a3 463d
000000c0: 2dde 933c af9e 233d c6dd d2bd 3055 163c
000000d0: 4c66 1f3b 0059 dd3d d72e 6b3d 51bd 833c
000000e0: da62 95bd 3d21 b73d 4aa9 103d 4421 8a3d
000000f0: 4442 023d 8dc9 c63d 7167 133d 03b5 f1bd
00000100: 82f6 d23d f373 c4bc f4a3 e9bd 8d7f 723c
00000110: a07e 07bc 3aaf a4bc db77 d1bd e357 8e3d
00000120: 42b2 bc3d db0c cdbd 1601 013c 13c2 eb3a
00000130: 93f4 0d3e 4d18 3ebc f075 d6ba 279e 21bd
00000140: e154 b5bd 9932 db3d 40cc e33d b5b2 dfbd
00000150: ce6e 393e 539a 59bd a08d ca3d ec8e b83d
00000160: 0288 2fbd 89f5 093e 4906 173e e5a9 38bc
00000170: 5c21 973c 8d2c 243e f672 b0bd 7594 a1bc
00000180: b4c6 253e acdd fd3d 2b29 99bd 96d3 bfbd
00000190: 52a2 0b3d d1e9 26bc db25 d53c 00e3 da3d
000001a0: 9b4e d53c a46a 84bd 5634 f73d c54b e63d
000001b0: caa7 cfbd 888d 73bd 893b c43d 5921 013e
000001c0: 82b6 0e3d 5850 17bc b1cf 68bc 29ff 073d
000001d0: bce1 f2bd 888d da3d 7953 afbc ea68 6e3d
000001e0: 084d 8dbc 7e3e 0fbe 0b6a 0abc ae67 493b
000001f0: 59e7 41bd e3cc c7bd 2af8 2b3d 38e7 d1bd
00000200: 5ae8 14bd c5ba d33d c679 8c3d 307e e6bd
00000210: 3ac6 e9bd 8962 1c3e 1ac3 e33b 7bf4 783c
00000220: 6b4d 50bd cf46 80bb 9aad f9bd 89dc 70bd
00000230: a755 05be 1eb5 02be 008b 41ba 78ce cdbd
00000240: 545b 9c3a b3d4 b7bc 4e01 0f3e 8e6a 65bd
00000250: 289b b43d 13dd 463d 46ff 7f3d fdb5 f33d
00000260: 3b99 acbc e09b 1e3e a9ce 173e 8525 f53c
00000270: c7d9 8b3d 12d0 3abc 32c7 32bd 0e26 97bd
00000280: 4abc ba3d 2cb9 ac3d 99cf 47bd edd0 9ebd
00000290: 84f8 203e 4b4e dabd 93ba 143e f8b7 f63c
000002a0: 66a5 5dbd 7511 9bbd f0a1 84bd 6778 8dba
000002b0: f712 803c 7773 e83d deb1 e9bc 3139 873d
000002c0: 3b5c a1bb 02ed d23c 6aa6 c9bd 1871 aabd
000002d0: fcf1 8f3c d5bb 603d 3e74 ca3c e34b 173e
000002e0: 0c5f 0dbe ae4a 02be 2073 c6bd b291 183e
000002f0: ccaa f9bd 8e29 523d 87fa 83bd 989a 1c3d
00000300: 6cc4 033d 8cb8 fabc c7ba 8a3c 6425 5dbd
00000310: 421c b73d b39a 1d3e c9f1 89bd 1987 20be
00000320: 5057 fcbd 75b3 cbbd 6660 853c 1c35 b23c
00000330: 7d0b 96bd 2a1b b63d b216 5d3c 2fbb 13be
00000340: 87e9 f7bd d03f f23d 1823 16bd 9c1e 963d
00000350: dd4d e63d 9ca1 8e3d 94fb cc3d 17af e33c
00000360: 12c5 c2bd 5218 a0bc 8a98 103d ca5f c8bd
00000370: a5fb c6bc 62d6 a4bd 1c6e febc 70e1 9f3d
00000380: 1f8d f33d 5664 663d 1731 42bd 9235 bd3c
00000390: 77c2 973c f254 8a3d 8a3e ad3d d8a1 193e
000003a0: f37f 253c ac90 163d 38a5 283d cd6c 023e
000003b0: c898 15be 6a52 413c 2bad a9bd 55eb eb3c
000003c0: 7b2b 15be c2cb 9dbd f19e 53bd f73f 53bd
000003d0: 3043 183e fabd 393d 308d 36bd 1e71 f8bc
000003e0: 56fe 173d 723d b33c bc0c 3e3d b52f 0d3e
000003f0: 6fc6 0d3c 7bab dd3c 20fe e5bc 17b5 c63d

policy_layer.bias f4 [8]
-0.01885651 -0.10061838 -0.06772483 -0.050419886 -0.0034036664 -0.08625988 -0.12187264 0.046766907
00000000: f878 9abc 0211 cebd 51b3 8abd 1585 4ebd
00000010: 0c10 5fbb 05a9 b0bd 5d98 f9bd a88e 3f3d

value_layer.weight f4 [1, 64]
0.007958182 0.03160939 -0.004680661 -0.0011885302 -0.079015195 0.033044692 -0.028157257 0.00025057883
-0.023553643 0.027984016 -0.07596725 -0.031165874 0.040470317 -0.03348352 -0.034188718 -0.04957361
0.0055217706 -0.0583781 0.11825529 0.035140228 -0.063366994 0.0647472 0.068638265 0.12766749
0.051608913 0.109500386 -0.051288687 -0.09572476 -0.03016012 0.0033478928 0.099736854 0.07247672
0.0276785 0.041975293 0.060750764 0.01249922 -0.06619562 0.0140096815 -0.042851236 -0.02212888
-0.0050181616 0.0654072 -0.033218853 -0.03121004 0.08790931 -0.055307858 0.07217377 -0.017252915
-0.08189661 0.023079425 0.07517893 0.00019435672 -0.049181394 -0.033166952 -0.08632706 -0.07114309
-0.054812722 -0.0073929927 0.016785637 0.010612294 0.036225636 0.063204415 -0.0982761 -0.065065056
00000000: 0963 023c d978 013d 3b60 99bb 75c8 9bba
00000010: b8d2 a1bd df59 073d 0caa e6bc 1f60 8339
00000020: 92f3 c0bc bc3e e53c b894 9bbd 934f ffbc
00000030: 34c4 253d 0426 09bd 7809 0cbd b30d 4bbd
00000040: f8ef b43b e01d 6fbd d42f f23d 33ef 0f3d
00000050: 8ec6 81bd 2e9a 843d 3892 8c3d 44bb 023e
00000060: de63 533d bd41 e03d 1614 52bd 580b c4bd
00000070: 5b12 f7bc 5268 5b3b d642 cc3d ad6e 943d
00000080: 06be e23c 49ee 2b3d cbd5 783d 87c9 4c3c
00000090: 9291 87bd dd88 653c c784 2fbd a047 b5bc
000000a0: 646f a4bb 36f4 853d 7e10 08bd 33ac ffbc
000000b0: cc09 b43d 7e8a 62bd d7cf 933d fc55 8dbc
000000c0: 69b9 a7bd 1011 bd3c 69f7 993d 3ccc 4b39
000000d0: 6e72 49bd 12da 07bd 3ecc b0bd 78b3 91bd
000000e0: 4e83 60bd eb40 f2bb 0882 893c 30df 2d3c
000000f0: 5561 143d 5171 813d fb44 c9bd d440 85bd

log_std_parameter f4 [8]
-3.2533202 -2.8696578 -3.1775577 -3.2617955 -3.8664465 -3.46404 -4.0129213 -2.820115
00000000: 6636 50c0 79a8 37c0 1b5d 4bc0 42c1 50c0
00000010: dc73 77c0 d5b2 5dc0 da69 80c0 c47c 34c0

net_container.0.weight f4 [256, 45]
0.015774556 -0.21422544 0.004276831 -0.07736757 -0.13513495 0.044529546 0.0996683 -0.008972327
0.019777363 -0.096462145 -0.04670851 0.09569117 0.0621705 -0.17378959 -0.035007805 -0.08133192
0.12332872 -0.09233088 -0.006768015 -0.0999745 -0.1517784 0.11951906 0.14094803 -0.0947746
-0.075410865 -0.0020267803 -0.104310535 0.010242817 0.15679227 -0.093304366 -0.1823834 0.015171934
0.07861079 -0.1182914 -0.09708071 0.1366954 -0.05931225 -0.062522784 -0.14688964 0.09527825
0.05699423 -0.006547297 0.12172086 0.033984423 0.08373801 0.05888738 -0.096686065 0.05452919
-0.1498855 0.05444736 -0.11420821 0.16722307 0.14570776 0.10987914 -0.042862806 -0.10371398
0.08710666 -0.03388409 -0.099639535 0.19245756 -0.014710578 -0.07546806 -0.14935711 -0.08412769
0.0010537199 -0.009635685 -0.0072002094 -0.04136002 0.07583465 -0.070345685 0.008599636 0.06378877
-0.10033288 -0.12332363 0.2529299 -0.058004655 -0.027473338 -0.008238043 0.08276585 -0.015484699
0.10432336 -0.003043204 0.05029516 0.05043897 0.12536943 -0.06608649 -0.07528635 -0.06700105
0.086302355 -0.09440088 0.15559578 0.14290541 -0.0490829 0.11164534 0.04349602 -0.109724134
-0.0062202793 0.085189946 -0.13747153 0.036498208 -0.09636542 0.16235949 -0.031571876 -0.11016601
-0.052104056 -0.08076901 0.0155597925 0.15834329 0.095447175 0.09801186 -0.10719915 -0.07963488
0.11032992 0.057162408 0.07812229 0.09373567 0.1501725 -0.009621435 0.11961574 0.034554742
-0.063888445 0.009693526 0.11000973 0.013353082 -0.086789265 -0.03598866 0.11290777 -0.00449841
0.09335053 -0.05448948 0.11984489 -0.06869114 -0.07750284 -0.07825712 -0.09079924 -0.16530716
-0.023158725 0.05924201 0.039081093 0.17792122 0.00037362028 0.020779073 0.0038344234 -0.22719467
-0.091637306 -0.14441669 0.13907297 0.14572154 -0.008387906 -0.17652398 0.042118225 0.03818276
0.15919761 -0.14596759 -0.03763185 0.044193476 0.09315387 -0.018118124 0.08949673 -0.116674505
0.0075276885 0.0069931145 -0.032079406 0.048741985 0.05977627 0.102895044 -0.13389525 -0.06004633
0.097829804 0.123675585 0.10120841 0.11531152 0.05050575 -0.07913483 -0.0014258717 0.18540753
-0.024811374 0.013741742 -0.10270542 -0.069808304 -0.05451697 0.05617627 0.01181314 0.06979373
-0.18802647 -0.042882673 0.047707662 -0.034235004 0.043910146 0.11850913 0.030975576 -0.10547835
0.031813107 0.18410356 -0.062200844 -0.008301263 0.11367597 0.024020676 0.035206992 -0.12876777
0.15808715 0.00083821296 -0.017124685 0.007121828 -0.112856045 0.11811191 -0.06729942 -0.047631405
0.007928204 -0.031850245 -0.09023285 0.028614637 -0.06779935 0.16601725 -0.07796183 0.10709942
0.091865994 0.10854633 -0.118819155 0.1473744 -0.03634029 0.03307787 0.16352792 -0.14869852
-0.0046917293 -0.08425402 -0.1399253 -0.04574243 -0.010870858 -0.100821644 0.057212986 0.11114508
0.14150584 0.021589957 -0.050397053 -0.062088184 -0.098013796 -0.11755253 0.033920962 -0.03735904
-0.081101686 0.066363774 -0.024353 0.1634257 0.040991053 0.029562837 -0.09136377 -0.003467568
-0.0066961627 -0.075813524 0.10750338 0.14417253 0.123789504 0.04527103 0.023349022 -0.16564566
00000000: a439 813c ea5d 5bbe a924 8c3b e372 9ebd
00000010: d160 0abe 9d64 363d e51e cc3d ab00 13bc
00000020: 2304 a23c f28d c5bd 6c51 3fbd bbf9 c33d
00000030: 7fa6 7e3d e6f5 31be 5864 0fbd 5a91 a6bd
00000040: c593 fc3d f917 bdbd 3ac6 ddbb 6ebf ccbd
00000050: cc6b 1bbe 69c6 f43d ae54 103e 2f19 c2bd
00000060: 0371 9abd bbd3 04bb c3a0 d5bd 7dd1 273c
00000070: 278e 203e 5c16 bfbd b7c2 3abe b493 783c
00000080: b2fe a03d c342 f2bd 40d2 c6bd e1f9 0b3e
00000090: 67f1 72bd f20b 80bd 3d6a 16be 3e21 c33d
000000a0: c872 693d b58a d6bb c948 f93d 4033 0b3d
000000b0: d57e ab3d e533 713d 5803 c6bd 005a 5f3d
000000c0: 967b 19be 3204 5f3d fee5 e9bd 863c 2b3e
000000d0: 6a34 153e 5108 e13d e990 2fbd ff67 d4bd
000000e0: fa64 b23d 0bca 0abd d00f ccbd 9813 453e
000000f0: a304 71bc 008f 9abd 12f1 18be 234b acbd
00000100: f91c 8a3a fede 1dbc bcef ebbb 2069 29bd
00000110: 324f 9b3d 6611 90bd 7de5 0c3c b0a3 823d
00000120: 537b cdbd 1991 fcbd 0780 813e 4a96 6dbd
00000130: c40f e1bc dbf8 06bc 2481 a93d 89b3 7dbc
00000140: 7ca7 d53d 7e70 47bb 4c02 4e3d 1899 4e3d
00000150: d860 003e 5b58 87bd bb2f 9abd d937 89bd
00000160: 4abf b03d 4055 c1bd 8054 1f3e cc55 123e
00000170: 270b 49bd 50a6 e43d e228 323d 0cb7 e0bd
00000180: 7cd3 cbbb 1178 ae3d 56c5 0cbe 257f 153d
00000190: 3c5b c5bd 9141 263e 8351 01bd b89e e1bd
000001a0: 106b 55bd 396a a5bd 80ee 7e3c be24 223e
000001b0: cf79 c33d 71ba c83d 3a8b dbbd 9d17 a3bd
000001c0: a7f4 e13d 2123 6a3d 94fe 9f3d 7df8 bf3d
000001d0: d2c6 193e 39a3 1dbc 19f9 f43d 4689 0d3d
000001e0: f2d7 82bd 98d1 1e3c c84c e13d e3c6 5a3c
000001f0: 92be b1bd d868 13bd 303c e73d 6667 93bb
00000200: 902e bf3d 5c30 5fbd 3d71 f53d f1ad 8cbd
00000210: cfb9 9ebd 4545 a0bd f4f4 b9bd 4846 29be
00000220: 5eb7 bdbc c0a7 723d 7f13 203d fb30 363e
00000230: 77e2 c339 e038 aa3c f34a 7b3b b8a5 68be
00000240: 57ac bbbd f8e1 13be 2569 0e3e 0738 153e
00000250: 6d6d 09bc b4c2 34be 2984 2c3d 8765 1c3d
00000260: b304 233e 8778 15be db23 1abd 3804 353d
00000270: 75c7 be3d 766c 94bc 104a b73d 0bf3 eebd
00000280: d4aa f63b 7f26 e53b b265 03bd ada5 473d
00000290: f6d7 743d a3ba d23d d61b 09be 24f3 75bd
000002a0: fe5a c83d a049 fd3d 5b46 cf3d 7228 ec3d
000002b0: 1edf 4e3d 7111 a2bd 51e4 baba 79db 3d3e
000002c0: 3941 cbbc 0b25 613c 3857 d2bd a8f7 8ebd
000002d0: 304d 5fbd 1719 663d e68b 413c 04f0 8e3d
000002e0: 038a 40be bea5 2fbd 1c69 433d 013a 0cbd
000002f0: 20db 333d eab4 f23d 7ec0 fd3c 0805 d8bd
00000300: 764e 023d a585 3c3e 50c6 7ebd 0502 08bc
00000310: f2ce e83d 02c7 c43c 3535 103d b3db 03be
00000320: 99e1 213e 85bb 5b3a 1149 8cbc 395e e93b
00000330: 1221 e7bd a8e4 f13d 47d4 89bd 2619 43bd
00000340: 4ce5 013c 6775 02bd 00cc b8bd 3e69 ea3c
00000350: 63da 8abd 6d00 2a3e 74aa 9fbd f156 db3d
00000360: 3d24 bc3d 8a4d de3d 7557 f3bd 51e9 163e
00000370: 8ed9 14bd a97c 073d dd73 273e 6d44 18be
00000380: 14bd 99bb 5f8d acbd 9448 0fbe 6a5c 3bbd
00000390: af1b 32bc 947b cebd 2a58 6a3d 08a0 e33d
000003a0: e8e6 103e 6cdd b03c 246d 4ebd 2e50 7ebd
000003b0: 75bb c8bd 61bf f0bd b5f0 0a3d cb05 19bd
000003c0: a418 a6bd bbe9 873d f17f c7bc 1159 273e
000003d0: 3ce6 273d c32d f23c ee1c bbbd 2340 63bb
000003e0: 7c6b dbbb 1f44 9bbd bb2a dc3d f7a1 133e
000003f0: 5a85 fd3d 1e6e 393d 7346 bf3c 049f 29be
