CubeStackTask/logs/skrl/object_red_stack/2025-10-09_17-18-16_ppo_torch/checkpoints/agent_36000.pt (torch, 660141 bytes, 46 tensors)

log_std_parameter f4 [8]
-3.159041 -2.791901 -3.0832808 -3.1399956 -3.7379043 -3.3486724 -3.8801806 -2.7223067
00000000: ba2d 4ac0 82ae 32c0 7954 45c0 b0f5 48c0
00000010: d339 6fc0 a650 56c0 e154 78c0 463a 2ec0

net_container.0.weight f4 [256, 45]
0.015861867 -0.21404739 0.004385513 -0.07688891 -0.13498564 0.04460475 0.09933287 -0.009315661
0.01980515 -0.09620678 -0.04658493 0.096064635 0.06257994 -0.17390564 -0.035178795 -0.080792986
0.12391726 -0.093253545 -0.006848065 -0.10047822 -0.15181431 0.11825279 0.1397608 -0.09572894
-0.07638845 -0.0038499366 -0.10237775 0.009925703 0.15737927 -0.094784886 -0.18103926 0.016356438
0.080221035 -0.11974103 -0.096516125 0.13738497 -0.06003106 -0.065002054 -0.14674929 0.09541309
0.056457818 -0.00664905 0.119937114 0.034522984 0.08314948 0.058902115 -0.09627086 0.054720987
-0.14950374 0.055114593 -0.11358492 0.1656941 0.14512238 0.10962078 -0.042624876 -0.10383599
0.0871979 -0.033198044 -0.09918279 0.19065149 -0.01465589 -0.07553019 -0.14989285 -0.08250324
0.0024685 -0.009143085 -0.007657361 -0.04033004 0.073594876 -0.07185319 0.010870365 0.06497493
-0.09954644 -0.1232749 0.24977177 -0.060204778 -0.023100737 -0.009908062 0.08033442 -0.016572328
0.10439266 -0.0032996936 0.047924053 0.050659005 0.12498698 -0.06681893 -0.0751475 -0.0655681
0.08635736 -0.09433875 0.15516065 0.1427395 -0.04910008 0.11150029 0.043047223 -0.10967344
-0.00518232 0.08663328 -0.1376735 0.036842182 -0.096286364 0.16241132 -0.032149833 -0.110030174
-0.0513148 -0.080714665 0.015455491 0.1590553 0.09762722 0.10066735 -0.10792636 -0.084147535
0.11026484 0.05440509 0.07703598 0.09076289 0.15094632 -0.010269722 0.1191491 0.037556116
-0.06205169 0.007987045 0.10927681 0.009060122 -0.08675968 -0.03762989 0.11276934 0.001271213
0.09341731 -0.051823407 0.119734496 -0.06845604 -0.078087 -0.07820278 -0.09069454 -0.1646695
-0.022762606 0.060208015 0.03990303 0.17785504 0.00086792116 0.022543617 0.0052150823 -0.22621776
-0.09109858 -0.14337441 0.13948916 0.14536496 -0.0076394416 -0.17455827 0.04288381 0.039009932
0.15788361 -0.14723814 -0.039241247 0.04397032 0.09298496 -0.01707465 0.086508326 -0.11989955
0.010775677 0.008183095 -0.030405292 0.049562037 0.06240443 0.11359665 -0.1371738 -0.059340287
0.09699159 0.12204529 0.10194909 0.11519754 0.04984778 -0.07864523 0.0017438226 0.18669036
-0.025940564 0.010900177 -0.101940125 -0.07063516 -0.054285612 0.056135736 0.011768609 0.06987337
-0.18790622 -0.04299421 0.047396902 -0.034344222 0.043945406 0.118478425 0.030962972 -0.10535122
0.032031868 0.18392625 -0.062166072 -0.0073348964 0.114737704 0.025240263 0.033610668 -0.12582442
0.15853058 -0.0003275004 -0.017960528 0.00673318 -0.11221498 0.11585114 -0.06361927 -0.05013961
0.0061541456 -0.03327099 -0.08195243 0.024434196 -0.06958712 0.16571757 -0.07477806 0.105269946
0.09172928 0.105037645 -0.11886541 0.14639603 -0.036288835 0.03212048 0.16281971 -0.14773262
-0.005753679 -0.08417733 -0.14019296 -0.045733225 -0.011122121 -0.10059693 0.05680549 0.110886
0.1404919 0.021366868 -0.050969183 -0.06200631 -0.09852168 -0.117029145 0.033339333 -0.0373617
-0.081126295 0.06643337 -0.023324141 0.16406685 0.041225147 0.028684845 -0.09178433 -0.003228616
-0.0074323337 -0.07402499 0.109390505 0.14568788 0.12397209 0.045996275 0.022617163 -0.16591033
00000000: bff0 813c 3d2f 5bbe 59b4 8f3b ef77 9dbd
00000010: ad39 0abe 78b3 363d 086f cb3d b7a0 18bc
00000020: 693e a23c 0f08 c5bd d7cf 3ebd 89bd c43d
00000030: e929 803d 5214 32be a417 10bd cb76 a5bd
00000040: 55c8 fd3d b7fb bebd bc65 e0bb 86c7 cdbd
00000050: 3675 1bbe 852e f23d 751d 0f3e 890d c4bd
00000060: 8c71 9cbd 384f 7cbb 6dab d1bd 6a9f 223c
00000070: 0828 213e 941e c2bd 5b62 39be f0fd 853c
00000080: ed4a a43d c93a f5bd 3faa c5bd a5ae 0c3e
00000090: 21e3 75bd cc1f 85bd 7245 16be f067 c33d
000000a0: 5040 673d 46e0 d9bb 97a1 f53d f967 0d3d
000000b0: 464a aa3d 5843 713d a829 c5bd 1d23 603d
000000c0: 8217 19be d7bf 613d 369f e8bd b7ab 293e
000000d0: f69a 143e dc80 e03d 6c97 2ebd f7a7 d4bd
000000e0: d094 b23d acfa 07bd 5920 cbbd 253a 433e
000000f0: 421f 70bc 92af 9abd 837d 19be 75f7 a8bd
00000100: 8fc6 213b e1cc 15bc 9aea fabb 1d31 25bd
00000110: e9b8 963d c427 93bd 9e19 323c 9311 853d
00000120: 01df cbbd 8d77 fcbd 2cc4 7f3e 4999 76bd
00000130: c23d bdbc 6d55 22bc 5f86 a43d b1c2 87bc
00000140: d2cb d53d ac3f 58bb 034c 443d d17f 4f3d
00000150: 2cf9 ff3d 5dd8 88bd efe6 99bd 9148 86bd
00000160: 21dc b03d ad34 c1bd 6fe2 1e3e 4e2a 123e
00000170: 2a1d 49bd 445a e43d 4952 303d 789c e0bd
00000180: 73d0 a9bb ca6c b13d 48fa 0cbe d4e7 163d
00000190: c931 c5bd 274f 263e 8baf 03bd 8057 e1bd
000001a0: 782f 52bd bb4d a5bd 0739 7d3c 64df 223e
000001b0: c8f0 c73d af2a ce3d 7f08 ddbd 8b55 acbd
000001c0: 88d2 e13d dfd7 5e3d 0ac5 9d3d e5e1 b93d
000001d0: ac91 1a3e 5642 28bc 7104 f43d 71d4 193d
000001e0: ea29 7ebd 18dc 023c 85cc df3d e870 143c
000001f0: 0faf b1bd cd21 1abd 9df3 e63d d59e a63a
00000200: 9351 bf3d c844 54bd 5c37 f53d ae32 8cbd
00000210: 14ec 9fbd c728 a0bd 0fbe b9bd 1f9f 28be
00000220: a578 babc ae9c 763d 5c71 233d a21f 363e
00000230: 3485 633a 64ad b83c 48e3 aa3b a1a5 67be
00000240: e491 babd bed0 12be 3fd6 0e3e 8dda 143e
00000250: 4854 fabb 67bf 32be efa6 2f3d e1c8 1f3d
00000260: 3eac 213e 98c5 16be 6ebb 20bd 391a 343d
00000270: e66e be3d 23e0 8bbc 472b b13d e58d f5bd
00000280: 778c 303c 6312 063c 8514 f9bc 9001 4b3d
00000290: ca9b 7f3d 5ca5 e83d 4a77 0cbe cd0e 73bd
000002a0: 87a3 c63d e2f2 f93d afca d03d b0ec eb3d
000002b0: 302d 4c3d c010 a1bd fa90 e43a c22b 3f3e
000002c0: 4e81 d4bc a896 323c fcc5 d0bd 2ba9 90bd
000002d0: 975a 5ebd 96ee 653d 20d1 403c c519 8f3d
000002e0: 7d6a 40be b21a 30bd 4123 423d 87ac 0cbd
000002f0: 1900 343d d1a4 f23d 0fa6 fd3c 61c2 d7bd
00000300: d933 033d 2a57 3c3e daa1 7ebd 9259 f0bb
00000310: 9afb ea3d abc4 ce3c 57ab 093d 1ed8 00be
00000320: d755 223e 5cb4 abb9 f521 93bc 02a2 dc3b
00000330: f8d0 e5bd 5d43 ed3d d24a 82bd 315f 4dbd
00000340: b7a8 c93b 2947 08bd add6 a7bd 392a c83c
00000350: b183 8ebd deb1 293e 3d25 99bd c597 d73d
00000360: 90dc bb3d fa1d d73d b56f f3bd d7e8 153e
00000370: 9aa3 14bd c490 033d 36ba 263e 3847 17be
00000380: 5c89 bcbb 2a65 acbd be8e 0fbe c352 3bbd
00000390: 8e39 36bc c305 cebd e0ac 683d 3318 e33d
000003a0: 1cdd 0f3e 9209 af3c 10c5 50bd 54fa 7dbd
000003b0: bcc5 c9bd faac efbd d38e 083d 9508 19bd
000003c0: 8b25 a6bd 380e 883d 4512 bfbc 2401 283e
000003d0: b3db 283d 7bfc ea3c 6cf9 bbbd 3097 53bb
000003e0: ef8a f3bb 6a9a 97bd 2108 e03d 342f 153e
000003f0: 14e5 fd3d 9766 3c3d a147 b93c 66e4 29be

net_container.0.bias f4 [256]
0.20500338 -0.13324225 0.036638934 0.0114982575 0.042095393 0.045607243 0.1509807 0.13379546
0.08885613 -0.00044372267 0.036541693 -0.046712533 0.06247377 -0.041973777 0.13924588 -0.100336425
0.108312465 -0.11647584 0.122584954 0.059812143 0.01886981 0.050050557 -0.07436278 0.17578161
0.08892239 0.050030734 -0.05363949 -0.20467564 -0.13035622 -0.10132827 -0.083634794 -0.031372845
0.12949371 0.09034503 0.0270721 -0.18858242 0.105242126 -0.018300604 0.094241716 -0.1033087
-0.17362237 0.14935903 -0.09305726 -0.05171974 0.018749326 -0.06290388 -0.0056960043 -0.11513428
0.11616124 0.052090038 -0.06747975 -0.054461833 -0.12224947 -0.07700089 -0.13035858 -0.06330646
0.14912911 0.017882112 0.13987021 0.119876355 -0.07246339 0.09996725 0.15504599 -0.017744629
0.009442974 0.1621926 0.09572982 -0.067532174 0.08716739 0.0977342 0.118372455 -0.11311614
0.13262497 0.043131713 -0.033203747 0.075027 0.1320373 -0.025114134 0.15176761 0.08814993
-0.14537945 -0.11707203 0.08295199 0.106128834 0.001796007 0.123470984 0.09689877 0.14497471
-0.058929794 0.12927943 -0.07544643 -0.09582138 0.05883353 -0.11233382 -0.03521256 0.03476211
0.060655873 0.009724026 -0.17208369 0.0041646725 0.087090105 0.07019589 -0.17471088 -0.007076886
-0.012893573 0.057521366 -0.017091654 -0.072436646 -0.03513868 -0.053257495 0.01811517 0.082724765
-0.094007455 -0.11347474 0.10359452 0.1221948 -0.16688105 0.04460743 -0.043053836 0.055287812
-0.06233279 -0.059605487 0.17505293 -0.17566082 0.016804853 -0.08897729 -0.089554004 0.13273548
0.09350376 -0.23944254 0.13379818 -0.05404199 -0.17934033 -0.04905133 -0.09012022 0.0034660003
0.2166129 0.07619731 0.09395763 0.05236979 0.12891442 -0.17035909 -0.029060973 -0.14456709
-0.07442338 0.09868909 -0.04119036 -0.13421597 -0.09661203 -0.15761723 -0.03903333 0.06462911
-0.04670339 0.022404717 0.1354467 -0.06476857 -0.0670076 -0.11027361 -0.0896734 -0.028292393
-0.08230763 0.11468643 0.11194178 0.019874943 0.07941059 -0.06620053 -0.11526246 0.032022547
-0.14870419 -0.15939397 0.10688362 -0.064432494 0.16492984 -0.16020098 0.15363267 0.15569358
-0.057162035 -0.13189583 -0.089732334 0.13473332 -0.12360894 0.078583494 0.07460063 -0.056317773
-0.12437545 0.04908469 0.04887847 0.045398258 -0.06015187 -0.09674512 0.0048577557 -0.10331615
-0.027333396 -0.06390853 0.13502382 0.058744848 -0.12436111 0.040175118 -0.031591013 0.05156392
0.011362989 0.07673998 0.05464927 0.03835838 0.12258604 -0.020679148 0.03755704 -0.11343591
-0.033012312 0.18597381 -0.012045616 0.07848942 0.17715177 0.09950648 -0.12993716 0.05860058
0.10264741 0.068517454 0.14975141 0.103551164 0.010582282 0.051637508 0.022015935 -0.14085665
0.1181979 -0.11382771 -0.06535043 0.0573481 -0.075841784 -0.07571166 0.19525896 0.02027588
-0.11453449 0.13929196 0.12525083 0.09916896 0.021289531 0.17695463 0.05164762 0.10104332
-0.03740199 -0.066152416 0.15084757 0.02756792 0.030792128 0.087581925 -0.18280384 0.0058862627
0.00029036764 -0.010548619 0.14206578 0.0013580621 -0.10452915 0.017275074 -0.21736147 0.04473294
00000000: 68ec 513e a870 08be b512 163d 3063 3c3c
00000010: 386c 2c3d a9ce 3a3d af9a 1a3e ad01 093e
00000020: 34fa b53d 73a3 e8b9 beac 153d a455 3fbd
00000030: 7fe4 7f3d b2ec 2bbd 7996 0e3e 2f7d cdbd
00000040: edd2 dd3d e38a eebd d20d fb3d 94fd 743d
00000050: dc94 9a3c d001 4d3d 834b 98bd 1800 343e
00000060: f11c b63d 07ed 4c3d 15b5 5bbd 7e96 51be
00000070: 1a7c 05be 3285 cfbd b848 abbd d080 00bd
00000080: 009a 043e d106 b93d 4fc6 dd3c c01b 41be
00000090: 2f89 d73d 26eb 95bc cd01 c13d 8393 d3bd
000000a0: 10ca 31be 93f1 183e ce94 bebd 14d8 53bd
000000b0: 3098 993c c0d3 80bd 8ca5 babb 85cb ebbd
000000c0: f2e5 ed3d 5d5c 553d d332 8abd 5f13 5fbd
000000d0: ee5d fabd a5b2 9dbd b87c 05be d1a6 81bd
000000e0: 4db5 183e 827d 923c 233a 0f3e bc81 f53d
000000f0: b067 94bd a1bb cc3d 60c4 1e3e 2f5d 91bc
00000100: b4b6 1a3c d115 263e ff0d c43d 4f4e 8abd
00000110: d184 b23d de28 c83d 426d f23d 6fa9 e7bd
00000120: d7ce 073e e1aa 303d a700 08bd c1a7 993d
00000130: c934 073e 28bc cdbc f868 1b3e f387 b43d
00000140: 5ade 14be 76c3 efbd bce2 a93d 135a d93d
00000150: ff67 eb3a 5bde fc3d dd72 c63d 4074 143e
00000160: 5e60 71bd d461 043e a883 9abd 003e c4bd
00000170: 6dfb 703d 460f e6bd 0c3b 10bd b762 0e3d
00000180: 4b72 783d 8551 1f3c b536 30be ce77 883b
00000190: 4c5c b23d ddc2 8f3d 69e7 32be 39e5 e7bb
000001a0: 913f 53bc 869b 6b3d cc03 8cbc aa59 94bd
000001b0: 94ed 0fbd 8824 5abd 4466 943c 9a6b a93d
000001c0: fb86 c0bd 7265 e8bd 5d29 d43d 4441 fa3d
000001d0: dee2 2abe 48b6 363d 3859 30bd 7975 623d
000001e0: ab50 7fbd e224 74bd 1341 333e 6ee0 33be
000001f0: 55aa 893c ba39 b6bd 1768 b7bd cfeb 073e
00000200: e67e bf3d 6d30 75be 6402 093e 225b 5dbd
00000210: fea4 37be 0cea 48bd f390 b8bd d625 633b
00000220: c6cf 5d3e 560d 9c3d dc6c c03d b481 563d
00000230: 2402 043e 9d72 2ebe 4711 eebc 6509 14be
00000240: 496b 98bd 811d ca3d 39b7 28bd e96f 09be
00000250: 87dc c5bd 6966 21be 6ae1 1fbd 445c 843d
00000260: 0e4c 3fbd 198a b73c 8ab2 0a3e 62a5 84bd
00000270: 483b 89bd 21d7 e1bd b0a6 b7bd 73c5 e7bc
00000280: e790 a8bd b8e0 ea3d bb41 e53d c7d0 a23c
00000290: 05a2 a23d 2594 87bd ba0e ecbd 132a 033d
000002a0: e945 18be 2c38 23be cde5 da3d 2ff5 83bd
000002b0: 5ee3 283e ba0b 24be e251 1d3e 236e 1f3e
000002c0: bd22 6abd b30f 07be 96c5 b7bd 88f7 093e
000002d0: af26 fdbd 62f0 a03d 37c8 983d 77ad 66bd
000002e0: 8eb8 febd 070d 493d ca34 483d 86f3 393d
000002f0: cf61 76bd 4e22 c6bd cf2d 9f3b 6b97 d3bd
00000300: 49ea dfbc 7ae2 82bd af43 0a3e 709e 703d
00000310: 0ab1 febd aa8e 243d 9465 01bd b034 533d
00000320: d52b 3a3c da29 9d3d ead7 5f3d ad1d 1d3d
00000330: 640e fb3d 5167 a9bc 69d5 193d 1651 e8bd
00000340: eb37 07bd eb6f 3e3e fa5a 45bc 10bf a03d
00000350: 4667 353e 0eca cb3d 3f0e 05be 2907 703d
00000360: ce38 d23d e152 8c3d 6f58 193e a212 d43d
00000370: 4f61 2d3c da81 533d c35a b43c ba3c 10be
00000380: be11 f23d 811e e9bd 72d6 85bd d7e5 6a3d
00000390: f052 9bbd b70e 9bbd f7f1 473e 9a19 a63c
000003a0: 0f91 eabd 8da2 0e3e c141 003e 1819 cb3d
000003b0: 6267 ae3c 9833 353e 748c 533d cdef ce3d
000003c0: d432 19bd eb7a 87bd c977 1a3e 1ed6 e13c
000003d0: c63f fc3c 275e b33d ee30 3bbe 8de1 c03b
000003e0: 7c3c 9839 1dd4 2cbc b179 113e 0101 b23a
000003f0: 6113 d6bd 7584 8d3c 0194 5ebe e339 373d

net_container.2.weight f4 [128, 256]
0.057427842 -0.024599949 0.0015336602 -0.017679792 0.024043288 -0.027633388 0.026409306 -0.057289127
-0.031305134 0.057572186 -0.04825197 -0.026025208 0.03606735 -0.07058943 0.01615051 -0.008329238
-0.03380113 0.0177244 0.0050927307 0.03496267 -0.048876826 -0.004389532 -0.04129118 -0.10148917
-0.019452192 0.03056323 -0.043170054 0.08255352 0.016428938 0.009333911 -0.00040293843 0.038391937
-0.0763745 -0.06547913 -0.08093377 0.057536483 -0.01115611 0.07158584 0.026503628 0.037352413
0.058943976 0.053651433 -0.0025050244 -0.038107075 0.041492365 0.039522562 -0.05330237 0.08180665
0.04008296 0.014691057 0.06423503 0.03062129 0.042626712 -0.036496013 0.026659317 0.015940014
-0.091956526 -0.07107436 0.034882758 -0.008993314 0.0460888 0.0150613785 0.020872958 0.008697412
-0.060423464 -0.052982785 -0.052951507 -0.07186312 -0.019175224 0.028487694 -0.008487509 -0.010572903
0.028118376 -0.030663915 0.014931466 0.07204683 -0.022437606 -0.03387127 0.008850282 0.05609388
0.075063154 0.07843043 -0.04188127 0.040569767 0.005935874 0.040477835 -0.027956113 -0.10745612
0.038898967 -0.036580835 -0.037509304 -0.015867366 -0.026701666 0.03693275 -0.0562389 -0.036163703
-0.016032986 -0.048179306 0.0695228 -0.0028619948 -0.014401904 -0.047225043 -0.009046995 -0.00392283
0.025218999 -0.055773444 -0.03002705 0.010615248 0.080267034 0.077635884 -0.0044409335 -0.06254029
0.08129157 0.022021497 -0.057835065 -0.069189586 -0.020400848 -0.033918582 0.014199292 0.043544978
-0.034746278 0.039163746 -0.049533315 0.06023732 0.046765245 0.066702195 -0.003630715 -0.068344146
0.012439667 0.044779487 -0.0721496 -0.033598557 0.045397487 0.028878557 0.0736958 0.024872717
0.06341182 -0.010091077 0.015455918 0.09051739 -0.033670142 0.017112646 -0.054104324 0.038690012
0.0027225798 -0.065505415 0.015072475 0.05020519 -0.03765819 -0.042822678 0.08590111 -0.04615996
-0.060266603 0.051129535 -0.09376183 0.07538579 -0.019787248 0.018581934 0.03677525 -0.0711427
0.06274327 -0.027174413 -0.0842493 -0.08126828 0.01322523 -0.0153858345 -0.08032363 -0.049259227
0.041150637 0.047896016 -0.0075826794 0.078931674 -0.030354934 0.007189332 0.052421317 -0.0044514583
-0.011190088 0.0054251244 0.05024388 -0.06540772 -0.0475818 -0.102682926 0.021883184 -0.005549625
-0.017237423 0.036711816 -0.029984856 0.009810956 -0.03124955 -0.016875185 -0.025421824 0.08031778
-0.0029581 -0.063052446 -0.054272544 -0.035797518 -0.064919755 0.07022414 0.06394059 -0.041926645
-0.010341925 0.023500996 -0.0702635 -0.07000408 0.013112432 0.03084095 0.078904405 -0.045398932
-0.026243748 -0.08122522 -0.010581765 -0.0615006 -0.07830069 -0.042642117 0.03128328 -0.055215396
0.005553564 -0.00820465 -0.038966954 -0.0138998255 0.019409256 0.01871267 -0.020470027 0.022788802
-0.033511903 0.057202484 0.028079256 0.069968574 0.057084586 -0.048095472 0.019872198 0.08203624
-0.041092932 -0.01806154 -0.08514252 -0.063437715 0.059822015 -0.049916714 -0.021675285 0.018286694
-0.025412034 0.025572352 0.027062139 -0.015254497 -0.05491288 0.061133094 0.060551718 -0.0013246192
0.04308552 -0.012576003 -0.09080787 -0.05186051 -0.01299023 -0.039984588 0.048412405 -0.006975688
00000000: 7539 6b3d d585 c9bc 1905 c93a 36d5 90bc
00000010: 6ef6 c43c 6a5f e2bc 5458 d83c 01a8 6abd
00000020: d039 00bd d0d0 6b3d dca3 45bd d132 d5bc
00000030: 5cbb 133d 3191 90bd 134e 843c 5b77 08bc
00000040: 0e73 0abd c332 913c ece0 a63b 0435 0f3d
00000050: 1133 48bd 10d6 8fbb f120 29bd 8ed9 cfbd
00000060: 345a 9fbc bd5f fa3c 15d3 30bd d211 a93d
00000070: fb95 863c 43ed 183c 7b41 d3b9 dd40 1d3d
00000080: 3c6a 9cbd ec19 86bd 9bc0 a5bd 60ab 6b3d
00000090: 1ec8 36bc 999b 923d 231e d93c d8fe 183d
000000a0: 3d6f 713d 9bc1 5b3d 562b 24bb 2a16 1cbd
000000b0: e6f3 293d 69e2 213d 9653 5abd 3f8a a73d
000000c0: 082e 243d c2b2 703c a88d 833d 80d9 fa3c
000000d0: 5999 2e3d d87c 15bd a464 da3c a294 823c
000000e0: b453 bcbd 6f8f 91bd 39e1 0e3d b158 13bc
000000f0: 9cc7 3c3d 00c4 763c c4fd aa3c 977f 0e3c
00000100: 987e 77bd 7a04 59bd aee3 58bd f92c 93bd
00000110: 5c15 9dbc 065f e93c 310f 0bbc f839 2dbc
00000120: 8258 e63c e432 fbbc 1ca3 743c 4a8d 933d
00000130: 12cf b7bc 9abc 0abd c600 113c b2c2 653d
00000140: b6ba 993d 22a0 a03d b28b 2bbd 7c2c 263d
00000150: b881 c23b 16cc 253d 3804 e5bc f411 dcbd
00000160: 8654 1f3d c9d5 15bd 5ba3 19bd 47fc 81bc
00000170: 74bd dabc cc46 173d c35a 66bd 6420 14bd
00000180: 9c57 83bc aa57 45bd f861 8e3d 4e90 3bbb
00000190: f7f5 6bbc 0c6f 41bd d939 14bc 158b 80bb
000001a0: 1398 ce3c b272 64bd 4afb f5bc 94eb 2d3c
000001b0: 0b63 a43d 90ff 9e3d 4085 91bb 2015 80bd
000001c0: 327c a63d 6d66 b43c 76e4 6cbd 45b3 8dbd
000001d0: ae1f a7bc 36ee 0abd 26a4 683c 385c 323d
000001e0: 1d52 0ebd 2a6a 203d 72e3 4abd 68bb 763d
000001f0: ea8c 3f3d 299b 883d 4af1 6dbb 04f8 8bbd
00000200: bfcf 4b3c b26a 373d 2bc3 93bd a49e 09bd
00000210: b7f2 393d b992 ec3c d3ed 963d dec1 cb3c
00000220: 0ede 813d 0b55 25bc d23a 7d3c 2e61 b93d
00000230: b4e9 09bd d22f 8c3c 7f9c 5dbd 6b79 1e3d
00000240: 4f6d 323b b427 86bd 8bf2 763c f5a3 4d3d
00000250: 793f 1abd d566 2fbd ecec af3d 3a12 3dbd
00000260: 1dda 76bd 346d 513d 3406 c0bd dd63 9a3d
00000270: de18 a2bc 2439 983c a5a1 163d 44b3 91bd
00000280: 8b7f 803d e09c debc e68a acbd fc6f a6bd
00000290: a3ae 583c de14 7cbc b780 a4bd 0bc4 49bd
000002a0: 928d 283d 9d2e 443d 2078 f8bb eea6 a13d
000002b0: e9aa f8bc 7d94 eb3b bcb7 563d 8add 91bb
000002c0: a156 37bc 3ec5 b13b 87cc 4d3d 7cf4 85bd
000002d0: 22e5 42bd 6d4b d2bd 5d44 b33c a1d9 b5bb
000002e0: 7f35 8dbc 215f 163d cda2 f5bc 22be 203c
000002f0: 0eff ffbc d43d 8abc 6e41 d0bc a67d a43d
00000300: afdc 41bb a421 81bd e34c 5ebd 6ba0 12bd
00000310: a6f4 84bd add1 8f3d 49f3 823d 46bb 2bbd
00000320: 2d71 29bc 2985 c03c 4fe6 8fbd 4d5e 8fbd
00000330: 87d5 563c 29a6 fc3c a298 a13d 3bf4 39bd
00000340: 21fd d6bc 6859 a6bd 245f 2dbc 0ee8 7bbd
00000350: 1d5c a0bd 80a9 2ebd e622 003d 8a29 62bd
00000360: acfa b53b cc6c 06bc d09b 1fbd 18bc 63bc
00000370: 2900 9f3c 504b 993c c2b0 a7bc 95af ba3c
00000380: c743 09bd 274d 6a3d 7806 e63c af4b 8f3d
00000390: 87d1 693d c2ff 44bd 05cb a23c 9e02 a83d
000003a0: 1051 28bd cbf5 93bc 345f aebd a2eb 81bd
000003b0: ee07 753d 7875 4cbd 5e90 b1bc facd 953c
000003c0: e62c d0bc 1c7d d13c 6bb1 dd3c ffed 79bc
000003d0: 54ec 60bd b266 7a3d 1405 783d d89e adba
000003e0: 717a 303d 940b 4ebc 7af9 b9bd b06b 54bd
000003f0: f9d4 54bc e1c6 23bd 164c 463d 5094 e4bb

net_container.2.bias f4 [128]
-0.014615224 -0.09156833 -0.025056941 -0.09994676 -0.09442906 0.038240656 0.068854116 -0.027838087
0.048472654 -0.084111184 0.07473874 -0.03234774 -0.02608956 0.011089499 -0.025284704 0.04753828
-0.10199026 -0.014787497 0.01905079 0.014904093 0.07799209 0.0024612388 -0.00549271 -0.021559764
0.018138265 0.023433201 0.011851516 -0.12985952 -0.085257724 -0.06116349 -0.09638992 -0.037438694
-0.015398021 -0.0061640716 0.06434699 0.035076972 -0.026411815 -0.08010048 -0.021658551 0.007924503
-0.120817214 -0.022431377 -0.06774528 0.054977074 0.052616626 0.03763522 0.05298857 0.07478673
0.066984765 0.04213916 -0.030315157 -0.11462496 0.006573768 0.07956101 -0.08807819 -0.046743132
0.071555935 -0.10431171 0.075949065 0.046391778 -0.11346605 0.059477776 -0.023814203 -0.047053684
0.022123072 -0.028036248 0.11517849 -0.048346125 -0.0039173565 -0.026391238 -0.08732049 -0.06047268
-0.10577572 0.030386923 -0.03301454 -0.046453975 -0.0034087154 0.029411176 -0.075864054 0.001879374
0.00816441 -0.061699193 0.08722002 0.0008017679 -0.06353837 -0.012671282 0.09439678 0.052522507
0.03654733 0.016827213 -0.12646066 0.037824515 -0.09887892 0.0027399207 -0.06985214 0.037096262
-0.00040037677 0.046150025 -0.06789935 -0.016979685 -0.09923434 -0.007877881 0.009966045 0.08503233
-0.03149362 -0.021117305 -0.015313981 -0.04789049 -0.0978213 -0.03613708 0.09568608 0.04961285
-0.07865607 -0.021916186 0.012405552 0.05327215 0.04573529 -0.036770068 -0.13419586 0.013956758
0.059219763 -0.008585108 -0.05522455 -0.033853333 0.07621119 -0.00816057 -0.08850989 -0.056431647
00000000: b174 6fbc 2d88 bbbd 3744 cdbc e3b0 ccbd
00000010: 0664 c1bd 3ca2 1c3d 6303 8d3d b30c e4bc
00000020: 438b 463d 7c42 acbd a010 993d 107f 04bd
00000030: c6b9 d5bc bbb0 353c de21 cfbc 80b7 423d
00000040: 45e0 d0bd 4247 72bc 6710 9c3c 4c30 743c
00000050: 51ba 9f3d bc4c 213b 31fc b3bb 1a9e b0bc
00000060: b396 943c fcf6 bf3c dc2c 423c e5f9 04be
00000070: 9a9b aebd 9186 7abd 1468 c5bd 5159 19bd
00000080: fb47 7cbc fbfb c9bb 5bc8 833d dfac 0f3d
00000090: 975d d8bc b80b a4bd 466d b1bc c6d5 013c
000000a0: 046f f7bd 02c2 b7bc 0abe 8abd a42f 613d
000000b0: 8884 573d 6327 1a3d 8b0a 593d c929 993d
000000c0: 4f2f 893d 1d9a 2c3d 7e57 f8bc 7ec0 eabd
000000d0: c368 d73b e2f0 a23d 5762 b4bd ba75 3fbd
000000e0: eb8b 923d 61a1 d5bd 2f8b 9b3d 4e05 3e3d
000000f0: e360 e8bd f89e 733d 0116 c3bc 5dbb 40bd
00000100: 723b b53c 46ac e5bc b3e2 eb3d 9606 46bd
00000110: 2b5d 80bb 7032 d8bc 16d5 b2bd 33b2 77bd
00000120: f1a0 d8bd ffed f83c 413a 07bd 8646 3ebd
00000130: c164 5fbb b5ef f03c 9d5e 9bbd 5455 f63a
00000140: 04c4 053c 4bb8 7cbd 69a0 b23d bc2d 523a
00000150: 6820 82bd 359b 4fbc 1953 c13d d721 573d
00000160: a7b2 153d 39d9 893c e77e 01be e1ed 1a3d
00000170: 0881 cabd 3e90 333b a40e 8fbd 40f2 173d
00000180: a9e9 d1b9 cf07 3d3d d00e 8bbd fb18 8bbc
00000190: 603b cbbd 3a12 01bc 9f48 233c 6e25 ae3d
000001a0: 74ff 00bd 33fe acbc 7ee7 7abc d228 44bd
000001b0: 8956 c8bd 7a04 14bd 10f7 c33d d836 4b3d
000001c0: 6f16 a1bd 9389 b3bc a840 4b3c e633 5a3d
000001d0: ed54 3b3d 369c 16bd a46a 09be e3aa 643c
000001e0: 6c90 723d 8ea8 0cbc 2333 62bd cba9 0abd
000001f0: 9d14 9c3d e9b3 05bc ac44 b5bd df24 67bd

net_container.4.weight f4 [64, 128]
0.013576057 0.061792817 -0.07399544 -0.031009758 -0.00015995432 -0.07180969 0.016306156 0.05954666
-0.016229868 -0.05054478 -0.054562047 0.0098123755 0.077797405 -0.052471023 -0.020480927 -0.026719732
-0.026262425 -0.03558255 0.00095497334 0.051644884 -0.09457657 -0.10192225 0.12486362 -0.08778291
-0.0032488303 0.08008409 0.029467158 -0.0157774 0.07834012 0.02984239 -0.033965725 0.03343095
0.001450757 -0.026646439 -0.104486674 -0.094473675 -0.013685007 -0.018459272 0.017337495 -0.017394733
-0.020206673 -0.019962208 0.043981344 -0.018940948 0.0028889328 0.011167317 -0.091949664 0.035692614
-0.049020335 -0.06333966 0.07362869 0.061638214 0.072420016 -0.05189912 0.04594868 -0.015773881
0.06396329 -0.014425666 0.037936557 0.0050121495 0.064253144 -0.0062527256 -0.030736074 0.0054596895
-0.056816764 -0.04554595 -0.06250313 -0.070304126 0.019395975 0.10998242 -0.022315597 0.09584647
0.066185184 -0.016924134 -0.086088195 -0.03577966 -0.024764998 0.02166232 0.11391247 -0.05892954
-0.048339035 -0.00018880588 -0.053867508 -0.07380523 0.012155285 0.086234815 -0.10531331 0.04282625
0.04230099 0.003235762 0.054572396 -0.09721116 0.056641236 -0.05067656 -0.0916519 -0.11119153
-0.058419377 0.07570349 0.018925045 0.101507224 0.055741485 -0.010715982 0.04058664 -0.0140435295
-0.0052365893 0.01604597 0.07614712 -0.084100075 -0.045964148 -0.07420344 0.0018643006 0.063857235
-0.03158699 0.0011563954 0.044311937 0.030351013 -0.029944932 0.05658873 -0.028911933 -0.076969974
0.020689063 -0.09502525 -0.0030327106 0.05646548 -0.053211715 0.020820228 0.10217694 -0.026956946
0.10813573 -0.079124354 -0.059613593 0.04899574 0.07780294 -0.053542584 -0.02013084 -0.071130395
-0.08529406 -0.082523264 0.056425907 -0.053750977 0.0015338821 0.022158097 0.09401769 -0.0746457
-0.010916599 -0.06830872 -0.056272265 0.054005347 -0.013158304 -0.007764951 0.075596295 0.04733869
0.016454035 -0.016886536 0.018302405 -0.03803058 0.044011172 -0.074860156 0.04847635 0.057046816
0.05405988 0.0154023655 -0.028540056 0.0016389173 -0.03814403 -0.033263285 -0.016405303 -0.062987134
0.023021305 -0.031591803 -0.12151734 0.019124184 -0.03628278 0.027811734 -0.07683328 0.018048171
-0.08181265 -0.10799436 0.018321063 0.06682103 -0.11370281 0.020925272 -0.08272822 -0.06419588
0.014296592 0.026926912 0.019576171 -0.054355063 0.056509852 0.05526993 0.058809496 -0.08478965
-0.11516427 -0.0947546 0.05024562 0.053186316 0.03584492 0.026021976 -0.07587164 -0.04542071
0.08826592 -0.007931634 0.044832345 0.0592831 -0.034754474 -0.083447576 -0.0766936 -0.027579688
0.0019561169 -0.0725354 -0.036507543 -0.019913582 -0.0007207536 0.023330817 -0.10861958 -0.06310908
0.06498324 -0.11195028 0.014810539 -0.050994705 0.02120037 0.0042906157 0.0466415 0.028622426
0.04513051 -0.050070614 0.03847846 0.011702378 0.08071953 -0.0426387 0.04062644 0.07004926
0.02617974 -0.038453337 -0.052375723 0.0056440383 0.025875175 -0.08129555 -0.07352512 -0.11347504
-0.005914257 0.11315934 0.04782679 0.0076693036 0.11640202 -0.07311644 0.08017631 0.028956644
-0.009928871 -0.024049114 0.04506366 0.050022062 0.035286818 -0.018959435 0.023706976 0.062963806
00000000: 1c6e 5e3c 771a 7d3d ec8a 97bd 2d08 febc
00000010: 69b9 27b9 f510 93bd 7d94 853c 33e7 733d
00000020: 80f4 84bc 0b08 4fbd 747c 5fbd 16c4 203c
00000030: 3f54 9f3d dbeb 56bd 9ec7 a7bc 57e3 dabc
00000040: 4c24 d7bc 02bf 11bd 2d57 7a3a 9689 533d
00000050: 5cb1 c1bd 9dbc d0bd 7fb8 ff3d 87c7 b3bd
00000060: 54ea 54bb 2103 a43d 1c65 f13c 9b3f 81bc
00000070: c970 a03d 0778 f43c a51f 0bbd e4ee 083d
00000080: 5427 be3a a249 dabc 1cfd d5bd 6a7b c1bd
00000090: 1437 60bc e637 97bc 5d07 8e3c 667f 8ebc
000000a0: 7788 a5bc c987 a3bc c825 343d 0c2a 9bbc
000000b0: 4054 3d3b 1ff7 363c 1b50 bcbd 6b32 123d
000000c0: 8cc9 48bd 39b8 81bd a3ca 963d 5a78 7c3d
000000d0: f250 943d 2c94 54bd af34 3c3d 3a38 81bc
000000e0: 2fff 823d a159 6cbc 5d63 1b3d f53c a43b
000000f0: 2797 833d aae3 ccbb 38ca fbbc 32e7 b23b
00000100: b2b8 68bd 648e 3abd a401 80bd 9cfb 8fbd
00000110: 4fe4 9e3c 773e e13d 33cf b6bc 274b c43d
00000120: 198c 873d 7ba4 8abc 024f b0bd b18d 12bd
00000130: f7df cabc 2d75 b13c f14a e93d 1a60 71bd
00000140: 27ff 45bd 31fa 45b9 2da4 5cbd 3227 97bd
00000150: f626 473c e19b b03d 81ae d7bd 946a 2f3d
00000160: ce43 2d3d 140f 543b 4e87 5f3d a516 c7bd
00000170: a400 683d 3992 4fbd feb3 bbbd 63b8 e3bd
00000180: 2849 6fbd 6e0a 9b3d b208 9b3c 05e3 cf3d
00000190: 2f51 643d 1692 2fbc 2d3e 263d d516 66bc
000001a0: b297 abbb d772 833c 05f3 9b3d a93c acbd
000001b0: e744 3cbd f9f7 97bd 8c5b f43a 95c7 823d
000001c0: 5c61 01bd 3192 973a 6f80 353d b0a2 f83c
000001d0: 134f f5bc 96c9 673d b8d8 ecbc 6fa2 9dbd
000001e0: 1c7c a93c 999c c2bd 71c0 46bb 5948 673d
000001f0: 87f4 59bd 2f8f aa3c 2542 d13d d0d4 dcbc
00000200: 4476 dd3d f30b a2bd 622d 74bd c2af 483d
00000210: 2657 9f3d 784f 5bbd 6ee9 a4bc d0ac 91bd
00000220: a7ae aebd f501 a9bd da1e 673d fc29 5cbd
00000230: 8b0c c93a e684 b53c 598c c03d d8df 98bd
00000240: 89db 32bc 71e5 8bbd bf7d 66bd b634 5d3d
00000250: ed95 57bc 2171 febb 3bd2 9a3d 37e6 413d
00000260: 9dca 863c a255 8abc edee 953c f4c5 1bbd
00000270: 0f45 343d 4850 99bd 238f 463d eca9 693d
00000280: e56d 5d3d 345a 7c3c d6cc e9bc f0d0 d63a
00000290: ea3c 1cbd 153f 08bd 6a64 86bc 66ff 80bd
000002a0: 2d97 bc3c 6866 01bd 15de f8bd 52aa 9c3c
000002b0: 419d 14bd 6fd5 e33c c45a 9dbd c2d9 933c
000002c0: 648d a7bd 262c ddbd 0e16 963c 77d9 883d
000002d0: 05dd e8bd 7a6b ab3c 6a6d a9bd 2179 83bd
000002e0: 413c 6a3c d495 dc3c 355e a03c 6aa3 5ebd
000002f0: e076 673d b962 623d 3ae2 703d 32a6 adbd
00000300: 3fdb ebbd b30e c2bd 5ace 4d3d e5d9 593d
00000310: 1fd2 123d 0a2c d53c 9762 9bbd 110b 3abd
00000320: c3c4 b43d aff3 01bc 1fa2 373d d6d2 723d
00000330: b55a 0ebd 90e6 aabd 8911 9dbd ccee e1bc
00000340: 3232 003b 718d 94bd ef88 15bd cf21 a3bc
00000350: f5f0 3cba 4520 bf3c f173 debd 553f 81bd
00000360: ef15 853d 3046 e5bd e7a7 723c d3df 50bd
00000370: 66ac ad3c 4b98 8c3b 280b 3f3d 9479 ea3c
00000380: c5da 383d d816 4dbd 979b 1d3d 55bb 3f3c
00000390: 4850 a53d eba5 2ebd e967 263d fd75 8f3d
000003a0: e576 d63c 3f81 1dbd ed87 56bd a0f1 b83b
000003b0: 2df8 d33c 487e a6bd 5794 96bd 9a65 e8bd
000003c0: 62cc c1bb 16c0 e73d 06e6 433d c84e fb3b
000003d0: 2f64 ee3d 12be 95bd 7a33 a43d 7c36 ed3c
000003e0: b4ac 22bc a602 c5bc ac94 383d efe3 4c3d
000003f0: e988 103d d150 9bbc 2235 c23c 2bf3 803d

net_container.4.bias f4 [64]
-0.10942346 -0.056695923 0.086614 0.011670831 -0.07717976 -0.015741607 -0.03625465 -0.11969145
-0.12653625 0.08032342 0.07580586 -0.013563049 0.026096268 -0.084723525 -0.037513316 0.10022909
-0.0035497567 0.045418188 0.08643415 0.10543263 -0.083067216 0.015213335 -0.10226116 0.021114606
0.052026637 -0.07895302 0.02385095 -0.031919647 -0.06858452 -0.001981411 0.00074693374 0.070123486
-0.043851495 -0.026679503 0.057810366 -0.0073126755 -0.11003817 0.056215215 0.016887933 -0.002055812
0.019203277 0.03233425 0.0033121095 -0.16695048 -0.038021877 0.00532482 -0.040323835 -0.072417095
0.05109437 0.14402732 0.095725074 0.00024934273 -0.041814778 -0.10288995 -0.10790812 -0.02009692
0.0012029365 0.036434487 -0.060497373 0.04345708 0.06340518 -0.041171912 -0.109848626 -0.082444064
00000000: 6819 e0bd fc39 68bd ae62 b13d 0337 3f3c
00000010: 6c10 9ebd 8bf4 80bc c27f 14bd ca20 f5bd
00000020: b892 01be 9b80 a43d 1a40 9b3d 8d37 5ebc
00000030: d7c7 d53c 8783 adbd 90a7 19bd e944 cd3d
00000040: 09a3 68bb 6c08 3a3d 6304 b13d 10ed d73d
00000050: 251f aabd 5a41 793c 4d6e d1bd 8af8 ac3c
00000060: e219 553d 1fb2 a1bd 1163 c33c 2dbe 02bd
00000070: 0a76 8cbd 8fda 01bb e0cd 433a e79c 8f3d
00000080: a09d 33bd f98e dabc 90ca 6c3d 2b9f efbb
00000090: b15b e1bd ed41 663d 9058 8a3c cdba 06bb
000000a0: 3150 9d3c eb70 043d fa0f 593b 11f5 2abe
000000b0: d4bc 1bbd d47b ae3b 9b2a 25bd 6a4f 94bd
000000c0: 5548 513d e67b 133e 820b c43d 37ba 8239
000000d0: f945 2bbd f7b7 d2bd effe dcbd 4ca2 a4bc
000000e0: daab 9d3a 543c 153d 18cc 77bd 0d00 323d
000000f0: 93da 813d e1a3 28bd 51f8 e0bd 6fd8 a8bd

policy_layer.weight f4 [8, 64]
-0.03651894 0.009769777 -0.020004706 0.0008454474 -0.1250445 0.12905906 0.01191225 -0.19916132
-0.0059975334 0.09707478 -0.08441136 0.07064856 0.12339424 0.019179488 0.020921515 0.12546009
-0.01434874 -0.014166258 0.121658795 0.03073724 0.06296639 0.025386585 0.10129024 -0.11362436
-0.029025095 0.005862176 0.04483857 0.021902286 0.1623012 0.08092684 -0.052438874 0.09151633
-0.09855854 -0.010719613 0.061600834 -0.118736856 0.14024463 0.10019369 -0.009598663 0.066495575
-0.01616701 0.051664915 -0.103841476 0.13829269 -0.08952973 -0.13594788 0.056290552 0.048659936
0.019478492 0.03642973 -0.103495225 0.011386492 0.0036559843 0.108141206 0.05881504 0.016372722
-0.07220144 0.087908424 0.035945036 0.064560086 0.031287774 0.09716452 0.03773627 -0.12070079
0.103036895 -0.024079677 -0.11443544 0.014659146 -0.008612782 -0.019778723 -0.10263026 0.07148024
0.09336314 -0.098639436 0.006746468 0.002385733 0.13938828 -0.010700846 -0.0032426075 -0.039483227
-0.08809847 0.10722825 0.11091974 -0.10953191 0.18072484 -0.0537139 0.09860449 0.08991013
-0.04143641 0.13483624 0.14720298 -0.011575553 0.018484117 0.16002819 -0.085704006 -0.020551506
0.16138962 0.1236678 -0.074728005 -0.093091264 0.033980686 -0.011793421 0.025182404 0.106524944
0.025796713 -0.06451461 0.119807206 0.111943655 -0.10231765 -0.061314654 0.095647044 0.12593293
0.034723334 -0.009415528 -0.0142047545 0.031352155 -0.1179895 0.10634884 -0.02193489 0.057404526
-0.017930456 -0.14066896 -0.009100758 0.0030090592 -0.047488723 -0.09787999 0.041054003 -0.10283803
-0.035962354 0.10297879 0.06799392 -0.11256808 -0.113901615 0.15254273 0.0068554454 0.010665896
-0.051500373 -0.005673689 -0.1224387 -0.05850645 -0.13036463 -0.12634307 -0.00044986262 -0.10033961
0.00053447747 -0.022308888 0.13985468 -0.056395356 0.088639006 0.04879341 0.06298861 0.11961612
-0.026016422 0.15404701 0.14854996 0.030075977 0.06836295 -0.011121548 -0.043538876 -0.07315634
0.091675915 0.08335122 -0.04916613 -0.07947509 0.1575013 -0.10638839 0.1456208 0.030494938
-0.05398699 -0.07584803 -0.064915136 -0.00045669833 0.014583863 0.11493582 -0.028605128 0.06621398
-0.0049379393 0.025501862 -0.09837614 -0.082781546 0.0175112 0.05532565 0.024921002 0.147926
-0.13786459 -0.12700921 -0.09566414 0.14909646 -0.1219105 0.051781192 -0.06370328 0.037849788
0.03306404 -0.030125473 0.015592947 -0.05503484 0.08920805 0.15273537 -0.0680116 -0.15077414
-0.11877001 -0.0974933 0.015154381 0.019165475 -0.074078895 0.08965011 0.01106307 -0.14524186
-0.12258975 0.1173827 -0.03794453 0.0716649 0.111173764 0.06799124 0.09976866 0.027545616
-0.08951491 -0.02041164 0.034009617 -0.09667292 -0.02618691 -0.081918344 -0.03340134 0.07500728
0.11888675 0.05666996 -0.048912384 0.026718065 0.016787913 0.06449734 0.08250585 0.14938393
0.008836455 0.034792516 0.039810173 0.12591991 -0.146823 0.01056473 -0.08409333 0.027747754
-0.14732407 -0.079313315 -0.053650584 -0.054901324 0.15101962 0.043922715 -0.046240576 -0.032764122
0.036240924 0.021176424 0.048621543 0.13672672 0.0072000143 0.025844626 -0.02908982 0.09729144
00000000: e294 15bd 6a11 203c e9e0 a3bc 04a1 5d3a
00000010: aa0b 00be 0f28 043e 992b 433c f2f0 4bbe
00000020: f586 c4bb 24cf c63d dddf acbd 31b0 903d
00000030: 1fb6 fc3d 4d1e 9d3c 9963 ab3c 9c78 003e
00000040: fa16 6bbc 9819 68bc 3f28 f93d aacc fb3c
00000050: 86f4 803d 87f7 cf3c 4271 cf3d e3b3 e8bd
00000060: 09c6 edbc 7f17 c03b a6a8 373d 6c6c b33c
00000070: 4932 263e f9bc a53d 25ca 56bd ea6c bb3d
00000080: 0fd9 c9bd 51a1 2fbc 2851 7c3d 4f2c f3bd
00000090: 4a9c 0f3e 5932 cd3d b643 1dbc d52e 883d
000000a0: ad70 84bc 979e 533d d7aa d4bd 999c 0d3e
000000b0: 5d5b b7bd ec35 0bbe ec90 663d a44f 473d
000000c0: 5c91 9f3c 5737 153d 4ef5 d3bd 698e 3a3c
000000d0: 3d99 6f3b 2379 dd3d 0ae8 703d 1620 863c
000000e0: 59de 93bd 5509 b43d 1a3b 133d 1438 843d
000000f0: 9c27 003d 31fe c63d 5991 1a3d fa31 f7bd
00000100: 0205 d33d be42 c5bc 215d eabd ea2c 703c
00000110: a01c 0dbc fd06 a2bc d02f d2bd 3b64 923d
00000120: 2d35 bf3d 7903 cabd 7a11 dd3b f559 1c3b
00000130: cdbb 0e3e 9a52 2fbc ed81 54bb 2ab9 21bd
00000140: f86c b4bd 7c9a db3d e329 e33d 4452 e0bd
00000150: ef0f 393e 1b03 5cbd 27f1 c93d cd22 b83d
00000160: 3ab9 29bd 8312 0a3e 61bc 163e 63a7 3dbc
00000170: 016c 973c 6ede 233e 9585 afbd a25b a8bc
00000180: 5243 253e 8b45 fd3d ff0a 99bd a2a6 bebd
00000190: 552f 0b3d 3139 41bc 544b ce3c c029 da3d
000001a0: a153 d33c 3c20 84bd 7b5d f53d b742 e53d
000001b0: eb8b d1bd 1325 7bbd 99e2 c33d 90f4 003e
000001c0: 0e3a 0e3d 9643 1abc 0fbb 68bc 1e6b 003d
000001d0: 7ba4 f1bd 6ccd d93d ccb0 b3bc 0221 6b3d
000001e0: e4e2 92bc 860b 10be 581b 15bc a333 453b
000001f0: 8983 42bd 4e75 c8bd 3e28 283d bf9c d2bd
00000200: 434d 13bd 8be6 d23d 6540 8b3d 188a e6bd
00000210: 4045 e9bd 2934 1c3e a5a3 e03b 03c0 2e3c
00000220: 0ef2 52bd 5aea b9bb 24c1 fabd 76a4 6fbd
00000230: 4e7e 05be 1460 01be 8adb ebb9 da7e cdbd
00000240: 2d1c 0c3a 21c1 b6bc 1136 0f3e d1fe 66bd
00000250: 5e88 b53d 99db 473d 2c00 813d 4cf9 f43d
00000260: 6420 d5bc 80be 1d3e 7b1d 183e e561 f63c
00000270: e001 8c3d 2737 36bc d255 32bd fed2 95bd
00000280: 95c0 bb3d 0bb4 aa3d 6d62 49bd d6c3 a2bd
00000290: 0548 213e 28e2 d9bd 9e1d 153e 85d0 f93c
000002a0: 7621 5dbd 3656 9bbd 3af2 84bd 0371 efb9
000002b0: 28f1 6e3c 7963 eb3d 4d55 eabc 329b 873d
000002c0: 70ce a1bb 48e9 d03c 6e79 c9bd 5f89 a9bd
000002d0: a673 8f3c 269d 623d 2127 cc3c ea79 173e
000002e0: 602c 0dbe b40e 02be 90eb c3bd beac 183e
000002f0: 36ac f9bd 8418 543d de76 82bd 6108 1b3d
00000300: 296e 073d b2c9 f6bc 8f79 7f3c 366c 61bd
00000310: b6b2 b63d a966 1c3e aa49 8bbd 8964 1abe
00000320: b13d f3bd 91aa c7bd 154a 783c ea00 9d3c
00000330: adb6 97bd 7a9a b73d e141 353c 48ba 14be
00000340: 5610 fbbd 5766 f03d b96b 1bbd 0cc5 923d
00000350: 12af e33d fe3e 8b3d 8353 cc3d 58a7 e13c
00000360: 9853 b7bd 5036 a7bc ab4d 0b3d 74fc c5bd
00000370: ee85 d6bc cec4 a7bd d8cf 08bd 6b9d 993d
00000380: e57a f33d c31e 683d 5a58 48bd d8df da3c
00000390: ce86 893c 2e17 843d d4f8 a83d 1af8 183e
000003a0: c7c6 103c 9982 0e3d fe0f 233d 26f1 003e
000003b0: c558 16be b017 2d3c 2039 acbd 424f e33c
000003c0: 1fdc 16be 056f a2bd b7c0 5bbd 36e0 60bd
000003d0: e3a4 1a3e 4ee8 333d c266 3dbd ac33 06bd
000003e0: 5d71 143d 2e7a ad3c 6227 473d 1702 0c3e
000003f0: 19ee eb3b 1cb8 d33c c64d eebc bc40 c73d

policy_layer.bias f4 [8]
-0.022687431 -0.10039862 -0.06862228 -0.053062424 -0.0041249497 -0.0850814 -0.120734185 0.053727083
00000000: feda b9bc cb9d cdbd d789 8cbd fc57 59bd
00000010: 962a 87bb 283f aebd 7c43 f7bd ee10 5c3d

value_layer.weight f4 [1, 64]
0.009315061 0.033688743 -0.006129302 -0.002768442 -0.08311341 0.03307435 -0.026787233 0.0004982127
-0.022047965 0.03219055 -0.07726786 -0.033650745 0.0388665 -0.03281594 -0.03355846 -0.050946485
0.0023197788 -0.05997617 0.116502635 0.033775456 -0.06608741 0.06423295 0.06480558 0.124717765
0.050608374 0.10970583 -0.053540226 -0.094265506 -0.030797636 0.0012409477 0.097569704 0.07167559
0.024911933 0.033662036 0.059318803 0.012777374 -0.06345388 0.013688518 -0.043983597 -0.022246117
-0.0069819586 0.064210124 -0.034499872 -0.033892315 0.086231835 -0.055059936 0.071076944 -0.019377103
-0.0807374 0.021686554 0.07383362 0.00018220153 -0.046615276 -0.035584245 -0.085363165 -0.07277391
-0.056708254 -0.0089389635 0.01795165 0.009684749 0.034815136 0.06494131 -0.0975888 -0.06363314
00000000: 339e 183c 35fd 093d 50d8 c8bb c06e 35bb
00000010: 5d37 aabd f878 073d e670 dbbc 7d9a 023a
00000020: ef9d b4bc 3dda 033d 9d3e 9ebd 5dd5 09bd
00000030: 7b32 1f3d 026a 06bd 9974 09bd 43ad 50bd
00000040: 6e07 183b 93a9 75bd ef98 ee3d 2258 0a3d
00000050: d658 87bd 918c 833d cab8 843d 076c ff3d
00000060: ba4a 4f3d 73ad e03d ff4c 5bbd 460e c1bd
00000070: 534b fcbc 4ca7 a23a a0d2 c73d a7ca 923d
00000080: 1c14 cc3c 34e1 093d 46f8 723d 3158 513c
00000090: 1cf4 81bd ce45 603c 2528 34bd 7d3d b6bc
000000a0: eac8 e4bb 9980 833d bd4f 0dbd abd2 0abd
000000b0: 519a b03d 8786 61bd ca90 913d bbbc 9ebc
000000c0: a659 a5bd 00a8 b13c 1536 973d 5a0d 3f39
000000d0: a9ef 3ebd c9c0 11bd e2d2 aebd 7d0a 95bd
000000e0: ea46 68bd bb74 12bc 570f 933c c8ac 1e3c
000000f0: 519a 0e3d f3ff 843d a3dc c7bd 1752 82bd

log_std_parameter f4 [8]
-3.159041 -2.791901 -3.0832808 -3.1399956 -3.7379043 -3.3486724 -3.8801806 -2.7223067
00000000: ba2d 4ac0 82ae 32c0 7954 45c0 b0f5 48c0
00000010: d339 6fc0 a650 56c0 e154 78c0 463a 2ec0

net_container.0.weight f4 [256, 45]
0.015861867 -0.21404739 0.004385513 -0.07688891 -0.13498564 0.04460475 0.09933287 -0.009315661
0.01980515 -0.09620678 -0.04658493 0.096064635 0.06257994 -0.17390564 -0.035178795 -0.080792986
0.12391726 -0.093253545 -0.006848065 -0.10047822 -0.15181431 0.11825279 0.1397608 -0.09572894
-0.07638845 -0.0038499366 -0.10237775 0.009925703 0.15737927 -0.094784886 -0.18103926 0.016356438
0.080221035 -0.11974103 -0.096516125 0.13738497 -0.06003106 -0.065002054 -0.14674929 0.09541309
0.056457818 -0.00664905 0.119937114 0.034522984 0.08314948 0.058902115 -0.09627086 0.054720987
-0.14950374 0.055114593 -0.11358492 0.1656941 0.14512238 0.10962078 -0.042624876 -0.10383599
0.0871979 -0.033198044 -0.09918279 0.19065149 -0.01465589 -0.07553019 -0.14989285 -0.08250324
0.0024685 -0.009143085 -0.007657361 -0.04033004 0.073594876 -0.07185319 0.010870365 0.06497493
-0.09954644 -0.1232749 0.24977177 -0.060204778 -0.023100737 -0.009908062 0.08033442 -0.016572328
0.10439266 -0.0032996936 0.047924053 0.050659005 0.12498698 -0.06681893 -0.0751475 -0.0655681
0.08635736 -0.09433875 0.15516065 0.1427395 -0.04910008 0.11150029 0.043047223 -0.10967344
-0.00518232 0.08663328 -0.1376735 0.036842182 -0.096286364 0.16241132 -0.032149833 -0.110030174
-0.0513148 -0.080714665 0.015455491 0.1590553 0.09762722 0.10066735 -0.10792636 -0.084147535
0.11026484 0.05440509 0.07703598 0.09076289 0.15094632 -0.010269722 0.1191491 0.037556116
-0.06205169 0.007987045 0.10927681 0.009060122 -0.08675968 -0.03762989 0.11276934 0.001271213
0.09341731 -0.051823407 0.119734496 -0.06845604 -0.078087 -0.07820278 -0.09069454 -0.1646695
-0.022762606 0.060208015 0.03990303 0.17785504 0.00086792116 0.022543617 0.0052150823 -0.22621776
-0.09109858 -0.14337441 0.13948916 0.14536496 -0.0076394416 -0.17455827 0.04288381 0.039009932
0.15788361 -0.14723814 -0.039241247 0.04397032 0.09298496 -0.01707465 0.086508326 -0.11989955
0.010775677 0.008183095 -0.030405292 0.049562037 0.06240443 0.11359665 -0.1371738 -0.059340287
0.09699159 0.12204529 0.10194909 0.11519754 0.04984778 -0.07864523 0.0017438226 0.18669036
-0.025940564 0.010900177 -0.101940125 -0.07063516 -0.054285612 0.056135736 0.011768609 0.06987337
-0.18790622 -0.04299421 0.047396902 -0.034344222 0.043945406 0.118478425 0.030962972 -0.10535122
0.032031868 0.18392625 -0.062166072 -0.0073348964 0.114737704 0.025240263 0.033610668 -0.12582442
0.15853058 -0.0003275004 -0.017960528 0.00673318 -0.11221498 0.11585114 -0.06361927 -0.05013961
0.0061541456 -0.03327099 -0.08195243 0.024434196 -0.06958712 0.16571757 -0.07477806 0.105269946
0.09172928 0.105037645 -0.11886541 0.14639603 -0.036288835 0.03212048 0.16281971 -0.14773262
-0.005753679 -0.08417733 -0.14019296 -0.045733225 -0.011122121 -0.10059693 0.05680549 0.110886
0.1404919 0.021366868 -0.050969183 -0.06200631 -0.09852168 -0.117029145 0.033339333 -0.0373617
-0.081126295 0.06643337 -0.023324141 0.16406685 0.041225147 0.028684845 -0.09178433 -0.003228616
-0.0074323337 -0.07402499 0.109390505 0.14568788 0.12397209 0.045996275 0.022617163 -0.16591033
00000000: bff0 813c 3d2f 5bbe 59b4 8f3b ef77 9dbd
00000010: ad39 0abe 78b3 363d 086f cb3d b7a0 18bc
00000020: 693e a23c 0f08 c5bd d7cf 3ebd 89bd c43d
00000030: e929 803d 5214 32be a417 10bd cb76 a5bd
00000040: 55c8 fd3d b7fb bebd bc65 e0bb 86c7 cdbd
00000050: 3675 1bbe 852e f23d 751d 0f3e 890d c4bd
00000060: 8c71 9cbd 384f 7cbb 6dab d1bd 6a9f 223c
00000070: 0828 213e 941e c2bd 5b62 39be f0fd 853c
00000080: ed4a a43d c93a f5bd 3faa c5bd a5ae 0c3e
00000090: 21e3 75bd cc1f 85bd 7245 16be f067 c33d
000000a0: 5040 673d 46e0 d9bb 97a1 f53d f967 0d3d
000000b0: 464a aa3d 5843 713d a829 c5bd 1d23 603d
000000c0: 8217 19be d7bf 613d 369f e8bd b7ab 293e
000000d0: f69a 143e dc80 e03d 6c97 2ebd f7a7 d4bd
000000e0: d094 b23d acfa 07bd 5920 cbbd 253a 433e
000000f0: 421f 70bc 92af 9abd 837d 19be 75f7 a8bd
00000100: 8fc6 213b e1cc 15bc 9aea fabb 1d31 25bd
00000110: e9b8 963d c427 93bd 9e19 323c 9311 853d
00000120: 01df cbbd 8d77 fcbd 2cc4 7f3e 4999 76bd
00000130: c23d bdbc 6d55 22bc 5f86 a43d b1c2 87bc
00000140: d2cb d53d ac3f 58bb 034c 443d d17f 4f3d
00000150: 2cf9 ff3d 5dd8 88bd efe6 99bd 9148 86bd
00000160: 21dc b03d ad34 c1bd 6fe2 1e3e 4e2a 123e
00000170: 2a1d 49bd 445a e43d 4952 303d 789c e0bd
00000180: 73d0 a9bb ca6c b13d 48fa 0cbe d4e7 163d
00000190: c931 c5bd 274f 263e 8baf 03bd 8057 e1bd
000001a0: 782f 52bd bb4d a5bd 0739 7d3c 64df 223e
000001b0: c8f0 c73d af2a ce3d 7f08 ddbd 8b55 acbd
000001c0: 88d2 e13d dfd7 5e3d 0ac5 9d3d e5e1 b93d
000001d0: ac91 1a3e 5642 28bc 7104 f43d 71d4 193d
000001e0: ea29 7ebd 18dc 023c 85cc df3d e870 143c
000001f0: 0faf b1bd cd21 1abd 9df3 e63d d59e a63a
00000200: 9351 bf3d c844 54bd 5c37 f53d ae32 8cbd
00000210: 14ec 9fbd c728 a0bd 0fbe b9bd 1f9f 28be
00000220: a578 babc ae9c 763d 5c71 233d a21f 363e
00000230: 3485 633a 64ad b83c 48e3 aa3b a1a5 67be
00000240: e491 babd bed0 12be 3fd6 0e3e 8dda 143e
00000250: 4854 fabb 67bf 32be efa6 2f3d e1c8 1f3d
00000260: 3eac 213e 98c5 16be 6ebb 20bd 391a 343d
00000270: e66e be3d 23e0 8bbc 472b b13d e58d f5bd
00000280: 778c 303c 6312 063c 8514 f9bc 9001 4b3d
00000290: ca9b 7f3d 5ca5 e83d 4a77 0cbe cd0e 73bd
000002a0: 87a3 c63d e2f2 f93d afca d03d b0ec eb3d
000002b0: 302d 4c3d c010 a1bd fa90 e43a c22b 3f3e
000002c0: 4e81 d4bc a896 323c fcc5 d0bd 2ba9 90bd
000002d0: 975a 5ebd 96ee 653d 20d1 403c c519 8f3d
000002e0: 7d6a 40be b21a 30bd 4123 423d 87ac 0cbd
000002f0: 1900 343d d1a4 f23d 0fa6 fd3c 61c2 d7bd
00000300: d933 033d 2a57 3c3e daa1 7ebd 9259 f0bb
00000310: 9afb ea3d abc4 ce3c 57ab 093d 1ed8 00be
00000320: d755 223e 5cb4 abb9 f521 93bc 02a2 dc3b
00000330: f8d0 e5bd 5d43 ed3d d24a 82bd 315f 4dbd
00000340: b7a8 c93b 2947 08bd add6 a7bd 392a c83c
00000350: b183 8ebd deb1 293e 3d25 99bd c597 d73d
00000360: 90dc bb3d fa1d d73d b56f f3bd d7e8 153e
00000370: 9aa3 14bd c490 033d 36ba 263e 3847 17be
00000380: 5c89 bcbb 2a65 acbd be8e 0fbe c352 3bbd
00000390: 8e39 36bc c305 cebd e0ac 683d 3318 e33d
000003a0: 1cdd 0f3e 9209 af3c 10c5 50bd 54fa 7dbd
000003b0: bcc5 c9bd faac efbd d38e 083d 9508 19bd
000003c0: 8b25 a6bd 380e 883d 4512 bfbc 2401 283e
000003d0: b3db 283d 7bfc ea3c 6cf9 bbbd 3097 53bb
000003e0: ef8a f3bb 6a9a 97bd 2108 e03d 342f 153e
000003f0: 14e5 fd3d 9766 3c3d a147 b93c 66e4 29be
