CubeStackTask/logs/skrl/object_red_stack/2025-10-09_17-18-16_ppo_torch/checkpoints/agent_14400.pt (torch, 660141 bytes, 46 tensors)

log_std_parameter f4 [8]
-2.5295913 -2.2457695 -2.4245143 -2.3152769 -2.8022807 -2.5964305 -2.9858196 -2.1518853
00000000: d3e4 21c0 b0ba 0fc0 3e2b 1bc0 7f2d 14c0
00000010: 9158 33c0 eb2b 26c0 ab17 3fc0 7db8 09c0

net_container.0.weight f4 [256, 45]
0.014494742 -0.21301599 0.0045021633 -0.075773634 -0.13351884 0.044603534 0.09710293 -0.011836909
0.01961253 -0.096195556 -0.04709239 0.095742054 0.0644977 -0.1745582 -0.036138218 -0.08244395
0.122409515 -0.09160945 -0.0041841664 -0.09946931 -0.1507194 0.11765863 0.14247741 -0.09811365
-0.07267804 -0.0017476644 -0.10460722 0.0061250017 0.15604703 -0.0970724 -0.19566509 0.021498768
0.076431364 -0.11849602 -0.09404911 0.1354416 -0.061053183 -0.07068672 -0.1462112 0.0870958
0.05751158 -0.006867197 0.12037667 0.03287179 0.08465723 0.05713958 -0.09651489 0.053365365
-0.14648311 0.05586226 -0.11459276 0.15345323 0.13431332 0.108446755 -0.043226752 -0.10593761
0.088970296 -0.031781048 -0.09993856 0.17906679 -0.01858161 -0.083726995 -0.16160013 -0.082284115
-0.0052633784 -0.0055877734 -0.020961078 -0.04405563 0.06927162 -0.062303685 0.021653036 0.07191408
-0.101745434 -0.12075634 0.24266364 -0.06659855 -0.006066434 -0.005613362 0.070151016 -0.01416827
0.107147425 -0.0017007834 0.04464906 0.050181285 0.11699079 -0.06901421 -0.06752909 -0.06292365
0.082431085 -0.08614195 0.15439063 0.14149281 -0.04842189 0.10957821 0.043349393 -0.11034482
0.0006242654 0.08754474 -0.1385204 0.03683866 -0.095205426 0.16166973 -0.032357216 -0.11137783
-0.045505244 -0.0764818 0.019821843 0.15953651 0.09794547 0.109283626 -0.11765639 -0.08981919
0.11413547 0.067527555 0.07586096 0.08136516 0.13335006 -0.034629624 0.11300315 0.034811027
-0.050617944 0.012767224 0.09599349 0.023931406 -0.060805764 -0.043556176 0.11268797 0.01186712
0.09521945 -0.052892745 0.12013123 -0.07611795 -0.07940637 -0.073969886 -0.09506071 -0.15348803
-0.019399935 0.06536379 0.041123312 0.17782679 0.005181737 0.02961849 0.011626026 -0.21644247
-0.085462436 -0.13379562 0.14273022 0.14068699 -0.0053114416 -0.16988829 0.047428712 0.044811964
0.15841796 -0.14604148 -0.038554646 0.050239995 0.09790327 -0.01502594 0.0916588 -0.12364283
0.012138337 0.013925498 -0.030957416 0.045135356 0.055065114 0.12728207 -0.15399738 -0.05585726
0.08998689 0.1224877 0.09719437 0.0963659 0.049457245 -0.07983778 0.014304 0.18950222
-0.026326535 -0.009078532 -0.09739574 -0.07643695 -0.05449565 0.055971332 0.011492292 0.069801174
-0.18597002 -0.04370241 0.0520395 -0.034864243 0.043747168 0.118088886 0.031017857 -0.105023034
0.03402684 0.18295936 -0.056571677 -0.008395536 0.11532715 0.023307642 0.030455332 -0.12948087
0.1521171 -0.0054219686 -0.024364477 0.011160854 -0.11601032 0.11142562 -0.063878864 -0.0555745
0.0016870274 -0.030717244 -0.061354987 0.007843235 -0.07035727 0.16970147 -0.07102264 0.10085603
0.08976806 0.1007412 -0.11861229 0.13691337 -0.036388513 0.031947494 0.16101485 -0.14879204
-0.006343033 -0.08757282 -0.14008978 -0.045331977 -0.0070209824 -0.099582255 0.05591231 0.11086385
0.13617733 0.019181877 -0.053615615 -0.06230483 -0.102463126 -0.11380332 0.03400331 -0.036131855
-0.08488954 0.062523976 -0.03065369 0.16483712 0.03704022 0.020756079 -0.09675693 -0.005748002
-0.002450572 -0.06307429 0.11366335 0.14445454 0.12185665 0.045434717 0.014843656 -0.18099761
00000000: 5b7b 6d3c dd20 5abe e286 933b 352f 9bbd
00000010: 2ab9 08be 32b2 363d e7dd c63d 98ef 41bc
00000020: 75aa a03c 2d02 c5bd f3e3 40bd 6914 c43d
00000030: 5f17 843d 63bf 32be ab05 14bd 60d8 a8bd
00000040: d7b1 fa3d bc9d bbbd 551b 89bb 91b6 cbbd
00000050: 3056 1abe 02f7 f03d 99e5 113e cfef c8bd
00000060: 39d8 94bd e311 e5ba 4f3c d6bd 3db4 c83b
00000070: cbca 1f3e e5cd c6bd 6e5c 48be 2f1e b03c
00000080: 0c88 9c3d 0bae f2bd d29c c0bd 34b1 0a3e
00000090: e712 7abd 33c4 90bd 64b8 15be 485f b23d
000000a0: 4391 6b3d 3906 e1bb 0b88 f63d 92a4 063d
000000b0: c560 ad3d 310b 6a3d 99a9 c5bd a495 5a3d
000000c0: abff 15be d3cf 643d 9caf eabd d822 1d3e
000000d0: 6e89 093e 5519 de3d 890e 31bd d1f5 d8bd
000000e0: 0f36 b63d d82c 02bd 96ac ccbd 495d 373e
000000f0: 7638 98bc 0f79 abbd 817a 25be 9384 a8bd
00000100: 6b78 acbb a419 b7bb 91b6 abbc ad73 34bd
00000110: 47de 8d3d 2632 7fbd b561 b13c b047 933d
00000120: e95f d0bd 1a4f f7bd d17c 783e d264 88bd
00000130: f0c8 c6bb 4bf0 b7bb 56ab 8f3d 0822 68bc
00000140: 1c70 db3d d2ec deba efe1 363d e48a 4d3d
00000150: de98 ef3d 5257 8dbd b14c 8abd 1dde 80bd
00000160: a1d1 a83d 316b b0bd 9418 1e3e 7ee3 103e
00000170: 0856 46bd 8a6a e03d 228f 313d 77fc e1bd
00000180: bea5 233a a84a b33d 4bd8 0dbe 22e4 163d
00000190: 10fb c2bd c08c 253e 0089 04bd 0f1a e4bd
000001a0: b563 3abd 7da2 9cbd 6b61 a23c 8a5d 233e
000001b0: a297 c83d 18d0 df3d d5f5 f0bd 20f3 b7bd
000001c0: dbbf e93d e34b 8a3d fe5c 9b3d c7a2 a63d
000001d0: eb8c 083e cbd7 0dbd 326e e73d 0296 0e3d
000001e0: c354 4fbd 9e2d 513c 3c98 c43d cc0b c43c
000001f0: 770f 79bd f667 32bd f3c8 e63d 4f6e 423c
00000200: 6a02 c33d 10a6 58bd 5d07 f63d bae3 9bbd
00000210: cf9f a2bd 867d 97bd 31af c2bd f72b 1dbe
00000220: 9dec 9ebc 73dd 853d eb70 283d 3a18 363e
00000230: 8fcb a93b 7aa2 f23c 167b 3e3c 18a3 5dbe
00000240: ee06 afbd b801 09be df27 123e 4010 103e
00000250: 9a0b aebb 32f7 2dbe 9c44 423d c08c 373d
00000260: 5138 223e e68b 15be 7aeb 1dbd 74c8 4d3d
00000270: 8281 c83d 5c2f 76bc 9cb7 bb3d 7438 fdbd
00000280: e0df 463c c627 643c 689a fdbc dadf 383d
00000290: f58b 613d 3b56 023e 7db1 1dbe 95ca 64bd
000002a0: 0c4b b83d d5da fa3d d80d c73d 7c5b c53d
000002b0: ae93 4a3d fd81 a3bd 535b 6a3c df0c 423e
000002c0: bfaa d7bc 20be 14bc 6b77 c7bd fa8a 9cbd
000002d0: d536 5fbd 3242 653d 2b4a 3c3c ebf3 8e3d
000002e0: ed6e 3ebe 4c01 33bd 5f27 553d cfcd 0ebd
000002f0: 3b30 333d 96d8 f13d 2919 fe3c 5116 d7bd
00000300: ba5f 0b3d b359 3b3e b4b7 67bd 6e8d 09bc
00000310: a430 ec3d abef be3c 767d f93c a296 04be
00000320: 96c4 1b3e c5aa b1bb 0398 c7bc 04dc 363c
00000330: d296 edbd 1e33 e43d ecd2 82bd 16a2 63bd
00000340: 3f1f dd3a bba2 fbbc 5e4f 7bbd e980 003c
00000350: 7917 90bd 39c6 2d3e 5174 91bd 9b8d ce3d
00000360: 51d8 b73d 6751 ce3d 00eb f2bd 0533 0c3e
00000370: 1f0c 15bd 60db 023d 14e1 243e f15c 18be
00000380: 38d9 cfbb 6159 b3bd b273 0fbe 06ae 39bd
00000390: 4510 e6bb c8f1 cbbd 4e04 653d 960c e33d
000003a0: 1272 0b3e 5023 9d3c 0c9c 5bbd 5933 7fbd
000003b0: 30d8 d1bd b711 e9bd 0e47 0b3d fffe 13bd
000003c0: 91da adbd 920c 803d 731d fbbc 10cb 283e
000003d0: 7cb7 173d a708 aa3c 7f28 c6bd bc59 bcbb
000003e0: c799 20bb 182d 81bd 55c8 e83d e4eb 133e
000003f0: fb8f f93d c119 3a3d ce32 733c 7057 39be

net_container.0.bias f4 [256]
0.2068983 -0.12411027 0.033892203 0.0065234764 0.0368258 0.050915457 0.14845318 0.131204
0.09053055 -0.011077561 0.0434099 -0.04779226 0.062080428 -0.03911253 0.14263 -0.10809923
0.11061365 -0.122479655 0.12026215 0.054843523 0.028275263 0.054254316 -0.08268531 0.16919844
0.092819646 0.044469994 -0.06153785 -0.20467445 -0.13805658 -0.095322296 -0.08677019 -0.02820816
0.12485001 0.0913574 0.02794474 -0.1859612 0.10723465 -0.031918634 0.10230985 -0.103204496
-0.17182569 0.16118892 -0.084983654 -0.053488877 0.016120888 -0.068482295 -0.002868982 -0.11916646
0.10604767 0.055607945 -0.065828204 -0.043391515 -0.13050231 -0.078871325 -0.13744074 -0.063959
0.14852832 0.011574534 0.13852409 0.12770185 -0.07892369 0.09459454 0.16009463 -0.02808565
0.016528243 0.15754096 0.0939701 -0.06639079 0.08633009 0.09684159 0.1160804 -0.11453311
0.1420334 0.030349484 -0.033887405 0.0802625 0.13641159 -0.028384252 0.15725434 0.07849941
-0.15242054 -0.12495655 0.08437827 0.09828713 -0.0064513353 0.12645668 0.08913928 0.13258119
-0.053400725 0.12611197 -0.078513205 -0.09284318 0.059660047 -0.11857105 -0.026432784 0.03639385
0.06414437 0.01640336 -0.1663206 0.0060340483 0.10208782 0.07495166 -0.18165414 -0.0061655436
-0.002197208 0.06638407 -0.0039112316 -0.06378953 -0.04165978 -0.048525773 0.025000744 0.08420649
-0.09881274 -0.101664454 0.105062865 0.11700581 -0.1533876 0.04746313 -0.058893356 0.057885718
-0.06219123 -0.061858334 0.17874484 -0.17928337 0.018985813 -0.08805343 -0.07859236 0.13612609
0.105338454 -0.2420818 0.13639972 -0.05163354 -0.18591401 -0.043115105 -0.09469744 -0.0016372991
0.21382324 0.07084416 0.09269495 0.043482017 0.12403245 -0.17248501 -0.026255012 -0.13335897
-0.071640655 0.105255716 -0.04870731 -0.12659958 -0.10110896 -0.15725781 -0.057160396 0.07142029
-0.04662056 0.025615346 0.13605015 -0.07635839 -0.06078706 -0.113551304 -0.08068882 -0.025189696
-0.09131163 0.10946715 0.1115354 0.02992386 0.085242175 -0.05739114 -0.11159474 0.03515368
-0.14757897 -0.15063438 0.11074152 -0.066333435 0.17089939 -0.1698051 0.1537484 0.16398469
-0.06401269 -0.14595792 -0.09146173 0.13647448 -0.11894804 0.0865672 0.086103626 -0.0664128
-0.12796599 0.058515627 0.05195472 0.05253742 -0.06495157 -0.08848827 -0.0046111657 -0.09852076
-0.028823977 -0.056635942 0.13415317 0.069433875 -0.1271637 0.03606317 -0.030321611 0.057828415
0.00016238402 0.07435031 0.063962996 0.038961645 0.12694828 -0.02255592 0.03949834 -0.12087714
-0.031664822 0.18109141 -0.00299168 0.08934986 0.17804353 0.089834124 -0.12209081 0.067950495
0.10863619 0.0818601 0.15094972 0.10510475 0.010970676 0.054251675 0.022159234 -0.14295019
0.12033889 -0.108429775 -0.063001044 0.05298099 -0.0830162 -0.0796232 0.19270875 0.014404081
-0.12281208 0.1369947 0.12422337 0.100045875 0.014627978 0.18014249 0.05138723 0.09458937
-0.049030233 -0.06661467 0.15342528 0.017208982 0.030017486 0.08336594 -0.17840159 0.0064460263
-0.0017853482 -0.0055054817 0.138239 0.0036231182 -0.12308115 0.01834052 -0.21841566 0.035383057
00000000: 26dd 533e 862d febd 8dd2 0a3d e3c2 d53b
00000010: a6d6 163d ba8c 503d 1c04 183e 575a 063e
00000020: 1568 b93d a97e 35bc 94ce 313d d1c1 43bd
00000030: 0c48 7e3d 7634 20bd 990d 123e 2163 ddbd
00000040: 6989 e23d 9dd6 fabd 014c f63d 9aa3 603d
00000050: 86a1 e73c c639 5e3d ea56 a9bd 5b42 2d3e
00000060: 3a18 be3d 2b26 363d 1d0f 7cbd 2e96 51be
00000070: b45e 0dbe 5638 c3bd 92b4 b1bd cd14 e7bc
00000080: 5db1 ff3d 9719 bb3d 5eec e43c 9d6c 3ebe
00000090: d79d db3d 1dbd 02bd d487 d13d e15c d3bd
000000a0: 13f3 2fbe b50e 253e e90b aebd 2717 5bbd
000000b0: f40f 843c 7240 8cbd 8805 3cbb 8c0d f4bd
000000c0: 852f d93d 28c5 633d f0d0 86bd 4dbb 31bd
000000d0: 66a2 05be 4a87 a1bd 44bd 0cbe f0fc 82bd
000000e0: cf17 183e 1da3 3d3c 42d9 0d3e 46c4 023e
000000f0: bea2 a1bd c8ba c13d d9ef 233e e113 e6bc
00000100: 3d66 873c 6b52 213e 6573 c03d e5f7 87bd
00000110: d5cd b03d e254 c63d 90bb ed3d 5690 eabd
00000120: 3471 113e 7b9f f83c 85cd 0abd aa60 a43d
00000130: 7baf 0b3e 1786 e8bc 4807 213e 4cc4 a03d
00000140: 2114 1cbe 38e9 ffbd 84ce ac3d c34a c93d
00000150: b965 d3bb dc7d 013e a88e b63d 5dc3 073e
00000160: b8ba 5abd 7f23 013e 88cb a0bd 9124 bebd
00000170: 185e 743d 61d5 f2bd 9189 d8bc b811 153d
00000180: 205e 833d 5760 863c f34f 2abe 44b9 c53b
00000190: 6b13 d13d 4280 993d 8b03 3abe 5408 cabb
000001a0: 09ff 0fbb 5ff4 873d ca29 80bb 16a4 82bd
000001b0: 72a3 2abd f6c2 46bd 5cce cc3c 7474 ac3d
000001c0: 555e cabd 7435 d0bd 332b d73d bea0 ef3d
000001d0: a411 1dbe b368 423d 293a 71bd 9319 6d3d
000001e0: 3bbc 7ebd 2a5f 7dbd e308 373e 0f96 37be
000001f0: 2388 9b3c 5b55 b4bd 08f5 a0bd a364 0b3e
00000200: b0bb d73d 4be4 77be 5eac 0b3e b17d 53bd
00000210: 3e60 3ebe 7799 30bd bbf0 c1bd a49a d6ba
00000220: 7bf4 5a3e be16 913d dad6 bd3d 331a 323d
00000230: ba04 fe3d e99f 30be c014 d7bc 418f 08be
00000240: 56b8 92bd 4f90 d73d 5181 47bd 52a3 01be
00000250: 3712 cfbd 3108 21be 0521 6abd cd44 923d
00000260: 33f5 3ebd 46d7 d13c bb50 0b3e ca61 9cbd
00000270: dafb 78bd 968d e8bd 2e40 a5bd 9f5a cebc
00000280: 9801 bbbd 5030 e03d ac6c e43d e222 f53c
00000290: 7393 ae3d f912 6bbd c88b e4bd 4efd 0f3d
000002a0: f11e 17be e63f 1abe 73cc e23d d3d9 87bd
000002b0: 4000 2f3e 63e1 2dbe 3870 1d3e 9aeb 273e
000002c0: 1619 83bd fe75 15be 4a50 bbbd f7bf 0b3e
000002d0: 089b f3bd 254a b13d 1957 b03d 6f03 88bd
000002e0: 8409 03be 15ae 6f3d 79ce 543d 7a31 573d
000002f0: 5405 85bd 5739 b5bd 4319 97bb 41c5 c9bd
00000300: 4320 ecbc 17fb 67bd 735f 093e 5933 8e3d
00000310: 3337 02be f9b6 133d 0765 f8bc 7ddd 6c3d
00000320: a145 2a39 fa44 983d 08ff 823d 3f96 1f3d
00000330: bbfe 013e 31c7 b8bc 03c9 213d 6f8e f7bd
00000340: f9b2 01bd 0770 393e 1010 44bb 0ffd b63d
00000350: 0b51 363e f4fa b73d bf0a fabd a129 8b3d
00000360: a77c de3d 45a6 a73d 9092 1a3e 2941 d73d
00000370: 5abe 333c 0137 5e3d 4887 b53c 8961 12be
00000380: 3c74 f63d 6e10 debd b106 81bd 9802 593d
00000390: 6604 aabd 7d11 a3bd 7155 453e 18ff 6b3c
000003a0: e684 fbbd 5748 0c3e d268 fe3d dae4 cc3d
000003b0: 30aa 6f3c 4677 383e 6b7b 523d 12b8 c13d
000003c0: edd3 48bd 466d 88bd 841b 1d3e daf9 8c3c
000003d0: 3be7 f53c c3bb aa3d e8ae 36be 3039 d33b
000003e0: 5802 eaba 5467 b4bb 868e 0d3e d671 6d3b
000003f0: f811 fcbd dc3e 963c 5ba8 5fbe d3ed 103d

net_container.2.weight f4 [128, 256]
0.056009877 -0.019011362 0.0019912203 -0.023734607 0.024672125 -0.029967517 0.022457527 -0.06247522
-0.031741135 0.05735244 -0.049698453 -0.025791518 0.03437727 -0.06550574 0.015081144 -0.017158544
-0.032960866 0.018334478 0.00030522636 0.02612745 -0.055891972 0.0020295898 -0.038283575 -0.10671518
-0.023143616 0.027912159 -0.044960104 0.077852786 0.01714922 0.010842937 -0.0015715471 0.037028044
-0.09338115 -0.07027995 -0.07793306 0.059916306 -0.015442391 0.07007388 0.026291618 0.03955934
0.058560524 0.044360038 -0.003907352 -0.041257057 0.040342975 0.043966994 -0.048225753 0.08362789
0.03338092 0.013556203 0.061814353 0.026174678 0.04218432 -0.033912104 0.015209798 0.018892514
-0.08696669 -0.07194979 0.029834058 -0.0038314192 0.048653573 0.0096806 0.02047798 0.0037626454
-0.06071985 -0.050875716 -0.04784551 -0.069602884 -0.025495984 0.02513145 -0.0074556423 -0.015343715
0.028439766 -0.03320023 0.010369583 0.062783174 -0.02440337 -0.03248947 0.00440422 0.054090895
0.07302376 0.07939732 -0.04024135 0.037567314 0.004320046 0.035552546 -0.031442497 -0.113697514
0.038565133 -0.040458094 -0.036169134 -0.019904258 -0.031146452 0.036829222 -0.047425795 -0.03998952
-0.018265065 -0.05234087 0.071223445 -0.0052918727 -0.013499155 -0.04611604 -0.009733126 -0.0058698235
0.02937607 -0.058920387 -0.024012465 0.020664131 0.079129115 0.0766079 -0.0048704944 -0.06323364
0.07417189 0.017783584 -0.057389904 -0.06792866 -0.011669861 -0.037164304 -0.0015179235 0.04096555
-0.03620772 0.03260847 -0.04851827 0.060518038 0.04305447 0.06479933 0.0012513153 -0.06945199
0.012375794 0.042207077 -0.074900955 -0.02925413 0.04617858 0.031950746 0.06595343 0.026485614
0.057076424 -0.011211172 0.013184341 0.08855832 -0.03581826 0.018319711 -0.05880021 0.037014518
0.0030753869 -0.060815517 0.008722256 0.054230098 -0.035307966 -0.03978261 0.08517397 -0.053218365
-0.06037753 0.044733632 -0.09464269 0.072977036 -0.016788673 0.0193305 0.034564815 -0.07057027
0.06430575 -0.025936294 -0.08546648 -0.08191123 0.015248977 -0.012737771 -0.07409038 -0.051863533
0.049876466 0.049430683 -0.004877068 0.074104585 -0.025854096 0.006037123 0.048042327 -0.0054656854
-0.012021106 0.007656787 0.050034415 -0.066090845 -0.045838144 -0.09419558 0.0147059085 -0.0070304833
-0.0077227857 0.04154147 -0.030510232 0.011891671 -0.030613499 -0.010760487 -0.027711865 0.07957104
-0.0021479279 -0.04799715 -0.049892705 -0.034305077 -0.06317809 0.050604187 0.06432464 -0.046575595
-0.011194092 0.02094798 -0.06801992 -0.06884136 0.010748843 0.031347435 0.07770991 -0.042860687
-0.025218658 -0.08608594 -0.008797651 -0.05765484 -0.07854182 -0.044052448 0.035672475 -0.053386927
0.00443621 -0.013382349 -0.045582186 -0.014016006 0.022178005 0.022065196 -0.019387994 0.009024619
-0.04910241 0.05504983 0.039726134 0.06587799 0.057647325 -0.046382193 0.0167199 0.0797553
-0.043780174 -0.026654724 -0.08534873 -0.060599655 0.045823243 -0.050293643 -0.024998259 0.0071453485
-0.02018021 0.023988282 0.025007268 -0.012441488 -0.05600339 0.047920693 0.062516265 -0.003912439
0.018002009 -0.014413648 -0.087784156 -0.055160962 -0.014941088 -0.033063132 0.049655627 -0.008590585
00000000: 9d6a 653d b7bd 9bbc 227f 023b 146f c2bc
00000010: 321d ca3c 707e f5bc d9f8 b73c 04e6 7fbd
00000020: fe02 02bd 64ea 6a3d 9b90 4bbd bc48 d3bc
00000030: 2ecf 0c3d e027 86bd e716 773c 1390 8cbc
00000040: f901 07bd 3032 963c ca06 a039 3c09 d63c
00000050: fbee 64bd de02 053b 3dcf 1cbd 7d8d dabd
00000060: ae97 bdbc 0aa8 e43c 1628 38bd 4871 9f3d
00000070: 857c 8c3c 93a6 313c 5ffc cdba b8aa 173d
00000080: 9e3e bfbd efee 8fbd 5e9b 9fbd cd6a 753d
00000090: 1502 7dbc e582 8f3d 8561 d73c f908 223d
000000a0: 29dd 6f3d dfb2 353d 3f09 80bb 29fd 28bd
000000b0: ad3e 253d bc16 343d 5e88 45bd 1945 ab3d
000000c0: 6eba 083d d61a 5e3c 0c31 7d3d 476c d63c
000000d0: 77c9 2c3d 6be7 0abd 8432 793c 79c4 9a3c
000000e0: 981b b2bd 695a 93bd 8e66 f43c 8c18 7bbb
000000f0: f848 473d 619b 1e3c 70c1 a73c b796 763b
00000100: 61b5 78bd 0e63 50bd a7f9 43bd f58b 8ebd
00000110: f4dc d0bc 78e0 cd3c 764e f4bb 3564 7bbc
00000120: 83fa e83c f7fc 07bd 2fe5 293c 7794 803d
00000130: 94e9 c7bc ae13 05bd 4651 903b 6a8e 5d3d
00000140: 7b8d 953d 109b a23d 1dd4 24bd 2fe0 193d
00000150: 2c8f 8d3b 8c9f 113d d9c9 00bd 3eda e8bd
00000160: 79f6 1d3d 63b7 25bd 1626 14bd 410e a3bc
00000170: d826 ffbc 3dda 163d 8d41 42bd 0dcc 23bd
00000180: 9ea0 95bc 6163 56bd 99dd 913d 7267 adbb
00000190: 8f2b 5dbc 2ce4 3cbd b077 1fbc a657 c0bb
000001a0: 15a6 f03c 8156 71bd cab5 c4bc d347 a93c
000001b0: 720e a23d 9ae4 9c3d ab98 9fbb a380 81bd
000001c0: 6fe7 973d e1ae 913c ad11 6bbd 2e1e 8bbd
000001d0: f232 3fbc 9939 18bd 10f5 c6ba 7ecb 273d
000001e0: 8c4e 14bd 7690 053d 18bb 46bd c3e1 773d
000001f0: e259 303d 83b5 843d 2d03 a43a d83c 8ebd
00000200: d8c3 4a3c 54e1 2c3d ac65 99bd 5ba6 efbc
00000210: c025 3d3d c9de 023d 9812 873d 5cf8 d83c
00000220: f8c8 693d 10af 37bc 2203 583c 115e b53d
00000230: 2bb6 12bd 3813 963c 7dd8 70bd 899c 173d
00000240: 6e8c 493b b119 79bd cbe7 0e3c 6120 5e3d
00000250: 169f 10bd 17f3 22bd b16f ae3d 80fb 59bd
00000260: 6e4e 77bd 9d3a 373d 07d4 c1bd fc74 953d
00000270: 6688 89bc ff5a 9e3c d693 0d3d 2587 90bd
00000280: bcb2 833d 5a78 d4bc 0d09 afbd 13c1 a7bd
00000290: d8d6 793c 15b2 50bc b2bc 97bd db6e 54bd
000002a0: 444b 4c3d d477 4a3d d0cf 9fbb 25c4 973d
000002b0: f8cb d3bc 0fd3 c53b 08c8 443d 7e19 b3bb
000002c0: 2cf4 44bc c9e5 fa3b e3f0 4c3d a35a 87bd
000002d0: c7c0 3bbd 9de9 c0bd 0df1 703c f85f e6bb
000002e0: 6c0f fdbb 6327 2a3d 98f0 f9bc 49d5 423c
000002f0: 29c9 fabc c14c 30bc fe03 e3bc 24f6 a23d
00000300: 40c4 0cbb a998 44bd 4b5c 4cbd 7b83 0cbd
00000310: 8463 81bd 5646 4f3d a3bc 833d 0dc6 3ebd
00000320: 6d67 37bc 199b ab3c 074e 8bbd b3fc 8cbd
00000330: ea1b 303c 2b66 003d 6026 9f3d b08e 2fbd
00000340: 5c97 cebc d34d b0bd 0624 10bc 7b27 6cbd
00000350: 89da a0bd 5770 34bd 4d1d 123d 40ac 5abd
00000360: a05d 913b a441 5bbc 63b4 3abd 64a3 65bc
00000370: a6ae b53c 12c2 b43c 92d3 9ebc ffdb 133c
00000380: 9c1f 49bd ee7b 613d dfb7 223d 0aeb 863d
00000390: 9a1f 6c3d 41fb 3dbd 2cf8 883c bf56 a33d
000003a0: d752 33bd 025b dabc 51cb aebd 5837 78bd
000003b0: 27b1 3b3d b500 4ebd 26c9 ccbc 8723 ea3b
000003c0: f850 a5bc 1383 c43c 0bdc cc3c 62d7 4bbc
000003d0: d063 65bd 7d48 443d 8708 803d eb33 80bb
000003e0: f378 933c 3927 6cbc 2ec8 b3bd 76f0 61bd
000003f0: 77cb 74bc 356d 07bd b363 4b3d 86bf 0cbc

net_container.2.bias f4 [128]
-0.018976368 -0.098557964 -0.018622246 -0.09578669 -0.0963766 0.028938428 0.067361444 -0.031815823
0.038289808 -0.083702594 0.07185664 -0.041485455 -0.02505002 0.007406587 -0.032130215 0.0524371
-0.11344114 -0.014162463 0.015249164 0.024383785 0.07459068 0.0020403992 0.001929314 -0.035225198
0.012028444 0.023266913 0.011433491 -0.13384224 -0.088834494 -0.07351302 -0.0975901 -0.032365505
-0.03036176 -0.009910145 0.060504694 0.03740893 -0.024620516 -0.08723539 -0.032580514 -0.00071641075
-0.1241773 -0.032395467 -0.07314415 0.053637158 0.045777623 0.03662384 0.05672169 0.07689701
0.08286661 0.037865087 -0.035577692 -0.11791667 0.012028848 0.07813309 -0.08970754 -0.04816655
0.06360254 -0.095007986 0.08458218 0.03685705 -0.11776263 0.057849165 -0.014999809 -0.052157454
0.03412278 -0.029926501 0.11109795 -0.05211446 -0.010560006 -0.019264782 -0.08863981 -0.06715811
-0.109461956 0.038571924 -0.04546875 -0.05122502 -0.01182764 0.029046293 -0.07561427 -0.00273892
-0.0032172676 -0.06046888 0.08683566 0.01137072 -0.06356188 0.00016379818 0.099253334 0.05034584
0.027212452 0.02341799 -0.13002299 0.03797662 -0.08931492 0.0114503745 -0.07610115 0.04851724
-0.0024438477 0.050685175 -0.07431029 -0.0256129 -0.09955911 -0.006947672 0.014633838 0.09008009
-0.032999173 -0.00896532 -0.013964149 -0.05775292 -0.09464066 -0.030602744 0.08922609 0.04483127
-0.07400784 -0.027129713 0.014391861 0.056575634 0.04998636 -0.0321592 -0.13944924 0.02150065
0.06318565 -0.015748788 -0.05383428 -0.03735811 0.070559725 0.004142754 -0.09219451 -0.06105526
00000000: 5474 9bbc c2d8 c9bd ae8d 98bc d02b c4bd
00000010: 1861 c5bd 4810 ed3c ccf4 893d 4f51 02bd
00000020: c6d5 1c3d 446c abbd 9329 933d a7ec 29bd
00000030: b335 cdbc f4b2 f23b f99a 03bd 49c8 563d
00000040: d453 e8bd ad09 68bc a1d7 793c 81c0 c73c
00000050: 00c3 983d 38b8 053b 09e1 fc3a 4c48 10bd
00000060: f312 453c 419a be3c 8953 3b3c f10d 09be
00000070: dcee b5bd ff8d 96bd 51dd c7bd b191 04bd
00000080: 3ab9 f8bc 295e 22bc c5d3 773d 1b3a 193d
00000090: f7b0 c9bc 78a8 b2bd 2573 05bd 83cd 3bba
000000a0: ab50 febd 1cb1 04bd 9acc 95bd a3b2 5b3d
000000b0: 5181 3b3d e102 163d 0155 683d 2e7c 9d3d
000000c0: f8b5 a93d 6c18 1b3d eab9 11bd 4c7e f1bd
000000d0: a514 453c 3e04 a03d 96b8 b7bd 4a4a 45bd
000000e0: 0c42 823d 8c93 c2bd 6c39 ad3d 6bf7 163d
000000f0: 892d f1bd 3ff3 6c3d c2c1 75bc 0ea3 55bd
00000100: 54c4 0b3d 6c28 f5bc 5287 e33d f975 55bd
00000110: e003 2dbc 2dd1 9dbc ca88 b5bd 318a 89bd
00000120: 972d e0bd 98fd 1d3d 713d 3abd 54d1 51bd
00000130: b8c8 41bc 7ef2 ed3c a8db 9abd 747f 33bb
00000140: cbd8 52bb 37ae 77bd e5d6 b13d 424c 3a3c
00000150: bb2c 82bd 3dc1 2b39 5545 cb3d 7137 4e3d
00000160: a6ec de3c 16d7 bf3c bf24 05be 5f8d 1b3d
00000170: beea b6bd 5a9a 3b3c ebda 9bbd 03ba 463d
00000180: f628 20bb 429b 4f3d fe2f 98bd 25d2 d1bc
00000190: a6e5 cbbd 4ca9 e3bb c4c2 6f3c e97b b83d
000001a0: 242a 07bd 47e3 12bc e3c9 64bc 538e 6cbd
000001b0: f6d2 c1bd 9bb2 fabc 2bbc b63d fea0 373d
000001c0: 6c91 97bd 223f debc d7cb 6b3c dabb 673d
000001d0: 7fbe 4c3d 5eb9 03bd c8cb 0ebe 2222 b03c
000001e0: 7a67 813d 9a03 81bc 5681 5cbd d104 19bd
000001f0: 9e81 903d f0bf 873b 7ad0 bcbd 1515 7abd

net_container.4.weight f4 [64, 128]
0.005006218 0.06577421 -0.073548056 -0.026328431 0.0068743825 -0.062991686 0.02586338 0.06456014
-0.0070700813 -0.045968384 -0.05749708 0.0071135634 0.08310284 -0.05551987 -0.011403194 -0.03397782
-0.015833396 -0.031052442 -0.0013958127 0.051065784 -0.09355149 -0.10046403 0.1156508 -0.06480789
-0.005973822 0.075807326 0.02434318 -0.0063438774 0.08527809 0.04022128 -0.025175394 0.03482154
0.016325947 -0.018121386 -0.10558807 -0.094995394 -0.027819173 -0.012625374 0.039253835 -0.029772094
-0.013539833 -0.012581351 0.04784022 -0.007247258 0.002306907 0.008286413 -0.092659034 0.04892177
-0.050596036 -0.06218825 0.07981519 0.06640209 0.06886361 -0.05109003 0.049037937 -0.009125429
0.06118093 -0.018742088 0.034028582 0.013856108 0.07033637 -0.009656199 -0.027636651 0.011233907
-0.062831804 -0.05356734 -0.069866575 -0.063994296 0.021141047 0.10297437 -0.016401429 0.100539304
0.07170301 -0.014416502 -0.07732092 -0.03026865 -0.021026338 0.01839991 0.12078673 -0.059808772
-0.03647357 0.006502797 -0.055109575 -0.079182975 0.00676851 0.073488355 -0.106351115 0.04690537
0.048192173 -0.001970238 0.04597161 -0.09592998 0.06003077 -0.04180893 -0.08391513 -0.11639458
-0.05311308 0.07242932 0.013833322 0.092450224 0.06270374 -0.0065080724 0.034014516 -0.0040679416
-0.0033188686 0.010105273 0.07778702 -0.06880523 -0.038733333 -0.080909275 -0.010704881 0.06496596
-0.04526833 0.0037217396 0.029659545 0.034276422 -0.035235174 0.062121753 -0.021809652 -0.07903377
0.02124258 -0.09359051 0.0032920658 0.059193533 -0.049446322 0.016114436 0.1087341 -0.020101355
0.11820107 -0.0741711 -0.057649054 0.052103702 0.07979588 -0.05390607 -0.028637663 -0.06976798
-0.08796555 -0.08251285 0.057828058 -0.05064509 0.0021790199 0.022981355 0.09417372 -0.07357873
-0.004482817 -0.06680181 -0.055838022 0.04712783 -0.013798604 -0.008274002 0.06683048 0.05047305
0.01691906 -0.017396808 0.017911587 -0.0395897 0.04504818 -0.074620694 0.049736015 0.04931476
0.056557216 0.012421848 -0.017624121 -0.0061897975 -0.037856232 -0.030716391 -0.020089261 -0.05881733
0.024211735 -0.029890494 -0.111342534 0.010881844 -0.03726341 0.027388994 -0.087535545 0.014601362
-0.09004126 -0.1078924 0.018930614 0.06672862 -0.11447172 0.021191241 -0.07952975 -0.063815825
0.0144816805 0.032122154 0.009520989 -0.05240501 0.058892637 0.049874496 0.05124058 -0.08455373
-0.117625214 -0.09135187 0.050789658 0.05394316 0.033769187 0.02423476 -0.07465845 -0.042519227
0.09168193 -0.017871369 0.04549727 0.060678437 -0.024821883 -0.08229023 -0.07819709 -0.029152233
2.7743312e-05 -0.07193228 -0.038911894 -0.024486622 -0.0046565984 0.027512182 -0.11429763 -0.06099542
0.06679143 -0.118089266 0.02161757 -0.063245006 0.013667039 0.0022301734 0.043389343 0.024434434
0.04588845 -0.054137826 0.043006442 0.015468365 0.080461524 -0.048374202 0.04188749 0.05671959
0.01875161 -0.03744486 -0.05260227 0.012865467 0.024454126 -0.07828886 -0.06380174 -0.113710895
-0.0017402776 0.11622691 0.053502277 0.0034750085 0.09888758 -0.073895775 0.08102136 0.027585771
-0.0021965841 -0.024104945 0.045002878 0.04923412 0.034199905 -0.022256073 0.025179474 0.06440387
00000000: 330b a43b a1b4 863d 5da0 96bd b9ae d7bc
00000010: 8042 e13b c901 81bd 70df d33c 1b38 843d
00000020: 24ac e7bb 5849 3cbd 0f82 6bbd e518 e93b
00000030: d231 aa3d ce68 63bd 76d4 3abc 542c 0bbd
00000040: 0ab5 81bc b161 febc b4f3 b6ba 5b2a 513d
00000050: ec97 bfbd 16c0 cdbd 54da ec3d 00ba 84bd
00000060: 0dc0 c3bb df40 9b3d 596b c73c 4de0 cfbb
00000070: 47a6 ae3d 12bf 243d a13c cebc 08a1 0e3d
00000080: febd 853c 4d73 94bc 8f3e d8bd f28c c2bd
00000090: 09e5 e3bc a8da 4ebc a1c8 203d 9be4 f3bc
000000a0: 2dd6 5dbc 0322 4ebc 1bf4 433d 687a edbb
000000b0: 7a2f 173b bcc3 073c 05c4 bdbd 3262 483d
000000c0: ca3d 4fbd 1bb9 7ebd 2576 a33d d2fd 873d
000000d0: 5d08 8d3d c843 51bd 01dc 483d d382 15bc
000000e0: db98 7a3d 0289 99bc 8e61 0b3d bb04 633c
000000f0: 840c 903d 0935 1ebc 4266 e2bc 6c0e 383c
00000100: f6ad 80bd 6d69 5bbd 3516 8fbd 710f 83bd
00000110: fd2f ad3c 3ae4 d23d 4a5c 86bc 8de7 cd3d
00000120: 07d9 923d 3133 6cbc 6e5a 9ebd f6f5 f7bc
00000130: 6d3f acbc 68bb 963c 085f f73d 0bfa 74bd
00000140: 4f65 15bd 6a15 d53b 94ba 61bd af2a a2bd
00000150: 61ca dd3b 1081 963d 9dce d9bd d81f 403d
00000160: 2865 453d 1c1f 01bb ba4c 3c3d f076 c4bd
00000170: d3e2 753d d73f 2bbd b2db abbd 4860 eebd
00000180: 1a8d 59bd d355 943d 28a5 623c 8b56 bd3d
00000190: d26a 803d ab41 d5bb ce52 0b3d 5e4c 85bb
000001a0: 6081 59bb 9690 253c cd4e 9f3d c2e9 8cbd
000001b0: d8a6 1ebd c3b3 a5bd 8663 2fbc e00c 853d
000001c0: 496b 39bd 6ee8 733b 93f8 f23c 6f65 0c3d
000001d0: c252 10bd 6173 7e3d 28aa b2bc 75dc a1bd
000001e0: eb04 ae3c 62ac bfbd b3bf 573b eb74 723d
000001f0: 3a88 4abd 6c02 843c fcaf de3d 99ab a4bc
00000200: 6713 f23d 05e7 97bd 6a21 6cbd b16a 553d
00000210: 066c a33d 9ccc 5cbd 8899 eabc 84e2 8ebd
00000220: 4827 b4bd 7ffc a8bd 1ddd 6c3d 3a71 4fbd
00000230: e3cd 0e3b 6543 bc3c 27de c03d 72b0 96bd
00000240: 98e4 92bb 63cf 88bd 69b6 64bd 1d09 413d
00000250: 8a13 62bc ae8f 07bc 6bde 883d d4bc 4e3d
00000260: d799 8a3c c083 8ebc 52bb 923c cf28 22bd
00000270: 7184 383d bcd2 98bd feb7 4b3d 46fe 493d
00000280: 8aa8 673d 0285 4b3c 7660 90bc c9d3 cabb
00000290: 230f 1bbd f1a0 fbbc 3c92 a4bc 71ea 70bd
000002a0: b057 c63c e9dc f4bc 8e07 e4bd c349 323c
000002b0: 84a1 18bd e25e e03c d645 b3bd 8d3a 6f3c
000002c0: 8d67 b8bd b1f6 dcbd 6014 9b3c 04a9 883d
000002d0: 2670 eabd 4199 ad3c 7ee0 a2bd dfb1 82bd
000002e0: 9244 6d3c 8592 033d ecfd 1b3c a3a6 56bd
000002f0: 6839 713d 3349 4c3d a4e1 513d 822a adbd
00000300: 7de5 f0bd b016 bbbd d108 503d 81f3 5c3d
00000310: 8f51 0a3d fa87 c63c 88e6 98bd a428 2ebd
00000320: bcc3 bb3d fa66 92bc 585b 3a3d f489 783d
00000330: 4357 cbbc c887 a8bd cc25 a0bd aad0 eebc
00000340: 4fba e837 3b51 93bd 1462 1fbd 2b98 c8bc
00000350: 6196 98bb 3a61 e13c e014 eabd 55d6 79bd
00000360: f2c9 883d c9d8 f1bd 5517 b13c 9986 81bd
00000370: b7eb 5f3c 1a28 123b 06b9 313d b92a c83c
00000380: 87f5 3b3d a0bf 5dbd 8627 303d 066f 7d3c
00000390: 03c9 a43d 0724 46bd 3792 2b3d cd52 683d
000003a0: fa9c 993c c85f 19bd 7a75 57bd aec9 523c
000003b0: 0554 c83c e955 a0bd 7daa 82bd 42e1 e8bd
000003c0: 071a e4ba 6008 ee3d 3425 5b3d f8bc 633b
000003d0: 9285 ca3d ab56 97bd 87ee a53d 8efb e13c
000003e0: 91f4 0fbb bc77 c5bc f054 383d b7a9 493d
000003f0: 3315 0c3d 5e52 b6bc 2f45 ce3c 2de6 833d

net_container.4.bias f4 [64]
-0.09719724 -0.058373153 0.0790684 0.0101360455 -0.07152065 -0.025622979 -0.025016826 -0.10658256
-0.11972321 0.08103725 0.0663653 -0.010026539 0.031757597 -0.070815265 -0.054695606 0.095461376
0.006791312 0.04593787 0.081750885 0.09960599 -0.090054415 0.0069526774 -0.103719614 0.016977798
0.060161952 -0.077331275 0.019979946 -0.03175882 -0.07865401 -0.0062829587 0.00780285 0.059180073
-0.04104304 -0.031109719 0.05212864 -0.002625627 -0.10999224 0.044357225 0.001378066 -0.0041100313
0.017151007 0.02808549 -0.008140886 -0.17055884 -0.036122303 -0.00827859 -0.045163188 -0.07708892
0.043200985 0.14228907 0.09685258 -0.015170717 -0.040658094 -0.11118757 -0.112746805 -0.031374197
-0.0009747613 0.034224305 -0.05093785 0.04427296 0.060701635 -0.042303193 -0.11011775 -0.06463672
00000000: 590f c7bd b018 6fbd 9dee a13d a811 263c
00000010: 6b79 92bd 48e7 d1bc 16f0 ccbc f547 dabd
00000020: 7131 f5bd dcf6 a53d 88ea 873d 5a46 24bc
00000030: 4114 023d 9807 91bd 8008 60bd 4181 c33d
00000040: a789 de3b 5929 3c3d 026d a73d 3afe cb3d
00000050: 736e b8bd 49d3 e33b f36a d4bd 0615 8b3c
00000060: 616c 763d dc5f 9ebd fcac a33c 8915 02bd
00000070: 5b15 a1bd 47e1 cdbb 0daf ff3b ce66 723d
00000080: bf1c 28bd cfd9 febc d784 553d b612 2cbb
00000090: 9d43 e1bd ecaf 353d 39a0 b43a 71ad 86bb
000000a0: 4580 8c3c 8b13 e63c 5a61 05bc faa6 2ebe
000000b0: fbf4 13bd eca2 07bc 09fd 38bd cce0 9dbd
000000c0: 84f3 303d 3ab4 113e a55a c63d 998e 78bc
000000d0: 1a89 26bd 4fb6 e3bd cce7 e6bd 3b82 00bd
000000e0: 2087 7fba c92e 0c3d 35a4 50bd 9057 353d
000000f0: 47a2 783d 1d46 2dbd 6a85 e1bd 4260 84bd

policy_layer.weight f4 [8, 64]
-0.03212514 0.018399585 -0.030492438 -0.010415054 -0.12613285 0.122908175 0.018888693 -0.16357501
0.0058053634 0.086240955 -0.09235258 0.057501733 0.10489229 0.03051543 0.012186184 0.113765694
-0.02895149 -0.019938173 0.116728015 0.02099109 0.05863501 0.021678647 0.10118897 -0.11528227
-0.012787949 0.0012495369 0.039767142 0.03050042 0.15440026 0.07635012 -0.061146766 0.07475732
-0.0980415 -0.004958339 0.05094365 -0.097628914 0.13617381 0.06755208 -0.019540573 0.06543857
-0.02219156 0.043510914 -0.10927101 0.13523409 -0.087427765 -0.12668967 0.050590836 0.046479102
0.013234601 0.02317636 -0.10796337 -0.021460209 -0.022407457 0.10405578 0.059584457 0.012757892
-0.0776775 0.07895961 0.051071674 0.058969982 0.021737017 0.09748615 0.045913495 -0.1145249
0.10429089 -0.013965478 -0.120569475 0.007903953 -0.014972966 -0.02235876 -0.09835264 0.0732511
0.09763315 -0.09830971 0.00094841875 -0.0026243883 0.13254806 -0.008367656 -0.0061276113 -0.045267172
-0.09116335 0.103911705 0.10847867 -0.11644696 0.17856221 -0.05600324 0.09843799 0.08713488
-0.044514935 0.13462238 0.1443131 -0.00082589476 0.018066585 0.15828687 -0.0919322 -0.026424546
0.16155218 0.12508912 -0.081249826 -0.09127449 0.03496364 -0.01985575 0.020755164 0.10699502
0.019999499 -0.06956993 0.11672001 0.11116875 -0.10300842 -0.058594838 0.09155224 0.12468699
0.02974385 -0.014247907 -0.018374935 0.021445287 -0.1302775 0.10447831 -0.017601216 0.057758167
-0.022295345 -0.14765753 0.00079867215 0.002437405 -0.053490885 -0.09545483 0.04949524 -0.0971619
-0.03506305 0.10291577 0.06956117 -0.10790827 -0.10992325 0.15047947 -0.0049420916 0.0057133175
-0.045968108 -0.013576637 -0.12056421 -0.057500813 -0.12888636 -0.12924613 0.000524536 -0.09517045
-0.0035863733 -0.023450775 0.13931544 -0.055699956 0.08887386 0.04650689 0.06393789 0.12012573
-0.025041386 0.15033388 0.14832084 0.025313787 0.062695704 -0.011288995 -0.040879577 -0.07267187
0.0930277 0.084005296 -0.046432793 -0.07388681 0.15382917 -0.10407462 0.14592999 0.030861316
-0.051155746 -0.07415972 -0.062414728 -0.00041937473 0.011014103 0.120552965 -0.030891135 0.066038094
-0.008335092 0.02567727 -0.09613302 -0.0760436 0.02430048 0.05563575 0.023485254 0.14800979
-0.13411506 -0.12420029 -0.09679857 0.14652656 -0.11886609 0.048582267 -0.061960746 0.0312397
0.034676854 -0.029751007 0.01475317 -0.059051953 0.085400544 0.14872949 -0.06669478 -0.13543235
-0.114817604 -0.10670362 0.016607905 0.014673128 -0.080694966 0.07822125 0.008092016 -0.1468781
-0.1291533 0.1126216 -0.040168166 0.07133119 0.109003134 0.068187125 0.09712109 0.024223905
-0.09446829 -0.02314392 0.03261625 -0.09018905 -0.028133333 -0.084081724 -0.03818875 0.07231799
0.116379544 0.056556977 -0.051660914 0.012502919 0.014936548 0.065213546 0.081906006 0.14730272
0.005751476 0.033745486 0.041075148 0.12321685 -0.14055468 0.008869413 -0.08398062 0.02590514
-0.1463972 -0.07985061 -0.051025677 -0.056681134 0.1282668 0.04154384 -0.04518912 -0.032644022
0.038165476 0.023354135 0.05120391 0.13321081 0.005548797 0.025685685 -0.030744921 0.09758757
00000000: a795 03bd baba 963c 47cb f9bc e7a3 2abc
00000010: f828 01be 48b7 fb3d 76bc 9a3c 3580 27be
00000020: eb3a be3b 199f b03d 5923 bdbd f086 6b3d
00000030: c5d1 d63d 7ffb f93c 8fa8 473c fdfd e83d
00000040: ad2b edbc 6155 a3bc 190f ef3d 82f5 ab3c
00000050: 442b 703d 6b97 b13c 2a3c cf3d 1c19 ecbd
00000060: 8c84 51bc 80c7 a33a dfe2 223d 04dc f93c
00000070: 1a1b 1e3e 745d 9c3d 0875 7abd 5e1a 993d
00000080: fbc9 c8bd 9079 a2bb 4aaa 503d abf1 c7bd
00000090: 2671 0b3e bf58 8a3d 8d13 a0bc a804 863d
000000a0: 13cb b5bc 8038 323d 7bc9 dfbd ce7a 0a3e
000000b0: 540d b3bd f0ba 01be 5638 4f3d df60 3e3d
000000c0: f1d5 583c 5adc bd3c e61b ddbd 52cd afbc
000000d0: d88f b7bc 321b d53d d50e 743d 7a06 513c
000000e0: 6215 9fbd 93b5 a13d 8830 513d 828a 713d
000000f0: d411 b23c d2a6 c73d ca0f 3c3d 088c eabd
00000100: 7696 d53d 76cf 64bc 21ed f6bd 957f 013c
00000110: 2c51 75bc b829 b7bc 1c6d c9bd ac04 963d
00000120: e4f3 c73d 9a56 c9bd 4e9f 783a eefd 2bbb
00000130: aeba 073e 7e18 09bc 21ca c8bb 126a 39bd
00000140: dab3 babd a9cf d43d 112a de3d be7b eebd
00000150: 03d9 363e a763 65bd db99 c93d c673 b23d
00000160: 4b55 36bd 73da 093e d0c6 133e dc80 58ba
00000170: 6000 943c f415 223e f346 bcbd 4a78 d8bc
00000180: ef6d 253e 5d17 003e 4f66 a6bd 1fee babd
00000190: 0936 0f3d 87a8 a2bc bc06 aa3c 3420 db3d
000001a0: fdd5 a33c ae7a 8ebd e70a ef3d 71ac e33d
000001b0: 14f6 d2bd 2401 70bd be7f bb3d e55b ff3d
000001c0: 60a9 f33c 0e70 69bc 0887 96bc 07ae af3c
000001d0: 7767 05be b9f8 d53d 6d30 90bc d493 6c3d
000001e0: baa4 b6bc 8933 17be fb5d 513a dfbc 1f3b
000001f0: 4219 5bbd d27d c3bd 85bb 4a3d d1fc c6bd
00000200: 469e 0fbd 81c5 d23d 1676 8e3d 03ff dcbd
00000210: 711f e1bd 4a17 1a3e 45f1 a1bb c836 bb3b
00000220: 0e49 3cbd 8b70 5ebc 5eea f6bd f985 6bbd
00000230: c9fa 03be 1959 04be 0481 093a bae8 c2bd
00000240: 5c09 6bbb d71b c0bc b5a8 0e3e a325 64bd
00000250: 8003 b63d 027e 3e3d def1 823d 7b04 f63d
00000260: 9823 cdbc 20f1 193e 6be1 173e dc5e cf3c
00000270: 9b66 803d 7af5 38bc 5871 27bd fdd4 94bd
00000280: 4f85 be3d f80a ac3d 5030 3ebd f851 97bd
00000290: 6585 1d3e 1325 d5bd ac6e 153e dfd0 fc3c
000002a0: b088 51bd 0de1 97bd 96a6 7fbd 86df dbb9
000002b0: 7f74 343c 79e4 f63d 680f fdbc fb3e 873d
000002c0: e98f 08bc 2359 d23c 64e1 c4bd bfbc 9bbd
000002d0: cd11 c73c 50e2 633d 2664 c03c e18f 173e
000002e0: 7555 09be b95c febd 543e c6bd 0f0b 163e
000002f0: 1170 f3bd 33fe 463d 8dca 7dbd 66ea ff3c
00000300: 5109 0e3d 62b8 f3bc 48b7 713c 76e0 71bd
00000310: 7be6 ae3d 8b4c 183e 4697 88bd c7ae 0abe
00000320: 7e25 ebbd 6d87 dabd 4d0d 883c 8f67 703c
00000330: 6743 a5bd 7632 a03d 6094 043c 3667 16be
00000340: c340 04be 27a6 e63d 6087 24bd 1616 923d
00000350: 093d df3d b1a5 8b3d 6ce7 c63d 3671 c63c
00000360: 9778 c1bd 5198 bdbc 9e98 053d 09b5 b8bd
00000370: e077 e6bc 0a33 acbd cf6b 1cbd 741b 943d
00000380: 6658 ee3d 4aa8 673d 659a 53bd 0bd9 4c3c
00000390: 6cb8 743c ae8e 853d 56be a73d 86d6 163e
000003a0: e176 bc3b b538 0a3d 6a3e 283d 1e59 fc3d
000003b0: 91ed 0fbe 0451 113c 08fe abbd 0437 d43c
000003c0: 26e9 15be b788 a3bd 4d00 51bd 7a2a 68bd
000003d0: 5f58 033e e029 2a3d 3a18 39bd bdb5 05bd
000003e0: 6753 1c3d 2c51 bf3c 31bb 513d 6a68 083e
000003f0: afd2 b53b c96a d23c c6dc fbbc fedb c73d

policy_layer.bias f4 [8]
-0.03740665 -0.10923356 -0.071979016 -0.05819543 -0.0055728303 -0.082647525 -0.10868933 0.08526958
00000000: b737 19bd d8b5 dfbd bc69 93bd 555e 6ebd
00000010: 4a9c b6bb 1b43 a9bd 8398 debd d1a1 ae3d

value_layer.weight f4 [1, 64]
0.0025897562 0.033432204 -0.004426652 3.75947e-05 -0.085208185 0.03979057 -0.032490063 -0.016280463
-0.024636809 0.041947756 -0.07443231 -0.0315529 0.051783405 -0.026131246 -0.0270651 -0.04770752
0.005579953 -0.05722149 0.12032813 0.037893876 -0.067674026 0.06215809 0.046215326 0.115019895
0.034744006 0.11604565 -0.05603685 -0.092841096 -0.02778952 0.0025837845 0.098705105 0.076641984
-0.009961542 0.022595027 0.06282565 0.007178422 -0.050289605 0.022408787 -0.04449671 -0.047943078
-0.0048219734 0.06796247 -0.031211823 -0.030176979 0.055786926 -0.07927748 0.07360351 -0.024209537
-0.084800296 0.02435649 0.07620688 0.013431513 -0.04585297 -0.036961798 -0.09153651 -0.07491772
-0.055642344 -0.0053775883 0.016446786 0.010090749 0.038407695 0.06811516 -0.098799646 -0.06932828
00000000: e6b8 293b 35f0 083d 730d 91bb 00af 1d38
00000010: a181 aebd 70fb 223d 4d14 05bd 9b5e 85bc
00000020: 22d3 c9bc 69d1 2b3d f86f 98bd 9d3d 01bd
00000030: d61a 543d 3211 d6bc a1b7 ddbc f668 43bd
00000040: 0ad8 b63b 1561 6abd 986e f63d 9c36 1b3d
00000050: ae98 8abd 7b99 7e3d 484c 3d3d 8d8f eb3d
00000060: bb4f 0e3d 57a9 ed3d e586 65bd 7923 bebd
00000070: d9a6 e3bc b654 293b e725 ca3d 79f6 9c3d
00000080: bc35 23bc 3519 b93c bcaa 803d f838 eb3b
00000090: 79fc 4dbd a292 b73c 2f42 36bd f65f 44bd
000000a0: a501 9ebb e82f 8b3d f0af ffbc b635 f7bc
000000b0: d580 643d 3b5c a2bd 70bd 963d 1453 c6bc
000000c0: c7ab adbd 4387 c73c 5a12 9c3d d90f 5c3c
000000d0: 53d0 3bbd 4165 17bd 7e77 bbbd 766e 99bd
000000e0: 3ae9 63bd 7b36 b0bb 69bb 863c ab53 253c
000000f0: 6351 1d3d f67f 8b3d 7857 cabd fcfb 8dbd

log_std_parameter f4 [8]
-2.5295913 -2.2457695 -2.4245143 -2.3152769 -2.8022807 -2.5964305 -2.9858196 -2.1518853
00000000: d3e4 21c0 b0ba 0fc0 3e2b 1bc0 7f2d 14c0
00000010: 9158 33c0 eb2b 26c0 ab17 3fc0 7db8 09c0

net_container.0.weight f4 [256, 45]
0.014494742 -0.21301599 0.0045021633 -0.075773634 -0.13351884 0.044603534 0.09710293 -0.011836909
0.01961253 -0.096195556 -0.04709239 0.095742054 0.0644977 -0.1745582 -0.036138218 -0.08244395
0.122409515 -0.09160945 -0.0041841664 -0.09946931 -0.1507194 0.11765863 0.14247741 -0.09811365
-0.07267804 -0.0017476644 -0.10460722 0.0061250017 0.15604703 -0.0970724 -0.19566509 0.021498768
0.076431364 -0.11849602 -0.09404911 0.1354416 -0.061053183 -0.07068672 -0.1462112 0.0870958
0.05751158 -0.006867197 0.12037667 0.03287179 0.08465723 0.05713958 -0.09651489 0.053365365
-0.14648311 0.05586226 -0.11459276 0.15345323 0.13431332 0.108446755 -0.043226752 -0.10593761
0.088970296 -0.031781048 -0.09993856 0.17906679 -0.01858161 -0.083726995 -0.16160013 -0.082284115
-0.0052633784 -0.0055877734 -0.020961078 -0.04405563 0.06927162 -0.062303685 0.021653036 0.07191408
-0.101745434 -0.12075634 0.24266364 -0.06659855 -0.006066434 -0.005613362 0.070151016 -0.01416827
0.107147425 -0.0017007834 0.04464906 0.050181285 0.11699079 -0.06901421 -0.06752909 -0.06292365
0.082431085 -0.08614195 0.15439063 0.14149281 -0.04842189 0.10957821 0.043349393 -0.11034482
0.0006242654 0.08754474 -0.1385204 0.03683866 -0.095205426 0.16166973 -0.032357216 -0.11137783
-0.045505244 -0.0764818 0.019821843 0.15953651 0.09794547 0.109283626 -0.11765639 -0.08981919
0.11413547 0.067527555 0.07586096 0.08136516 0.13335006 -0.034629624 0.11300315 0.034811027
-0.050617944 0.012767224 0.09599349 0.023931406 -0.060805764 -0.043556176 0.11268797 0.01186712
0.09521945 -0.052892745 0.12013123 -0.07611795 -0.07940637 -0.073969886 -0.09506071 -0.15348803
-0.019399935 0.06536379 0.041123312 0.17782679 0.005181737 0.02961849 0.011626026 -0.21644247
-0.085462436 -0.13379562 0.14273022 0.14068699 -0.0053114416 -0.16988829 0.047428712 0.044811964
0.15841796 -0.14604148 -0.038554646 0.050239995 0.09790327 -0.01502594 0.0916588 -0.12364283
0.012138337 0.013925498 -0.030957416 0.045135356 0.055065114 0.12728207 -0.15399738 -0.05585726
0.08998689 0.1224877 0.09719437 0.0963659 0.049457245 -0.07983778 0.014304 0.18950222
-0.026326535 -0.009078532 -0.09739574 -0.07643695 -0.05449565 0.055971332 0.011492292 0.069801174
-0.18597002 -0.04370241 0.0520395 -0.034864243 0.043747168 0.118088886 0.031017857 -0.105023034
0.03402684 0.18295936 -0.056571677 -0.008395536 0.11532715 0.023307642 0.030455332 -0.12948087
0.1521171 -0.0054219686 -0.024364477 0.011160854 -0.11601032 0.11142562 -0.063878864 -0.0555745
0.0016870274 -0.030717244 -0.061354987 0.007843235 -0.07035727 0.16970147 -0.07102264 0.10085603
0.08976806 0.1007412 -0.11861229 0.13691337 -0.036388513 0.031947494 0.16101485 -0.14879204
-0.006343033 -0.08757282 -0.14008978 -0.045331977 -0.0070209824 -0.099582255 0.05591231 0.11086385
0.13617733 0.019181877 -0.053615615 -0.06230483 -0.102463126 -0.11380332 0.03400331 -0.036131855
-0.08488954 0.062523976 -0.03065369 0.16483712 0.03704022 0.020756079 -0.09675693 -0.005748002
-0.002450572 -0.06307429 0.11366335 0.14445454 0.12185665 0.045434717 0.014843656 -0.18099761
00000000: 5b7b 6d3c dd20 5abe e286 933b 352f 9bbd
00000010: 2ab9 08be 32b2 363d e7dd c63d 98ef 41bc
00000020: 75aa a03c 2d02 c5bd f3e3 40bd 6914 c43d
00000030: 5f17 843d 63bf 32be ab05 14bd 60d8 a8bd
00000040: d7b1 fa3d bc9d bbbd 551b 89bb 91b6 cbbd
00000050: 3056 1abe 02f7 f03d 99e5 113e cfef c8bd
00000060: 39d8 94bd e311 e5ba 4f3c d6bd 3db4 c83b
00000070: cbca 1f3e e5cd c6bd 6e5c 48be 2f1e b03c
00000080: 0c88 9c3d 0bae f2bd d29c c0bd 34b1 0a3e
00000090: e712 7abd 33c4 90bd 64b8 15be 485f b23d
000000a0: 4391 6b3d 3906 e1bb 0b88 f63d 92a4 063d
000000b0: c560 ad3d 310b 6a3d 99a9 c5bd a495 5a3d
000000c0: abff 15be d3cf 643d 9caf eabd d822 1d3e
000000d0: 6e89 093e 5519 de3d 890e 31bd d1f5 d8bd
000000e0: 0f36 b63d d82c 02bd 96ac ccbd 495d 373e
000000f0: 7638 98bc 0f79 abbd 817a 25be 9384 a8bd
00000100: 6b78 acbb a419 b7bb 91b6 abbc ad73 34bd
00000110: 47de 8d3d 2632 7fbd b561 b13c b047 933d
00000120: e95f d0bd 1a4f f7bd d17c 783e d264 88bd
00000130: f0c8 c6bb 4bf0 b7bb 56ab 8f3d 0822 68bc
00000140: 1c70 db3d d2ec deba efe1 363d e48a 4d3d
00000150: de98 ef3d 5257 8dbd b14c 8abd 1dde 80bd
00000160: a1d1 a83d 316b b0bd 9418 1e3e 7ee3 103e
00000170: 0856 46bd 8a6a e03d 228f 313d 77fc e1bd
00000180: bea5 233a a84a b33d 4bd8 0dbe 22e4 163d
00000190: 10fb c2bd c08c 253e 0089 04bd 0f1a e4bd
000001a0: b563 3abd 7da2 9cbd 6b61 a23c 8a5d 233e
000001b0: a297 c83d 18d0 df3d d5f5 f0bd 20f3 b7bd
000001c0: dbbf e93d e34b 8a3d fe5c 9b3d c7a2 a63d
000001d0: eb8c 083e cbd7 0dbd 326e e73d 0296 0e3d
000001e0: c354 4fbd 9e2d 513c 3c98 c43d cc0b c43c
000001f0: 770f 79bd f667 32bd f3c8 e63d 4f6e 423c
00000200: 6a02 c33d 10a6 58bd 5d07 f63d bae3 9bbd
00000210: cf9f a2bd 867d 97bd 31af c2bd f72b 1dbe
00000220: 9dec 9ebc 73dd 853d eb70 283d 3a18 363e
00000230: 8fcb a93b 7aa2 f23c 167b 3e3c 18a3 5dbe
00000240: ee06 afbd b801 09be df27 123e 4010 103e
00000250: 9a0b aebb 32f7 2dbe 9c44 423d c08c 373d
00000260: 5138 223e e68b 15be 7aeb 1dbd 74c8 4d3d
00000270: 8281 c83d 5c2f 76bc 9cb7 bb3d 7438 fdbd
00000280: e0df 463c c627 643c 689a fdbc dadf 383d
00000290: f58b 613d 3b56 023e 7db1 1dbe 95ca 64bd
000002a0: 0c4b b83d d5da fa3d d80d c73d 7c5b c53d
000002b0: ae93 4a3d fd81 a3bd 535b 6a3c df0c 423e
000002c0: bfaa d7bc 20be 14bc 6b77 c7bd fa8a 9cbd
000002d0: d536 5fbd 3242 653d 2b4a 3c3c ebf3 8e3d
000002e0: ed6e 3ebe 4c01 33bd 5f27 553d cfcd 0ebd
000002f0: 3b30 333d 96d8 f13d 2919 fe3c 5116 d7bd
00000300: ba5f 0b3d b359 3b3e b4b7 67bd 6e8d 09bc
00000310: a430 ec3d abef be3c 767d f93c a296 04be
00000320: 96c4 1b3e c5aa b1bb 0398 c7bc 04dc 363c
00000330: d296 edbd 1e33 e43d ecd2 82bd 16a2 63bd
00000340: 3f1f dd3a bba2 fbbc 5e4f 7bbd e980 003c
00000350: 7917 90bd 39c6 2d3e 5174 91bd 9b8d ce3d
00000360: 51d8 b73d 6751 ce3d 00eb f2bd 0533 0c3e
00000370: 1f0c 15bd 60db 023d 14e1 243e f15c 18be
00000380: 38d9 cfbb 6159 b3bd b273 0fbe 06ae 39bd
00000390: 4510 e6bb c8f1 cbbd 4e04 653d 960c e33d
000003a0: 1272 0b3e 5023 9d3c 0c9c 5bbd 5933 7fbd
000003b0: 30d8 d1bd b711 e9bd 0e47 0b3d fffe 13bd
000003c0: 91da adbd 920c 803d 731d fbbc 10cb 283e
000003d0: 7cb7 173d a708 aa3c 7f28 c6bd bc59 bcbb
000003e0: c799 20bb 182d 81bd 55c8 e83d e4eb 133e
000003f0: fb8f f93d c119 3a3d ce32 733c 7057 39be
