CubeStackTask/logs/skrl/object_red_stack/2025-10-09_17-18-16_ppo_torch/checkpoints/agent_7200.pt (torch, 660085 bytes, 46 tensors)

log_std_parameter f4 [8]
00000000: 2189 eebf dc88 d7bf 9bd2 f0bf cf09 d9bf
00000010: 7ed9 05c0 5935 00c0 424e 11c0 7fba cbbf
-1.8635598 -1.6838641 -1.8814272 -1.6956118 -2.0913997 -2.003256 -2.2704015 -1.5916289

net_container.0.weight f4 [256, 45]
00000000: c35d 5c3c 33f0 54be 8ca4 d63b ebd2 98bd
00000010: dde2 04be b0bb 373d a745 ca3d 0b27 0abc
00000020: 6319 9f3c 1585 bebd 0706 41bd 48e2 cb3d
00000030: 7a39 883d 9d2a 31be f701 0bbd 6e5c 9ebd
00000040: 93be fd3d 1cb0 c9bd 8d0f 9e3a 2121 cabd
00000050: 98aa 1cbe bb4a f43d 74f9 123e 9e96 d0bd
00000060: b3eb 97bd f573 5fbb b7fd d4bd 14cd dc3b
00000070: d112 1f3e ac64 d1bd 4696 3dbe 5876 8e3c
00000080: e1dc 8d3d c358 ebbd c669 c4bd 72cb 093e
00000090: 5ccd 86bd 1313 88bd aa2f 1bbe 63fa 9b3d
000000a0: 90d6 5b3d 2c82 0abc f838 fa3d 3c9c 1b3d
000000b0: 0854 aa3d 086d 413d 9ff0 cebd fe44 463d
000000c0: 10e5 17be 905d 533d bd7e f4bd 3497 143e
000000d0: fd30 fd3d 0c94 d13d 0238 3cbd 8b4a e2bd
000000e0: 21c9 b03d 14ce 19bd d94f d7bd 0eee 2b3e
000000f0: e967 80bc 0f6a b2bd 9a8f 3dbe e3f2 c3bd
00000100: 5a3b d8bb 84b9 b23b e000 9abc bb98 dbbc
00000110: e5eb 9e3d d569 92bd a407 b13c 3a99 b13d
00000120: 1172 b9bd 67c0 fabd 16ba 693e ffe1 a0bd
00000130: 5bc4 623c 3a5f b0bc 6302 813d 6a8f e1bc
00000140: fcf9 d73d 6e15 21ba 9d1a 333d a3c6 273d
00000150: ff76 e83d 4900 87bd 5951 93bd 11e3 7ebd
00000160: ddc5 ae3d 2f7a a9bd 2793 193e de1c 0a3e
00000170: e396 59bd 9c6f d23d 675b 183d 73e3 ebbd
00000180: a8aa 94bb af7d b93d e853 12be 31de 083d
00000190: 179e cdbd 8baf 213e c78b 23bd 621f eebd
000001a0: f02b 4cbd 28f1 a5bd 197e 3e3c 8359 1d3e
000001b0: f5e6 b23d 11b1 e43d 2c10 fcbd 9381 b8bd
000001c0: e0fb b53d f69e 763d f9d2 9c3d 4798 a23d
000001d0: c02d 023e 2180 30bd 0223 e03d 6abe 053d
000001e0: 50f9 89bd f444 603c afa8 ab3d 1534 1c3d
000001f0: 57c9 52bd 0dd3 3fbd 5a4a ec3d 6bd9 0e3c
00000200: e86a b43d 3bc4 6fbd 54bc fb3d 8f3e adbd
00000210: cdb4 a8bd 2ecc a0bd 89e6 b1bd 50e9 19be
00000220: 57ce c0bc 41c7 833d 0d4a 223d d605 303e
00000230: aaac ca3a 9df8 f23c 1322 503c fd93 5ebe
00000240: 9153 adbd 64c9 0cbe 620c 143e 372f 0b3e
00000250: 75e6 eabb a1f2 2abe 8d6b 373d 5949 473d
00000260: 2225 2e3e 72ab 16be 1e4e 21bd a414 3f3d
00000270: 5e76 b53d 0a89 12bd cc1c be3d a23c fabd
00000280: f1ba 953c 12c6 9f3c a22d d8bc 289b 393d
00000290: b492 473d 36a4 023e 3691 21be f97c 66bd
000002a0: 01f5 a83d f5ef f53d 41b2 c73d d330 c03d
000002b0: cda8 5d3d 37e2 b9bd 0d20 d93b 1758 403e
000002c0: 571c f0bc 1881 37bc ece3 ccbd 6669 a4bd
000002d0: 93db 4bbd ec7f 733d c712 833c 8bdf 973d
000002e0: 7a68 36be e79c 20bd f86e 773d 2319 01bd
000002f0: d910 463d f7bb f83d bb26 153d 2eb0 cebd
00000300: 1c55 303d 17ee 403e 4f15 44bd f9b1 62bb
00000310: 9cc8 f03d 9177 dd3c a25c 883c 5620 1cbe
00000320: 911f 1d3e 2242 30bc d3fd d7bc 0e62 4e3c
00000330: d4e6 eabd 4410 d03d 437b 39bd 4a13 63bd
00000340: 7421 e5b8 c3e9 65bd b602 2fbd 815b 703b
00000350: 4d16 6abd aced 163e 22a9 91bd 6516 ca3d
00000360: e747 b53d 970b d33d fb51 debd fd1d 0c3e
00000370: 58be 19bd c21d 1b3d 8db8 263e d34e 13be
00000380: daab 0cbc 3e07 b9bd f355 0abe 52d7 2fbd
00000390: b1ce c9bb 7a22 c8bd e406 5f3d aafe e23d
000003a0: 8140 103e 2d35 8d3c 8079 55bd 9f76 81bd
000003b0: 878c cdbd 5ece e6bd f152 0c3d 9ae8 11bd
000003c0: 3332 b1bd f7cc 7c3d e7c0 11bd 4f42 313e
000003d0: fe80 1b3d 142b 953c b9a3 c5bd 5821 44bb
000003e0: 8ea7 0f39 6ff2 89bd 5cdb e23d 5400 123e
000003f0: 3a93 fe3d 7ada 373d 920d 1c3d 2ac9 34be
0.013450089 -0.20794754 0.0065503772 -0.074621044 -0.12977166 0.044856727 0.098765664 -0.00843216
0.019421285 -0.09302727 -0.04712489 0.09955269 0.06651588 -0.17301412 -0.03393742 -0.07732473
0.12389865 -0.09848043 0.0012059078 -0.098696 -0.15299451 0.11928316 0.14352971 -0.10184978
-0.07418003 -0.0034096215 -0.10399955 0.0067383144 0.15534522 -0.1022428 -0.18514356 0.017390415
0.06926895 -0.11491539 -0.09590487 0.13456514 -0.06582138 -0.06644263 -0.15154901 0.07616117
0.05367142 -0.008453887 0.12217897 0.037990794 0.08316809 0.04722312 -0.101044886 0.04840564
-0.14833474 0.0516029 -0.11938236 0.14510804 0.123628594 0.10233316 -0.04595185 -0.11049374
0.08632112 -0.037550047 -0.105132766 0.1679003 -0.015674548 -0.08711635 -0.18511811 -0.09567811
-0.006598872 0.005454244 -0.018799245 -0.026806226 0.07759837 -0.07149092 0.021610089 0.08671804
-0.090549596 -0.12243729 0.22824892 -0.07855605 0.01384076 -0.021529783 0.06299283 -0.027534205
0.105457276 -0.0006144856 0.043726552 0.04096092 0.11350822 -0.06591851 -0.0719325 -0.062228266
0.08533833 -0.08275258 0.1499754 0.13487574 -0.053122412 0.10275194 0.037196543 -0.11517992
-0.0045369454 0.09057175 -0.1428982 0.033415023 -0.10039919 0.1578962 -0.039928224 -0.116270795
-0.04984659 -0.081026375 0.011626744 0.15366177 0.08735458 0.11166585 -0.12307772 -0.09009089
0.08885932 0.06021019 0.07657427 0.07939201 0.12712765 -0.043090943 0.10944177 0.032652296
-0.06737006 0.013688315 0.08381783 0.038135607 -0.051461544 -0.046832133 0.11537619 0.008718829
0.08809453 -0.05853675 0.1229178 -0.08459198 -0.0823761 -0.07851444 -0.08686549 -0.15030408
-0.02353589 0.06434489 0.0396214 0.17189726 0.0015462835 0.029659564 0.012703436 -0.2173614
-0.08463205 -0.137487 0.14457849 0.1359223 -0.007168586 -0.16694118 0.044780303 0.048653934
0.17006353 -0.14713839 -0.03938114 0.046650544 0.088604674 -0.035775222 0.09282836 -0.12218596
0.018277617 0.019503627 -0.026388947 0.045313984 0.04872389 0.12757954 -0.1577805 -0.056271527
0.08249856 0.12008659 0.09750796 0.093843125 0.05411606 -0.0907635 0.006626135 0.18783604
-0.029310388 -0.011200212 -0.1000441 -0.08027916 -0.04976995 0.059448168 0.016000165 0.07415684
-0.17813292 -0.039212134 0.060408562 -0.031518113 0.04835591 0.121452264 0.03641389 -0.10092197
0.043049917 0.18840824 -0.047871884 -0.0034590943 0.11757013 0.027034553 0.016645733 -0.1524671
0.15344073 -0.010757955 -0.02636615 0.01259662 -0.11469808 0.101593524 -0.045283567 -0.055438317
-0.00010925802 -0.056131136 -0.042727195 0.0036675634 -0.057150174 0.14739102 -0.07112338 0.09867553
0.08851605 0.10304945 -0.1085548 0.13683315 -0.03753504 0.037870176 0.16281338 -0.14385538
-0.0085858945 -0.090345845 -0.1350935 -0.042929955 -0.0061586727 -0.09772201 0.05444993 0.110837296
0.14087106 0.01723727 -0.052117825 -0.06321453 -0.10036569 -0.1126983 0.034258787 -0.035622217
-0.08652153 0.061718907 -0.035584357 0.17310451 0.037964813 0.018209018 -0.09650368 -0.00299271
0.00013699962 -0.06735694 0.11076996 0.14257938 0.12430425 0.04488609 0.03809888 -0.17654863

net_container.0.bias f4 [256]
00000000: d26d 543e 21f1 02be 6ba2 b63c 763b da3b
00000010: 783c 323d 614a 5a3d 7b02 183e 2639 ff3d
00000020: acd9 cb3d 6971 8bbc 22ac 223d adf5 3cbd
00000030: b7b2 753d b00c 4cbd ad1f 133e ef5a e7bd
00000040: bfe9 d83d a483 fcbd 95b3 f33d 6087 693d
00000050: 3ca3 ef3c 3385 453d d587 abbd b6cf 233e
00000060: beae c23d 5322 543d 6cdb 75bd e4e6 52be
00000070: 8da7 0cbe fbfa cdbd 6817 a5bd 883c 97bc
00000080: 86af ff3d b5b0 c23d e3dc 9c3c a039 39be
00000090: 1ed1 da3d 35d4 0ebd c56a d13d 6314 dcbd
000000a0: 4c9a 32be baa5 223e 1088 adbd f729 70bd
000000b0: 1cc5 9f3c 74e5 93bd b89c 02bb 2bba efbd
000000c0: b939 d83d 8d58 6d3d 6621 90bd c9d3 f5bc
000000d0: c553 f6bd 2ddd 8fbd ce13 09be ec6c 75bd
000000e0: bad7 153e fd98 ad3b c63f 0e3e 6998 053e
000000f0: 35f4 a9bd 4950 cf3d 26e1 213e a054 cdbc
00000100: c939 643c e9e5 1c3e 4a4c a93d 386a 7abd
00000110: 3576 b33d e193 cc3d d821 e13d c6bb dcbd
00000120: fcb6 183e 1308 be3c 0568 ecbc e286 a93d
00000130: ff6f 093e 6d2b 03bd 333f 243e 2b85 943d
00000140: 5bb4 1bbe 0925 06be 4741 b63d 0bdf c03d
00000150: ad05 31bc 55fe 033e c3a0 c73d c561 013e
00000160: d610 61bd 5d36 013e 3b73 95bd b199 babd
00000170: b2d3 6a3d ae9b eebd 722c aabc 2d65 283d
00000180: 88f5 5a3d 7c7d 883c 5f15 22be 0c60 f13b
00000190: ade6 c83d 9485 973d ddde 39be 3127 0abc
000001a0: fbe5 e0bb c92c 843d 675e 28bb d3aa 80bd
000001b0: e83b 39bd 85d6 26bd 916b d13c 4551 b23d
000001c0: a9d0 d8bd 17db ccbd b6f0 d73d fc16 e23d
000001d0: 7a80 22be 47a3 3a3d c101 67bd bc86 6c3d
000001e0: 1cc3 77bd 6dd9 77bd 82f1 353e a032 39be
000001f0: 6f68 b03c 5eaa afbd 6e46 99bd ef7d 0d3e
00000200: 03ac dd3d 47d0 72be 79aa 123e b6d8 44bd
00000210: f07f 3fbe 9db2 14bd 642d cebd 69bc 5fbb
00000220: 91fc 5b3e 6c54 8b3d 4e24 ca3d 6242 1a3d
00000230: 37e0 053e 953f 33be 1ccb 0ebd 76e5 00be
00000240: 5746 8ebd 3e6a e23d c351 4fbd 812c f6bd
00000250: 60ae dabd b261 24be 77d0 87bd 13fd 953d
00000260: 6d5f 5ebd b3de da3c 9590 093e 648f a2bd
00000270: 96fc 7ebd a721 f1bd ff88 93bd 545a ecbc
00000280: 11cb c0bd 8372 c73d 477d e93d 3ea3 1d3d
00000290: 5bba 9d3d aa43 87bd 7824 edbd b7fa 013d
000002a0: 34fa 14be 37db 0fbe 0f0f e33d 9fae 55bd
000002b0: e11b 313e 733d 2fbe c5ce 243e c8e7 2c3e
000002c0: 7204 79bd 02bb 18be 8462 a9bd 9a8c 0e3e
000002d0: d3e7 f2bd 9fcb b33d ce90 b73d 6d51 92bd
000002e0: f05a fcbd a5b8 723d 1f0a 643d 0431 533d
000002f0: c895 5cbd eb08 babd b08d 15bc a1ba cabd
00000300: 9192 eebc e42c 6bbd 87e9 003e 9996 903d
00000310: 230e 04be 1a0c 1f3d f91b 15bd 966c 743d
00000320: ca1a 713b 966a 9a3d 6d46 763d 7240 ef3c
00000330: 32c4 033e c558 f1bc 5ee5 3e3d 1b24 04be
00000340: ee2e 02bd 9ccb 383e 3854 833b 89d7 bd3d
00000350: 9bfd 373e b26e c33d 74e1 08be b3d4 8c3d
00000360: cc1d e23d 5b16 bb3d 3110 1c3e 23fc e23d
00000370: b08c 393c b50a 7d3d e051 983c e52a 04be
00000380: d9fa f83d 339d dabd 2139 81bd 5b54 663d
00000390: edd4 aebd 0fa1 adbd 3115 423e 38f5 b83c
000003a0: afd8 02be 05cc 0d3e b61a db3d f462 cc3d
000003b0: e511 993b 98f8 363e c551 543d 9cab c13d
000003c0: e04e 4bbd c7cc 8abd 4d40 1c3e e70e 1a3c
000003d0: 99dd e93c 5942 aa3d ef37 34be 1d6b a13b
000003e0: c52e 66bb dccd 55bb 0453 f53d 2248 903b
000003f0: ce34 09be 1967 6b3c fda5 55be 084b 0e3d
0.20745018 -0.12787296 0.022294244 0.0066599203 0.0435147 0.05329359 0.14844696 0.12462072
0.09953627 -0.017021852 0.03971494 -0.046132732 0.05998489 -0.049816787 0.14367552 -0.11296641
0.105914585 -0.12329796 0.11899487 0.05701387 0.02925264 0.04822273 -0.08375517 0.15997204
0.09505986 0.051790547 -0.06002371 -0.2059589 -0.1373579 -0.10057636 -0.08061105 -0.01846148
0.1248465 0.095063604 0.019148296 -0.18088388 0.10684417 -0.034870345 0.10225443 -0.10746076
-0.17441672 0.15883532 -0.084732175 -0.05863377 0.019503169 -0.07221499 -0.0019929837 -0.117054306
0.10557885 0.057945777 -0.0703762 -0.030008214 -0.120276965 -0.07024608 -0.13386461 -0.05991833
0.14633074 0.0052977786 0.13891515 0.13046421 -0.08298532 0.10122735 0.15808544 -0.025064766
0.013929793 0.15322079 0.08266504 -0.061136454 0.087627806 0.09989143 0.10992783 -0.107780024
0.14913553 0.02319721 -0.028858194 0.0827768 0.1342163 -0.032023836 0.16039734 0.07251962
-0.15205519 -0.13100065 0.088991694 0.09417542 -0.010804576 0.12889989 0.0974746 0.12634952
-0.054947697 0.12618394 -0.07297369 -0.091113456 0.057330795 -0.11650787 -0.020773146 0.041112114
0.053456813 0.016661398 -0.15828465 0.007366186 0.09809623 0.07398525 -0.18151422 -0.0084321955
-0.0068633533 0.064538546 -0.0025691034 -0.06282582 -0.045223147 -0.040731926 0.025563987 0.08706907
-0.10586674 -0.100027256 0.10543959 0.1103954 -0.15869322 0.04556587 -0.056398157 0.05774568
-0.060488805 -0.060510088 0.17767909 -0.18085718 0.021534173 -0.08577417 -0.074841365 0.13817571
0.10823824 -0.23712264 0.14322843 -0.048058234 -0.18701148 -0.03630315 -0.10067251 -0.00341394
0.21483065 0.068032116 0.09870206 0.037660964 0.13073812 -0.17504723 -0.03486167 -0.12587532
-0.0694701 0.1105542 -0.050615083 -0.12020207 -0.10677791 -0.16052893 -0.066315584 0.07323661
-0.054290224 0.02671752 0.1343406 -0.07937506 -0.062252603 -0.11773997 -0.07203864 -0.028851666
-0.09413732 0.09738638 0.11400848 0.038485758 0.0770156 -0.06604703 -0.115792215 0.03173324
-0.1454857 -0.14048468 0.110868566 -0.052168485 0.17295791 -0.17113285 0.16094501 0.16885293
-0.060795255 -0.14915088 -0.082707435 0.13920823 -0.11860623 0.08779072 0.08963166 -0.07144437
-0.123220325 0.059258122 0.055673715 0.051560417 -0.05385378 -0.09083732 -0.009128019 -0.09898878
-0.029122623 -0.057415858 0.12589084 0.07059974 -0.12896018 0.0388299 -0.03640363 0.059673868
0.003678965 0.07539861 0.060125757 0.029205535 0.12867811 -0.029461274 0.04660546 -0.12904398
-0.031783037 0.18046421 0.0040078424 0.09269626 0.17967837 0.09542598 -0.13367254 0.06876507
0.110408396 0.09135123 0.15240552 0.110832475 0.011325046 0.06177779 0.018593729 -0.12906988
0.121572204 -0.106745146 -0.063097246 0.05623279 -0.08536706 -0.08477985 0.18953396 0.022577867
-0.1277797 0.13847359 0.10698454 0.09979811 0.0046713226 0.17868268 0.051835794 0.0945656
-0.049635768 -0.067773394 0.15258904 0.009402967 0.028548049 0.08313436 -0.17599462 0.004926099
-0.0035123092 -0.0032623922 0.119787246 0.00440313 -0.1339905 0.014367842 -0.20864101 0.034739524

net_container.2.weight f4 [128, 256]
00000000: cb13 653d 49cd ccbb c86b 2e3b 2907 cdbc
00000010: 33b7 e83c 9ac0 06bd 9ea1 be3c afaa 61bd
00000020: 1ceb edbc b9af 613d 77b8 4cbd 73ed ccbc
00000030: f6c9 0e3d 908b 8abd cda2 e13c 407d c7bc
00000040: 3a99 f8bc c2d8 843c 5d7c 97ba 1e04 e13c
00000050: 9c78 54bd a9f5 eb3b eca1 24bd 6f86 d7bd
00000060: 9ebf c8bc 3890 cf3c 3ef8 61bd 8288 973d
00000070: 171c a83c aa85 f63c e71b 6f3b 15ad 1b3d
00000080: c211 b3bd 8526 9bbd ce5b 95bd 5d33 7d3d
00000090: 068d 54bc 5d1b 913d 869d f63c b9ab 233d
000000a0: 2543 633d 28de f13c 7a12 9fbb c3c9 34bd
000000b0: d9d6 333d 20aa 0f3d c909 ffbc 7e29 b53d
000000c0: 8ce3 103d 82c0 943c bf60 843d 15b2 fa3c
000000d0: 33a4 2b3d 673b 1abd db12 b53b f9a0 ac3c
000000e0: 7c7e b2bd 6c31 92bd 5649 d13c df94 a3b9
000000f0: 1ad6 353d 6e47 f83b 9581 973c d7d9 48bc
00000100: b5f8 6fbd bf74 38bd 2f57 52bd 7aa8 90bd
00000110: b81e f6bc 3dfd a33c 0f29 16bc 8d72 a9bc
00000120: bb0d 0d3d fcff 04bd 986e 623a c271 6f3d
00000130: 4ef3 cabc 4b4f 10bd 8837 ec3b cb4e 543d
00000140: b674 923d 8e7b 883d 61e9 1dbd 2c4f 273d
00000150: a0e7 1eba e123 1e3d 82ed 15bd 26fd e7bd
00000160: 0581 233d 59ae 19bd 8866 19bd c88f 91bc
00000170: 44b8 01bd a346 193d 3e15 ffbc 3dfd 23bd
00000180: 6e9b 3fbc 7e0a 42bd f7b0 933d ea1b dbbb
00000190: 44da 3fbc 3b0d 1ebd 1618 38bc 6ab1 ffbb
000001a0: 62ee 073d 51b4 68bd 66d2 a5bc 10eb c53c
000001b0: f4e5 9e3d e86f 993d 62c6 0fbc 7911 7fbd
000001c0: 642d 8e3d 7f3f 1f3c 940e 60bd 2035 94bd
000001d0: a798 f33b 7dba 76bd 4a3a 67bc 273e 193d
000001e0: 38e2 10bd 79b5 003d a53d 11bd 71c8 783d
000001f0: 5ec2 2a3d 240a 853d a812 443c 4430 91bd
00000200: c1f0 773c 5a6c 2e3d 753c a8bd 36eb f3bc
00000210: 72e5 4b3d c9fb 1e3d 8d6c 803d 42f4 b63c
00000220: 117c 633d ccc1 9dbc 64f4 943b 9226 b73d
00000230: e790 0cbd fab2 993c 6761 85bd 455b 3b3d
00000240: 2d3c 443b 4bb6 75bd fd05 5a3c a3e2 673d
00000250: 8624 22bd 8f91 1cbd 8978 af3d a25a 71bd
00000260: f320 63bd 9a3f 213d 12b5 b5bd 486c 983d
00000270: a7a2 7bbc 0c94 a33c 7e6f 123d 7f1e 91bd
00000280: 801e 7d3d 95b9 acbc af40 b2bd 3e51 9dbd
00000290: dfcb a63c 8b55 72bc 37b0 91bd ecb5 56bd
000002a0: f044 5a3d 764b 4d3d 4474 363a 5299 943d
000002b0: a6ee 1dbd 948d ef3b e519 143d b266 ae39
000002c0: 15a5 86bc 2b41 a63b 9200 533d 6cc7 85bd
000002d0: 6e73 34bd d591 c3bd 87e2 a53c 830f 8dbb
000002e0: dc8e 54bc 5375 303d b0a2 0ebd 69a0 9f3c
000002f0: 2d3a 01bd f2e8 60bb f585 02bd fa1f 9f3d
00000300: 83c6 d9bb ca7a 19bd dc11 21bd 7d52 f1bc
00000310: 4658 7cbd 6bca 2a3d 1c11 823d 0c26 55bd
00000320: 208e 3bbc 14fc 883c 3874 89bd 4ed8 72bd
00000330: 1b1e 4b3c 1d12 fd3a 972b a63d 17bf 23bd
00000340: 9be5 dabc 3fd2 c0bd d698 97bb f67a 6dbd
00000350: ab1f 9bbd dd43 26bd be8b 223d 1d7d 55bd
00000360: a927 9c3b 9911 cabc 050d 55bd 2a15 84bc
00000370: f3eb 7e3c c553 c53c b8a5 91bc 7724 933b
00000380: 26ff 74bd ee1a 683d 8916 163d 3a3e 843d
00000390: 920a 613d 6595 15bd 8385 413c 57ea a03d
000003a0: 5c25 3bbd 5d03 ffbc f3ab adbd beb9 4fbd
000003b0: 5f30 503d 997a 59bd 9bd2 d3bc dfa8 8ebb
000003c0: a0c0 a9bc 3607 bb3c 6883 b23c 26ae 3abc
000003d0: 73ba 72bd 57e2 273d fe89 933d da28 2dba
000003e0: 2d7b 913c 12ba 86bc bc1b a4bd 6b55 71bd
000003f0: 2866 4ebc 2694 e1bc 0ddd 4b3d 6f9c c3bb
0.05592708 -0.006250058 0.0026614536 -0.025027828 0.028407669 -0.032898523 0.023270424 -0.055094417
-0.029042773 0.055099223 -0.049980607 -0.025015568 0.034860574 -0.06764901 0.02754345 -0.024351716
-0.030346502 0.01621664 -0.0011557449 0.027467784 -0.051872835 0.007200916 -0.040193483 -0.10523688
-0.024505433 0.025337324 -0.055168383 0.07399084 0.020521207 0.030093033 0.0036485137 0.03800686
-0.087436214 -0.075757064 -0.07292901 0.061816562 -0.012973076 0.07085297 0.03010441 0.03995869
0.055483956 0.029524878 -0.0048544975 -0.044137727 0.043906067 0.035074353 -0.031132596 0.08845805
0.035373256 0.018158201 0.06463765 0.030602494 0.04190464 -0.037654307 0.0055259294 0.021072851
-0.08715531 -0.07138333 0.025547665 -0.000312007 0.044393636 0.0075768745 0.018494407 -0.012258968
-0.058586795 -0.045033213 -0.051352676 -0.07063384 -0.030043945 0.020018214 -0.009165063 -0.020684505
0.034436923 -0.03247069 0.00086376956 0.058458097 -0.02477422 -0.03523187 0.0072087683 0.051832955
0.07151167 0.06664191 -0.038552646 0.04084699 -0.00060617365 0.038608436 -0.03660346 -0.11327581
0.039917964 -0.037519787 -0.037451297 -0.017768756 -0.03166987 0.03742088 -0.031138059 -0.04003643
-0.011694772 -0.047373287 0.07211488 -0.006686677 -0.011709753 -0.038586836 -0.011236211 -0.007803132
0.033186324 -0.056812588 -0.020241927 0.024159938 0.07758704 0.074920475 -0.0087753255 -0.062272523
0.06942251 0.0097197285 -0.054701403 -0.07236695 0.007433969 -0.060236443 -0.014113018 0.03741279
-0.03537199 0.031423066 -0.03545918 0.06073803 0.04168927 0.06496075 0.011967339 -0.07089284
0.015133084 0.0425838 -0.08214656 -0.029775243 0.049779363 0.03881434 0.062707044 0.022333268
0.05553824 -0.019257449 0.004545735 0.089429036 -0.034317877 0.0187621 -0.06512719 0.04574134
0.0029943094 -0.0599883 0.013307092 0.056612622 -0.039585613 -0.038224753 0.08567912 -0.058924325
-0.055451345 0.039367296 -0.08872427 0.07442528 -0.015358604 0.019968055 0.03575086 -0.07085895
0.061796665 -0.021084586 -0.08703744 -0.07681511 0.020360885 -0.014790903 -0.071136884 -0.052419588
0.0532884 0.050120793 0.0006960074 0.07255806 -0.03855767 0.0073105786 0.036157507 0.0003326438
-0.01643614 0.0050736866 0.051514216 -0.06532177 -0.044055395 -0.095493 0.020249618 -0.0043048277
-0.012973513 0.04308064 -0.03482312 0.01948567 -0.03154962 -0.0034318534 -0.031866033 0.07769771
-0.006645979 -0.037470616 -0.039323673 -0.029458279 -0.06160762 0.041696947 0.063509196 -0.052038237
-0.011447459 0.016721763 -0.0671162 -0.059288315 0.012397314 0.0019307766 0.08113783 -0.03997716
-0.026720813 -0.09415101 -0.0046263738 -0.057978593 -0.075743996 -0.040592063 0.03968405 -0.05212127
0.00476547 -0.024666594 -0.05201437 -0.016123373 0.015559184 0.024087796 -0.017779216 0.004490431
-0.05981364 0.056666307 0.036642585 0.06457181 0.05494172 -0.036519427 0.011811617 0.07857197
-0.045689926 -0.031129533 -0.08480062 -0.050714247 0.05082738 -0.053095434 -0.02585726 -0.004353627
-0.020721734 0.022830587 0.021791175 -0.011394059 -0.059259843 0.04098734 0.07204054 -0.00066055136
0.01775893 -0.016446147 -0.080131024 -0.05891935 -0.012597598 -0.027536463 0.049771357 -0.005969576

net_container.2.bias f4 [128]
00000000: 72b2 8ebc 14df c0bd 5f09 a4bc 3638 bdbd
00000010: bade c8bd 8721 8d3c b985 813d bb2e 1cbd
00000020: db46 fe3c 0a1b a3bd 5e50 953d ddee 02bd
00000030: f13d a0bc c721 b43b 92d4 0ebd a210 603d
00000040: 1fe6 e5bd f5df 38bc 5476 7b3c bf75 d43c
00000050: f0a2 9b3d 7683 2e3c 34b8 f7ba 2df4 20bd
00000060: dfa2 253c 7cf4 bf3c 5941 813b d1b1 0abe
00000070: b738 bcbd 560e a8bd 1d0a afbd 6955 1abd
00000080: 24e5 7dbc 6f44 a4bc d98b 733d 5580 e73c
00000090: 10a7 9cbc e5b9 aebd f851 16bd 3a5a b4bb
000000a0: 83b8 01be 7562 0dbd 5af6 8bbd aab4 323d
000000b0: b8c4 513d aa65 163d 6f49 583d b531 973d
000000c0: e128 b13d b977 143d 2cf8 25bd d532 f7bd
000000d0: 5585 b43c 73a0 993d 2b38 c3bd 0675 4bbd
000000e0: f1a7 673d d467 c0bd 99d7 b43d d4e1 1e3d
000000f0: d48f f3bd d8d5 583d ab1b 90bc 750e 7abd
00000100: f31a 103d 5be5 a0bc 463e e03d 4870 71bd
00000110: 0fb7 6abc 0588 8cbc 15a6 b9bd 89c5 94bd
00000120: e0d1 dfbd e9bd 0f3d 7be0 3ebd cf7c 64bd
00000130: a7ad 8dbc bb3d dc3c 76bb 9dbd bc4d 053a
00000140: 357d 0dbc 3242 87bd 3409 ad3d cc8a db3b
00000150: 7240 6dbd dfcd 0b3c 85d6 c53d 9100 323d
00000160: 568e 903c b055 9c3c af2e f7bd e4b3 0a3d
00000170: d33a babd 7d89 023c 6435 88bd a21e 4e3d
00000180: 807c ba3b c4f7 733d e413 7bbd e007 bcbc
00000190: 6efe c7bd 09dd 3ebc bce5 963c 0a8f ac3d
000001a0: d9fc eebc 86fe 9e3b 142a 73bc 59ca 2ebd
000001b0: 6e61 c8bd bcb5 d3bc 7ff4 aa3d e25b 1a3d
000001c0: cb21 9cbd b912 13bc e318 c33c 8977 5b3d
000001d0: 904c 5e3d 71b3 07bd d72a 0ebe 72f5 ce3c
000001e0: 7ad5 793d 3b9b 9fbb 6ba3 6abd 9c4c 0dbd
000001f0: 59d5 773d 110f 1c3c ec8b c4bd 3c49 87bd
-0.017419074 -0.09417549 -0.020024 -0.09239237 -0.09808107 0.017227901 0.06324334 -0.038130503
0.031039646 -0.07964142 0.072907194 -0.03196608 -0.019560786 0.0054971906 -0.03487069 0.054703362
-0.11225533 -0.011283864 0.015348036 0.025935052 0.07599437 0.01065146 -0.0018899501 -0.039295364
0.010109632 0.023432009 0.0039445576 -0.13544394 -0.09190505 -0.08205859 -0.08546851 -0.03767911
-0.015496526 -0.020052163 0.05945954 0.028259436 -0.01912263 -0.0853155 -0.036699265 -0.00550392
-0.12668042 -0.034517724 -0.06834097 0.043629326 0.051212996 0.03671805 0.052804407 0.07382528
0.08650375 0.03624699 -0.04051988 -0.12070242 0.022036234 0.075013064 -0.095321976 -0.04967215
0.056556646 -0.09394804 0.088301845 0.038789585 -0.118926674 0.052938312 -0.017591318 -0.061048944
0.03518195 -0.019640615 0.10949378 -0.05894497 -0.014325871 -0.017154703 -0.09064881 -0.07264239
-0.10928702 0.03509322 -0.0466008 -0.05578309 -0.017294718 0.026884904 -0.07701771 0.00050851307
-0.008635809 -0.06604423 0.08449021 0.0066998955 -0.057922788 0.00853297 0.09660057 0.04345757
0.017645996 0.019083828 -0.12069451 0.033862963 -0.09093251 0.00796735 -0.066508085 0.050322182
0.005691111 0.05956246 -0.061298266 -0.022952974 -0.097653255 -0.011649379 0.018420093 0.0842572
-0.029173302 0.004852119 -0.014841575 -0.042673443 -0.09784208 -0.025843494 0.08347415 0.037685283
-0.07623633 -0.008976632 0.023815578 0.053580794 0.054272234 -0.033130113 -0.1388353 0.025263522
0.060994603 -0.0048708 -0.057284754 -0.03449689 0.0605062 0.0095250765 -0.095970005 -0.06605765

net_container.4.weight f4 [64, 128]
00000000: c741 6b3b f27d 9a3d 5ded 73bd f837 6bbc
00000010: 5d45 4c3c 851d 77bd ebc8 e23c 21f5 8a3d
00000020: 73ad 5dbc 13e5 38bd 52e7 76bd af09 463b
00000030: 712c b63d 2593 6fbd 90b3 c5bb f2f1 11bd
00000040: 676c d5bb 72ea e9bc 6df6 93bb 0827 6e3d
00000050: 230d c9bd cea5 d6bd c746 d03d c70e 82bd
00000060: 2a2b 16bc 45a2 973d 0bba ae3c 05b2 02bb
00000070: 0bff b33d 6631 363d b06d b1bc ad43 0b3d
00000080: bb80 403c f5bd 9abc 299f b1bd ba41 c1bd
00000090: c1f5 32bd b8fd afbb d57b 3c3d 14e0 0fbd
000000a0: 9214 23bc 73fb 15bc 7b00 4f3d ba1d efbb
000000b0: aedf 1bbc e7b0 ac3b 9cb9 a8bd 1e69 4f3d
000000c0: d092 45bd 4150 80bd b7ce a83d fa5f 893d
000000d0: 896a 823d c207 56bd 4d46 5c3d c883 dabb
000000e0: d63b 723d 1f6d 64bc 2ce0 a13c 64fe a63c
000000f0: 589f 9a3d 71a3 44bc 633c cebc 975d 4e3c
00000100: 670c 86bd 3526 6ebd 05cb 8dbd 092b 7abd
00000110: 30fe 973c 4d3c d93d ef0c 61bc 95cd d63d
00000120: 5007 a13d 32c7 8abc 2968 9abd a2ff ddbc
00000130: e11e 2abc 0d05 863c a6dd f83d fd4e 7fbd
00000140: 7ece 25bd 40bf 213c 3ec2 66bd b14a a5bd
00000150: 9805 673b 6e5c 943d 6e73 d9bd 1c39 4a3d
00000160: 1316 543d 6418 d7b8 79a1 373d b0cf c9bd
00000170: a124 563d 5118 1dbd 833d b0bd 4471 efbd
00000180: ccb8 4fbd 556f 903d b62f 383c 4e9e b53d
00000190: a19c 843d 4b10 ecbb d1c8 113d 10b2 13bc
000001a0: 0194 febb 3d00 ce3b ea5a 963d 3aa4 42bd
000001b0: 9dc8 15bd c043 a9bd 28a8 3ebc 6401 803d
000001c0: fdb3 66bd 14c4 5c3a 1fd2 d93c bfc8 103d
000001d0: c287 6abd a167 853d e615 9abc a637 aabd
000001e0: e58c 1f3d 583a c9bd c53f 863b 2a54 613d
000001f0: 7412 1ebd 7c56 693c 6964 e63d 6d4e 4cbc
00000200: 000e ec3d e39e 80bd 7212 4dbd 5881 623d
00000210: fbf6 a93d 8191 4cbd 2746 dcbc 06cf 88bd
00000220: 6b5c b3bd 2223 a5bd e6ee 663d 2c9b 54bd
00000230: 7339 a63b 6e41 ad3c ec81 c43d 27ec 95bd
00000240: 2941 bb3b 4a5f 84bd 5056 66bd 7821 243d
00000250: 1d9f 57bc 7d16 03bc a024 843d b9e5 5b3d
00000260: dd9f 873c 87fe 8abc 45d1 893c 8f45 3fbd
00000270: ff36 433d 86e5 90bd dc74 633d abf7 293d
00000280: 16ec 6c3d edc1 113c 2b5f 0a3c d5a8 d9bb
00000290: 1ef6 06bd 48d3 e9bc 9316 09bd 6b1c 67bd
000002a0: e7f6 d63c 4f97 e0bc 39d6 e2bd 2a36 113c
000002b0: 231a 0ebd 308d e83c 329f 9dbd ab2c c039
000002c0: cb66 babd a4a1 d9bd 35e6 b63c 20a8 873d
000002d0: fdbb edbd 1579 bd3c 37cc 9abd 22d0 7ebd
000002e0: 5806 6c3c 3f9d 8a3c 8b75 b1ba 1b28 4bbd
000002f0: bdf3 7a3d 02fc 533d 49d4 f13c c96b aabd
00000300: 31c4 f5bd 7ef0 bebd 151c 563d f10c 643d
00000310: ca8b 083d a206 983c 4917 94bd 3484 20bd
00000320: 9578 c33d d2ff d2bc a778 453d c6a3 813d
00000330: 8c47 ddb8 e0cd a9bd ae2b 9ebd bb91 e7bc
00000340: 7bff 223b 1ca0 8ebd 2a0b 1cbd 297c d1bc
00000350: d116 f0bb 6cff eb3c c8d5 e8bd 955a 6ebd
00000360: f175 8d3d 3db4 f4bd 831e a63c ab3c 83bd
00000370: 7cca 9dbb 4365 123b bd71 1a3d de5e c33c
00000380: 2684 493d 0f09 68bd 81de 273d e556 743c
00000390: 1fd3 a63d a347 78bd d449 1b3d 2ce3 423d
000003a0: 08d6 9a3c 60bb 1fbd 6eaf 58bd 56a5 873c
000003b0: 6a25 d53c 8655 a3bd ba3a 81bd 4cd4 e7bd
000003c0: 6402 43bc 218d ea3d 95e8 563d 04fd bf3b
000003d0: df14 c53d 8fec 92bd 350d ac3d b00c d93c
000003e0: ef12 d53b d05c bdbc 2891 383d 2834 443d
000003f0: 2273 243d d961 cdbc 136c de3c ba13 8c3d
0.003589736 0.075435534 -0.05955254 -0.014356606 0.012467709 -0.060330886 0.027683696 0.06785036
-0.013530123 -0.045140337 -0.060279198 0.0030218174 0.08895195 -0.058489937 -0.0060333684 -0.035631128
-0.0065131667 -0.028554175 -0.00451546 0.05814269 -0.09816959 -0.104808435 0.1016975 -0.06350475
-0.009165565 0.07403997 0.021328947 -0.0019942534 0.0878888 0.044480704 -0.021658748 0.034000088
0.011749442 -0.018889407 -0.086729355 -0.094363645 -0.0436914 -0.005370822 0.046016533 -0.035125807
-0.009953635 -0.009154188 0.050537568 -0.007297245 -0.009513779 0.005270112 -0.08238527 0.050637357
-0.048235714 -0.06265307 0.08242553 0.06707759 0.06367976 -0.052253492 0.05377798 -0.0066685416
0.059139095 -0.013942032 0.019760214 0.020384975 0.07549924 -0.012001858 -0.025175279 0.012595556
-0.06545334 -0.058141906 -0.069234885 -0.061076198 0.018553823 0.106072046 -0.013735994 0.104884304
0.07862723 -0.016940687 -0.07539398 -0.027099434 -0.010383339 0.01635983 0.12151651 -0.06233119
-0.04048013 0.009872258 -0.056337588 -0.08070887 0.0035251137 0.07244192 -0.106177196 0.04937087
0.051778864 -0.00010256542 0.044831727 -0.09854066 0.052281026 -0.038353268 -0.086054824 -0.116915256
-0.050713345 0.07052485 0.011241844 0.08868085 0.06475187 -0.0072040907 0.035591904 -0.009014621
-0.0077691083 0.0062866495 0.07341559 -0.0475199 -0.036568273 -0.082648754 -0.011636771 0.06250265
-0.056323994 0.0008421552 0.026589451 0.035347696 -0.057258375 0.06513906 -0.01880927 -0.08311395
0.038952727 -0.09825581 0.0040969574 0.055011906 -0.038591817 0.014241811 0.112496205 -0.01246987
0.11526108 -0.06280305 -0.05006642 0.055299133 0.08299061 -0.04994345 -0.02688892 -0.066801116
-0.08757862 -0.08063342 0.056380175 -0.051905796 0.0050727664 0.021149363 0.09595093 -0.07320433
0.005714555 -0.064634874 -0.056234658 0.04007098 -0.013160494 -0.008000967 0.06452298 0.053685877
0.016555721 -0.016967071 0.01682342 -0.046697196 0.04765987 -0.07075028 0.055531368 0.04149596
0.057842337 0.008896333 0.008445541 -0.006642441 -0.03294956 -0.02854313 -0.033468794 -0.056423586
0.02624078 -0.0274159 -0.11076016 0.008863011 -0.034692895 0.028387636 -0.0769638 0.00036654374
-0.091016375 -0.10626534 0.022326568 0.06623864 -0.116081215 0.023129025 -0.07558482 -0.06221021
0.014405809 0.016920684 -0.0013539059 -0.049598794 0.061267603 0.051754005 0.02952017 -0.0832134
-0.12000311 -0.09323214 0.052272875 0.055676404 0.03333644 0.01855785 -0.07231004 -0.03918858
0.095444836 -0.02575675 0.048210766 0.063300654 -0.00010551428 -0.08291221 -0.07723175 -0.028267732
0.0024871517 -0.06964132 -0.038096584 -0.0255719 -0.0073269387 0.028808318 -0.113689005 -0.058191855
0.06907261 -0.1194844 0.020278221 -0.06408056 -0.004815398 0.0022338189 0.037706126 0.023848947
0.049198292 -0.056649264 0.04098368 0.014913295 0.08145737 -0.060615193 0.037912205 0.04757993
0.018900886 -0.038997054 -0.052901678 0.01655833 0.026018817 -0.07975297 -0.06310029 -0.11319789
-0.011902425 0.114526995 0.0524679 0.0058590192 0.096231215 -0.07174026 0.084009565 0.026495308
0.006502501 -0.023115546 0.045060307 0.047901303 0.04014886 -0.025071071 0.027151143 0.068397

net_container.4.bias f4 [64]
00000000: ad32 bcbd e9f0 5cbd c8d2 973d 1472 e73b
00000010: efef 8bbd 4784 25bd 2cb9 debc eaa8 c4bd
00000020: 126a d5bd 381f ad3d ef46 963d 797a 94bc
00000030: 273f cc3c e9e1 86bd 5da3 45bd 1927 ba3d
00000040: 46f0 113c 1614 073d 3a60 9a3d dc3a ca3d
00000050: c7b9 c2bd 57bd a73b 1b93 d7bd 166a 893c
00000060: bf89 933d 9d7e 9ebd e32f 793c 0393 06bd
00000070: 94c7 babd 3472 2dbc d338 003c fdd3 713d
00000080: 407b 1abd 5979 20bd 0c36 483d cadb 783c
00000090: c006 e7bd fc34 373d a4a8 fcbb 914c 08bc
000000a0: b54f 343c 8760 b53c 88ee 32bc 4b79 31be
000000b0: dbc7 cabc a797 9bbb 6d5e 3fbd 367b a8bd
000000c0: 4b37 253d 71fd 083e 8cc5 cb3d 0f86 b8bb
000000d0: 5339 1bbd 8e70 edbd f11a e8bd 3e15 1ebd
000000e0: 4605 2e3c c6c0 183d 4171 38bd 43e0 043d
000000f0: b65d 7a3d bcd5 17bd 3c82 dabd cea7 70bd
-0.09189353 -0.053940687 0.0741325 0.0070631597 -0.06832873 -0.040409353 -0.027187906 -0.0960253
-0.10420622 0.0845322 0.07337748 -0.018124806 0.024932457 -0.06586058 -0.0482515 0.090894885
0.008907383 0.03297814 0.07537885 0.09874508 -0.095080905 0.0051190066 -0.10526105 0.016774219
0.07204007 -0.07738993 0.015209171 -0.032855045 -0.09120098 -0.01058631 0.007826048 0.05904006
-0.037715197 -0.039178226 0.048879668 0.015189121 -0.11280584 0.044728264 -0.007710533 -0.008319036
0.011005332 0.022140754 -0.010921128 -0.17331426 -0.024753502 -0.004748303 -0.04672091 -0.082266256
0.040335935 0.1337793 0.099497885 -0.0056312154 -0.037896466 -0.11593734 -0.11333264 -0.038594477
0.0106213745 0.037293218 -0.045029882 0.032440435 0.061124526 -0.037069067 -0.106693715 -0.05875378

policy_layer.weight f4 [8, 64]
00000000: 3fe8 11bd 43d8 d13c 64a9 1abd a34c 82bc
00000010: a4f6 03be 5e0c ef3d 45e0 0b3c 806a 11be
00000020: 303c 9b3c 611e b43d 5b9d b9bd 7e45 463d
00000030: 24b3 b53d 03f7 5e3c 90b8 e23c f7d0 dc3d
00000040: 6c17 1cbd 6e52 ebbc d963 e33d d6c7 853c
00000050: bb09 5e3d 32ad 853c 88a3 cf3d c98f eabd
00000060: 374e 4cbc 9e91 53bb 4a0a 0a3d 3eaa 1b3d
00000070: cdf1 0f3e 9942 923d fc60 8cbd 926e 853d
00000080: 5f16 ccbd 7a2a c9bb 4a44 383d 97eb acbd
00000090: 4046 063e 7173 9b3d ea6e f5bc 946b 803d
000000a0: 8bbb ecbc 8f07 1a3d dd8a debd 4c39 063e
000000b0: f214 b7bd 1c0c dabd 7f8e 2d3d f7fb 393d
000000c0: a1f2 1b3b 5be3 663c f9ab e7bd 59cb a5bb
000000d0: 8acc 74bc 667e cd3d a398 8b3d ff93 163c
000000e0: 44bb 93bd 37c1 983d a552 6f3d e047 503d
000000f0: 32bd 9c3c 4cd6 c63d 1e2f 603d 9437 f3bd
00000100: 994d d33d d554 31bc bb16 00be aec9 663b
00000110: 41f8 97bc 7fde d8bc 3314 cfbd f870 943d
00000120: 1020 df3d c077 b2bd 572c 3cbb f959 e3bb
00000130: d6ee fb3d 6250 0bbc 8f46 963b 6bf1 43bd
00000140: 69fd c2bd a279 ca3d 156e d63d f45b f5bd
00000150: eabe 343e f503 6cbd 7c1c c63d 198e af3d
00000160: f5af 32bd 5e26 063e 5953 103e a9a4 293c
00000170: 8473 943c b0d7 1e3e fa2e c7bd 3cf3 10bd
00000180: 6fd2 233e d9cb fa3d 35d7 aebd d38d a6bd
00000190: 78af 063d b187 83bc 749f 673c 8406 d73d
000001a0: e286 743c 6d3b 97bd f2e7 e43d 3bd8 de3d
000001b0: 1c72 d3bd 013c 50bd 302f b73d d7c5 fc3d
000001c0: f3ac fb3c c084 a3bc 1a7a cdbc 4482 ea3c
000001d0: 5c95 f6bd b75c d23d aff3 c2bb 9c2f 723d
000001e0: bfb3 b4bc 3f4d 18be 10ad 543c 493f f6ba
000001f0: fb73 66bd 757f c2bd e144 713d 698d c2bd
00000200: d746 1bbd 79ac d03d b22f 8b3d 012e dcbd
00000210: 6d56 debd 43f0 163e 8004 dfbb 952f fabb
00000220: f6d9 32bd 6589 73bc cfbd f0bd aeda 68bd
00000230: a604 02be a5e4 fdbd 86bc 853b c375 c2bd
00000240: cbc8 98bb 51f8 dcbc 5bf0 0a3e 981b 60bd
00000250: d4c2 b13d 450b 303d c34a 813d 9973 f23d
00000260: 89ca eabc dfb7 163e aef6 133e 2eeb d93c
00000270: 3217 6a3d 8263 74bc ff2e 2bbd 5152 9dbd
00000280: 17a5 ba3d 1cbb ac3d aa2c 3ebd d442 94bd
00000290: 9be1 193e 810d d8bd 8f0b 103e 9fa2 e83c
000002a0: c1b5 4dbd 6bde 96bd fca3 71bd 489f 51bb
000002b0: d2ed d03b d3ae f63d 5908 16bd 63df 833d
000002c0: f67c 98bc edc4 cb3c a5d1 c5bd 647e 93bd
000002d0: 4e1d db3c 2311 5a3d 9b68 c83c 82b9 173e
000002e0: 6b28 05be 1295 fdbd 2971 c1bd bd79 123e
000002f0: 77bf f1bd 6ad9 343d 7c47 76bd d085 f23c
00000300: 3e36 1c3d 2377 e1bc 0e48 403c 881c 76bd
00000310: 198d a53d 6691 163e 7529 8fbd 5e80 fabd
00000320: d7a8 dabd cd94 cdbd 4701 783c aedd 3b3c
00000330: 9022 a6bd de8d 973d fd26 363c 0aae 13be
00000340: 772b 05be f234 e73d fc87 24bd f6b8 863d
00000350: 1f50 e23d c2ca 903d 74e8 c03d c3fe be3c
00000360: 3473 b4bd 2ebd cabc 71e1 0c3d 235c 9dbd
00000370: 7e07 bbbc 9e8d a9bd c2ea 28bd ecbe 8f3d
00000380: 5965 ed3d a302 573d 3f93 59bd 1d97 4b3c
00000390: 01a3 913c de99 933d a486 a23d 2f06 173e
000003a0: 4674 163b 2163 ef3c dbaf 133d c6ca ff3d
000003b0: 42ed 0bbe 82b4 bf3b 9acd 99bd ea85 cc3c
000003c0: c271 f0bd e7a0 a6bd 7e43 53bd ca38 45bd
000003d0: a569 e73d ec0c 323d 6a1d 02bd 0dd6 d0bc
000003e0: 4825 143d 0b52 a23c 1e9c 6f3d 7235 073e
000003f0: 35e3 6d3b 57c7 0a3d db22 a7bc 5742 bd3d
-0.035621878 0.025615817 -0.0377592 -0.015905684 -0.12887055 0.11672281 0.008537357 -0.14200783
0.018949598 0.08794857 -0.09063216 0.048406117 0.08872059 0.013608697 0.027675897 0.107820444
-0.038108274 -0.028725829 0.11103029 0.01633064 0.0542085 0.016317938 0.10138613 -0.11453206
-0.01246982 -0.003228284 0.03370122 0.038004152 0.14057083 0.07141609 -0.06854436 0.0651523
-0.099652044 -0.006139097 0.044987 -0.08443373 0.13112736 0.07590378 -0.029960115 0.06270519
-0.028898021 0.037604865 -0.1086633 0.13107795 -0.08939542 -0.10646841 0.042372223 0.045406308
0.002379574 0.014092292 -0.11312098 -0.0050596413 -0.014941344 0.10033874 0.068162225 0.009190558
-0.072134525 0.07458728 0.058428425 0.050849795 0.019133184 0.09708843 0.054732434 -0.11875835
0.10317535 -0.010823448 -0.12508671 0.0035215425 -0.018550994 -0.026473282 -0.101112746 0.072481096
0.10894787 -0.08714247 -0.0028712952 -0.006938216 0.12301414 -0.0085030515 0.004586048 -0.047837656
-0.095209904 0.09886481 0.10470215 -0.11980429 0.17650953 -0.05762096 0.09673402 0.08572025
-0.043624837 0.13100573 0.14094295 0.010354199 0.018121488 0.15511966 -0.09725757 -0.035388216
0.15998243 0.12245912 -0.08537141 -0.081325196 0.032882184 -0.016055914 0.014137138 0.1049929
0.014924737 -0.073843814 0.111770526 0.108810864 -0.10324499 -0.050838474 0.08944547 0.123424225
0.030722117 -0.019960761 -0.025082637 0.028626569 -0.12040207 0.1027159 -0.0059494595 0.059127435
-0.022058366 -0.14873217 0.012980714 -0.0018787171 -0.05626295 -0.09496967 0.05890358 -0.09499628
-0.037909355 0.101891465 0.067962065 -0.10750962 -0.10856328 0.1474009 -0.0068059564 -0.0076350668
-0.043664895 -0.0148643 -0.11754953 -0.056849174 -0.12697086 -0.12397126 0.0040813116 -0.094951175
-0.0046626083 -0.026973875 0.13568251 -0.054713815 0.08679739 0.042979497 0.06313088 0.11838455
-0.02866103 0.14718579 0.1444957 0.0266014 0.057151027 -0.014916303 -0.041792866 -0.07681716
0.0911352 0.08434126 -0.046429314 -0.07239309 0.15027468 -0.10549451 0.14066909 0.028397856
-0.050222162 -0.073666416 -0.05899428 -0.0031985808 0.0063760066 0.12045064 -0.036629055 0.06439092
-0.018614274 0.024874175 -0.09659127 -0.072018415 0.026747372 0.053239 0.024463942 0.1481686
-0.130037 -0.123819485 -0.09445412 0.14304252 -0.11804097 0.044152655 -0.060126767 0.029604822
0.038137667 -0.02752263 0.011735929 -0.060085803 0.08083553 0.14703903 -0.06990329 -0.12231515
-0.10676735 -0.10038147 0.015137023 0.011466427 -0.08112061 0.07400106 0.011117694 -0.1442186
-0.13004862 0.112893954 -0.040168747 0.06578247 0.11050438 0.07069923 0.09419337 0.02331484
-0.08811036 -0.024748411 0.034394685 -0.07683589 -0.022830721 -0.082789645 -0.041239507 0.07018837
0.11591596 0.05249275 -0.05311894 0.012426165 0.017777922 0.07207082 0.07935837 0.14748453
0.0022957488 0.029222073 0.03605638 0.12489848 -0.13664725 0.0058503756 -0.075099185 0.024966199
-0.117404476 -0.081361584 -0.051578037 -0.04814986 0.11299447 0.043469355 -0.031766333 -0.025492692
0.036168367 0.019814512 0.058498494 0.13203982 0.0036298756 0.03388151 -0.020402363 0.09241169

policy_layer.bias f4 [8]
00000000: aba0 4abd 7b4a f7bd 1bce a1bd 4c6c 82bd
00000010: bf3c 00bb 4de2 8fbd cc44 d3bd 5b53 a63d
-0.04946963 -0.12074753 -0.079006396 -0.06368312 -0.0019567457 -0.07025585 -0.10315856 0.081213675

value_layer.weight f4 [1, 64]
00000000: 33f2 9cbb d2ef 0c3d becc 01bb 04a8 143b
00000010: c418 b0bd f8dd 0f3d 08c2 f0bc 507a e1bc
00000020: eed4 a8bc 9b2a 4e3d 4d7d 9cbd 48b4 00bd
00000030: 6e44 613d 882b f5bc 6f9d e1bc fe6a 41bd
00000040: 4aeb 0b3c 33f1 76bd 4ff9 f03d aad1 203d
00000050: e605 a1bd 6c77 813d db76 123d 0f20 d93d
00000060: aeaa e13c 5a1a e93d 952c 7fbd 6029 b1bd
00000070: 72e5 a2bc aee3 cebb da0d ce3d 0ed7 903d
00000080: b406 e9bc dd37 803c 7822 853d 32a0 1e3c
00000090: bc32 5abd a438 343c ab66 33bd 4145 82bd
000000a0: 17b3 7ebb 1bb5 903d b0cb f9bc 742e 21bd
000000b0: ab79 813d 694a adbd 15c3 ae3d 36ff 1abd
000000c0: 55e0 92bd 4a10 e63c a722 9e3d 7347 383c
000000d0: 860b 8abd c7d9 42bd af44 bdbd 27ea a7bd
000000e0: 8aae 88bd 0d26 99bb a14b 803c fb70 0f3b
000000f0: 7b6a 1c3d 987f 953d b38e d2bd ed7b 96bd
-0.0047896146 0.034408398 -0.0019805874 0.0022683153 -0.08598474 0.035123795 -0.029389396 -0.027524143
-0.020609345 0.0503336 -0.07641087 -0.03142193 0.0549969 -0.029927984 -0.02754089 -0.047221176
0.008539984 -0.06028862 0.11766302 0.03926245 -0.07862453 0.06321606 0.03575788 0.10601818
0.027547207 0.11381979 -0.062298376 -0.0865047 -0.019884799 -0.0063137626 0.10061236 0.070722684
-0.02844558 0.015651638 0.06500715 0.009681748 -0.05327104 0.010999832 -0.043799084 -0.063608654
-0.003886407 0.07065793 -0.030492634 -0.03935094 0.063220344 -0.08461458 0.08533303 -0.037841044
-0.07171694 0.02808394 0.07721453 0.011247504 -0.06740479 -0.04757097 -0.09241616 -0.08198958
-0.06673916 -0.0046737255 0.015661063 0.002188741 0.038187485 0.07299727 -0.10281124 -0.07347856

log_std_parameter f4 [8]
00000000: 2189 eebf dc88 d7bf 9bd2 f0bf cf09 d9bf
00000010: 7ed9 05c0 5935 00c0 424e 11c0 7fba cbbf
-1.8635598 -1.6838641 -1.8814272 -1.6956118 -2.0913997 -2.003256 -2.2704015 -1.5916289

net_container.0.weight f4 [256, 45]
00000000: c35d 5c3c 33f0 54be 8ca4 d63b ebd2 98bd
00000010: dde2 04be b0bb 373d a745 ca3d 0b27 0abc
00000020: 6319 9f3c 1585 bebd 0706 41bd 48e2 cb3d
00000030: 7a39 883d 9d2a 31be f701 0bbd 6e5c 9ebd
00000040: 93be fd3d 1cb0 c9bd 8d0f 9e3a 2121 cabd
00000050: 98aa 1cbe bb4a f43d 74f9 123e 9e96 d0bd
00000060: b3eb 97bd f573 5fbb b7fd d4bd 14cd dc3b
00000070: d112 1f3e ac64 d1bd 4696 3dbe 5876 8e3c
00000080: e1dc 8d3d c358 ebbd c669 c4bd 72cb 093e
00000090: 5ccd 86bd 1313 88bd aa2f 1bbe 63fa 9b3d
000000a0: 90d6 5b3d 2c82 0abc f838 fa3d 3c9c 1b3d
000000b0: 0854 aa3d 086d 413d 9ff0 cebd fe44 463d
000000c0: 10e5 17be 905d 533d bd7e f4bd 3497 143e
000000d0: fd30 fd3d 0c94 d13d 0238 3cbd 8b4a e2bd
000000e0: 21c9 b03d 14ce 19bd d94f d7bd 0eee 2b3e
000000f0: e967 80bc 0f6a b2bd 9a8f 3dbe e3f2 c3bd
00000100: 5a3b d8bb 84b9 b23b e000 9abc bb98 dbbc
00000110: e5eb 9e3d d569 92bd a407 b13c 3a99 b13d
00000120: 1172 b9bd 67c0 fabd 16ba 693e ffe1 a0bd
00000130: 5bc4 623c 3a5f b0bc 6302 813d 6a8f e1bc
00000140: fcf9 d73d 6e15 21ba 9d1a 333d a3c6 273d
00000150: ff76 e83d 4900 87bd 5951 93bd 11e3 7ebd
00000160: ddc5 ae3d 2f7a a9bd 2793 193e de1c 0a3e
00000170: e396 59bd 9c6f d23d 675b 183d 73e3 ebbd
00000180: a8aa 94bb af7d b93d e853 12be 31de 083d
00000190: 179e cdbd 8baf 213e c78b 23bd 621f eebd
000001a0: f02b 4cbd 28f1 a5bd 197e 3e3c 8359 1d3e
000001b0: f5e6 b23d 11b1 e43d 2c10 fcbd 9381 b8bd
000001c0: e0fb b53d f69e 763d f9d2 9c3d 4798 a23d
000001d0: c02d 023e 2180 30bd 0223 e03d 6abe 053d
000001e0: 50f9 89bd f444 603c afa8 ab3d 1534 1c3d
000001f0: 57c9 52bd 0dd3 3fbd 5a4a ec3d 6bd9 0e3c
00000200: e86a b43d 3bc4 6fbd 54bc fb3d 8f3e adbd
00000210: cdb4 a8bd 2ecc a0bd 89e6 b1bd 50e9 19be
00000220: 57ce c0bc 41c7 833d 0d4a 223d d605 303e
00000230: aaac ca3a 9df8 f23c 1322 503c fd93 5ebe
00000240: 9153 adbd 64c9 0cbe 620c 143e 372f 0b3e
00000250: 75e6 eabb a1f2 2abe 8d6b 373d 5949 473d
00000260: 2225 2e3e 72ab 16be 1e4e 21bd a414 3f3d
00000270: 5e76 b53d 0a89 12bd cc1c be3d a23c fabd
00000280: f1ba 953c 12c6 9f3c a22d d8bc 289b 393d
00000290: b492 473d 36a4 023e 3691 21be f97c 66bd
000002a0: 01f5 a83d f5ef f53d 41b2 c73d d330 c03d
000002b0: cda8 5d3d 37e2 b9bd 0d20 d93b 1758 403e
000002c0: 571c f0bc 1881 37bc ece3 ccbd 6669 a4bd
000002d0: 93db 4bbd ec7f 733d c712 833c 8bdf 973d
000002e0: 7a68 36be e79c 20bd f86e 773d 2319 01bd
000002f0: d910 463d f7bb f83d bb26 153d 2eb0 cebd
00000300: 1c55 303d 17ee 403e 4f15 44bd f9b1 62bb
00000310: 9cc8 f03d 9177 dd3c a25c 883c 5620 1cbe
00000320: 911f 1d3e 2242 30bc d3fd d7bc 0e62 4e3c
00000330: d4e6 eabd 4410 d03d 437b 39bd 4a13 63bd
00000340: 7421 e5b8 c3e9 65bd b602 2fbd 815b 703b
00000350: 4d16 6abd aced 163e 22a9 91bd 6516 ca3d
00000360: e747 b53d 970b d33d fb51 debd fd1d 0c3e
00000370: 58be 19bd c21d 1b3d 8db8 263e d34e 13be
00000380: daab 0cbc 3e07 b9bd f355 0abe 52d7 2fbd
00000390: b1ce c9bb 7a22 c8bd e406 5f3d aafe e23d
000003a0: 8140 103e 2d35 8d3c 8079 55bd 9f76 81bd
000003b0: 878c cdbd 5ece e6bd f152 0c3d 9ae8 11bd
000003c0: 3332 b1bd f7cc 7c3d e7c0 11bd 4f42 313e
000003d0: fe80 1b3d 142b 953c b9a3 c5bd 5821 44bb
000003e0: 8ea7 0f39 6ff2 89bd 5cdb e23d 5400 123e
000003f0: 3a93 fe3d 7ada 373d 920d 1c3d 2ac9 34be
0.013450089 -0.20794754 0.0065503772 -0.074621044 -0.12977166 0.044856727 0.098765664 -0.00843216
0.019421285 -0.09302727 -0.04712489 0.09955269 0.06651588 -0.17301412 -0.03393742 -0.07732473
0.12389865 -0.09848043 0.0012059078 -0.098696 -0.15299451 0.11928316 0.14352971 -0.10184978
-0.07418003 -0.0034096215 -0.10399955 0.0067383144 0.15534522 -0.1022428 -0.18514356 0.017390415
0.06926895 -0.11491539 -0.09590487 0.13456514 -0.06582138 -0.06644263 -0.15154901 0.07616117
0.05367142 -0.008453887 0.12217897 0.037990794 0.08316809 0.04722312 -0.101044886 0.04840564
-0.14833474 0.0516029 -0.11938236 0.14510804 0.123628594 0.10233316 -0.04595185 -0.11049374
0.08632112 -0.037550047 -0.105132766 0.1679003 -0.015674548 -0.08711635 -0.18511811 -0.09567811
-0.006598872 0.005454244 -0.018799245 -0.026806226 0.07759837 -0.07149092 0.021610089 0.08671804
-0.090549596 -0.12243729 0.22824892 -0.07855605 0.01384076 -0.021529783 0.06299283 -0.027534205
0.105457276 -0.0006144856 0.043726552 0.04096092 0.11350822 -0.06591851 -0.0719325 -0.062228266
0.08533833 -0.08275258 0.1499754 0.13487574 -0.053122412 0.10275194 0.037196543 -0.11517992
-0.0045369454 0.09057175 -0.1428982 0.033415023 -0.10039919 0.1578962 -0.039928224 -0.116270795
-0.04984659 -0.081026375 0.011626744 0.15366177 0.08735458 0.11166585 -0.12307772 -0.09009089
0.08885932 0.06021019 0.07657427 0.07939201 0.12712765 -0.043090943 0.10944177 0.032652296
-0.06737006 0.013688315 0.08381783 0.038135607 -0.051461544 -0.046832133 0.11537619 0.008718829
0.08809453 -0.05853675 0.1229178 -0.08459198 -0.0823761 -0.07851444 -0.08686549 -0.15030408
-0.02353589 0.06434489 0.0396214 0.17189726 0.0015462835 0.029659564 0.012703436 -0.2173614
-0.08463205 -0.137487 0.14457849 0.1359223 -0.007168586 -0.16694118 0.044780303 0.048653934
0.17006353 -0.14713839 -0.03938114 0.046650544 0.088604674 -0.035775222 0.09282836 -0.12218596
0.018277617 0.019503627 -0.026388947 0.045313984 0.04872389 0.12757954 -0.1577805 -0.056271527
0.08249856 0.12008659 0.09750796 0.093843125 0.05411606 -0.0907635 0.006626135 0.18783604
-0.029310388 -0.011200212 -0.1000441 -0.08027916 -0.04976995 0.059448168 0.016000165 0.07415684
-0.17813292 -0.039212134 0.060408562 -0.031518113 0.04835591 0.121452264 0.03641389 -0.10092197
0.043049917 0.18840824 -0.047871884 -0.0034590943 0.11757013 0.027034553 0.016645733 -0.1524671
0.15344073 -0.010757955 -0.02636615 0.01259662 -0.11469808 0.101593524 -0.045283567 -0.055438317
-0.00010925802 -0.056131136 -0.042727195 0.0036675634 -0.057150174 0.14739102 -0.07112338 0.09867553
0.08851605 0.10304945 -0.1085548 0.13683315 -0.03753504 0.037870176 0.16281338 -0.14385538
-0.0085858945 -0.090345845 -0.1350935 -0.042929955 -0.0061586727 -0.09772201 0.05444993 0.110837296
0.14087106 0.01723727 -0.052117825 -0.06321453 -0.10036569 -0.1126983 0.034258787 -0.035622217
-0.08652153 0.061718907 -0.035584357 0.17310451 0.037964813 0.018209018 -0.09650368 -0.00299271
0.00013699962 -0.06735694 0.11076996 0.14257938 0.12430425 0.04488609 0.03809888 -0.17654863
