CubeStackTask/logs/skrl/object_red_stack/2025-10-09_17-18-16_ppo_torch/checkpoints/agent_64800.pt (torch, 660141 bytes, 46 tensors)

log_std_parameter f4 [8]
0	0xc05f1a28	-3.4859715
1	0xc043702e	-3.053722
2	0xc059fa99	-3.4059203
3	0xc05f832a	-3.4923806
4	0xc082f05e	-4.0918417
5	0xc07150d3	-3.770558
6	0xc0881a6c	-4.2532253
7	0xc03fec28	-2.9987888

net_container.0.weight f4 [256, 45]
0	0x3c86751e	0.016413268
1	0xbe5bf596	-0.21480402
2	0x3b7d46af	0.0038646867
3	0xbd9eb988	-0.07750231
4	0xbe0b30c8	-0.13592827
5	0x3d3320f4	0.0437326
6	0x3dcded95	0.10055081
7	0xbc04fbdb	-0.008116688
8	0x3ca830b7	0.020531042
9	0xbdc629c5	-0.09675936
10	0xbd3fd3fb	-0.04683302
11	0x3dc0a7ff	0.09407043
12	0x3d7ba2b5	0.061434466
13	0xbe32803e	-0.17431733
14	0xbd0d0287	-0.03442624
15	0xbda87b19	-0.08226604
16	0x3dfb305f	0.122650854
17	0xbdba93f1	-0.09110249
18	0xbc25414b	-0.010086368
19	0xbdccdca0	-0.100030184
20	0xbe1bcb3c	-0.15214247
21	0x3df5277e	0.11970423
22	0x3e11973c	0.14217848
23	0xbdbe56b3	-0.0929388
24	0xbd95af2a	-0.073088005
25	0xbbaf343a	-0.005346802
26	0xbdd9495e	-0.10609697
27	0x3c2dcf0a	0.010608444
28	0x3e1fa518	0.15590322
29	0xbdbc3f53	-0.09191766
30	0xbe3d637c	-0.18494982
31	0x3c55fccf	0.013060763
32	0x3d9b2abe	0.07576512
33	0xbdecdc70	-0.115654826
34	0xbdc7c346	-0.09754042
35	0x3e0b2b85	0.1359082
36	0xbd721451	-0.059101406
37	0xbd7a027e	-0.061037533
38	0xbe164d93	-0.1467803
39	0x3dc0d447	0.09415489
40	0x3d70a7bc	0.058753714
41	0xbbc4d599	-0.006006908
42	0x3dfe2012	0.12408461
43	0x3d076000	0.033050537
44	0x3dace23c	0.08441588
45	0x3d7aef2e	0.061263256
46	0xbdc84e7b	-0.09780594
47	0x3d5f84e3	0.05457009
48	0xbe1a07e3	-0.15042071
49	0x3d58982e	0.052879505
50	0xbded5890	-0.115891576
51	0x3e2ef83d	0.17086883
52	0x3e15c250	0.14624906
53	0x3de5e3b7	0.11225074
54	0xbd332a99	-0.043741796
55	0xbdd413b8	-0.103553236
56	0x3daea4a8	0.085274994
57	0xbd112fb2	-0.035445876
58	0xbdcf7e07	-0.1013146
59	0x3e491fb5	0.19641002
60	0xbc804ac7	-0.015660657
61	0xbd9c77c2	-0.076400295
62	0xbe16ec29	-0.14738525
63	0xbda67bbf	-0.081290714
64	0xb96db85e	-0.00022670763
65	0xbc2d7a2f	-0.010588213
66	0xbc116619	-0.00887444
67	0xbd2416bd	-0.040060747
68	0x3d9f4e43	0.07778599
69	0xbd8bee0c	-0.06832513
70	0x3c149029	0.009067574
71	0x3d80b299	0.06284065
72	0xbdd49e83	-0.10381796
73	0xbdfd1701	-0.12357903
74	0x3e8267c6	0.25469798
75	0xbd5b8c70	-0.05360073
76	0xbd0bd683	-0.03414012
77	0xbc2984bc	-0.010346588
78	0x3db01438	0.085976064
79	0xbc59dc81	-0.013297201
80	0x3dd516da	0.10404749
81	0xbb343d3c	-0.002750232
82	0x3d53c8b7	0.05170509
83	0x3d507e04	0.050901428
84	0x3e0126fb	0.12612526
85	0xbd842ea1	-0.06454206
86	0xbd966a37	-0.073444776
87	0xbd8c056b	-0.06836971
88	0x3daecd54	0.08535257
89	0xbdbf6c7c	-0.093468636
90	0x3e20c39f	0.15699624
91	0x3e134a94	0.14383918
92	0xbd46cd47	-0.04853561
93	0x3de737db	0.112899505
94	0x3d39ea13	0.045389246
95	0xbde040a6	-0.10949831
96	0xbc0aa9b7	-0.008463315
97	0x3da68393	0.081305645
98	0xbe0bdee5	-0.13659246
99	0x3d1337d6	0.03594192
100	0xbdc5748d	-0.09641371
101	0x3e27eaf1	0.16398217
102	0xbcf19d83	-0.029494053
103	0xbde289d6	-0.11061446
104	0xbd5d8c61	-0.054088954
105	0xbdae61fe	-0.08514784
106	0x3c33f9a3	0.010984811
107	0x3e1c7f0f	0.15282844
108	0x3dd5b7e7	0.10435467
109	0x3dc8a6eb	0.09797462
110	0xbdd9338a	-0.106055334
111	0xbd9d45b0	-0.076793075
112	0x3de4898c	0.111590475
113	0x3d7b8683	0.061407577
114	0x3da1a3dc	0.07892582
115	0x3dc6d75f	0.097090475
116	0x3e1671ae	0.14691803
117	0x3a87bfce	0.0010356845
118	0x3dffe0bd	0.12494037
119	0x3d0d72bf	0.03453326
120	0xbd7479e5	-0.05968656
121	0x3bb4e011	0.005519875
122	0x3de15d3d	0.11004112
123	0x3c8907d8	0.016727373
124	0xbdc69b57	-0.096975975
125	0xbcfd4064	-0.030914493
126	0x3de85873	0.11344995
127	0xbc24f512	-0.010068195
128	0x3dbc289f	0.09187435
129	0xbd62abeb	-0.055339735
130	0x3df3097c	0.118670434
131	0xbd957ea5	-0.07299546
132	0xbd93e080	-0.07220554
133	0xbda93d0a	-0.082635954
134	0xbdb0965b	-0.08622428
135	0xbe2b6677	-0.16738306
136	0xbcbf50e8	-0.023354009
137	0x3d6c2033	0.057647895
138	0x3d1f7529	0.038930092
139	0x3e365273	0.1780489
140	0x36dc5ef4	6.567565e-06
141	0x3c86733e	0.016412374
142	0x3b0449b6	0.0020185537
143	0xbe6ac4cd	-0.22926636
144	0xbdbc30d3	-0.09189
145	0xbe158547	-0.14601623
146	0x3e0f64da	0.14003316
147	0x3e15336c	0.14570397
148	0xbc15c6f2	-0.009141671
149	0xbe394553	-0.18092851
150	0x3d260cb4	0.04053946
151	0x3d157abf	0.036494013
152	0x3e1fdfab	0.15612666
153	0xbe195eea	-0.14977613
154	0xbd1113c7	-0.03541925
155	0x3d32a3ab	0.043613117
156	0x3dc4e7c6	0.0961452
157	0xbc98878e	-0.018619325
158	0x3dbb020c	0.0913125
159	0xbdec9715	-0.11552254
160	0x3c04a783	0.0080965785
161	0x3b6e881f	0.0036397052
162	0xbd0ae291	-0.033907477
163	0x3d4e2a4d	0.05033331
164	0x3d71ea92	0.059061594
165	0x3dbdd063	0.09268262
166	0xbe084c41	-0.13310339
167	0xbd7293e4	-0.05922307
168	0x3dca7453	0.09885468
169	0x3e025eb3	0.12731437
170	0x3dd27e6f	0.102780215
171	0x3dec5463	0.11539533
172	0x3d48389b	0.04888211
173	0xbda5445b	-0.080696784
174	0xbb8a7cef	-0.004226319
175	0x3e3cdfb7	0.18444715
176	0xbcc4692e	-0.023975935
177	0x3c70253f	0.014657318
178	0xbdd592e4	-0.10428408
179	0xbd8b829a	-0.0681202
180	0xbd627491	-0.055286948
181	0x3d639dd0	0.055570424
182	0x3c384696	0.011247298
183	0x3d8c9ae3	0.0686548
184	0xbe4194c6	-0.18904409
185	0xbd31ad8d	-0.0433784
186	0x3d4d653d	0.050145376
187	0xbd05a64b	-0.032629292
188	0x3d312a34	0.04325314
189	0x3df22094	0.1182262
190	0x3cfc423f	0.030793307
191	0xbdda7c74	-0.10668269
192	0x3cfb1607	0.030650152
193	0x3e3c7d24	0.18407112
194	0xbd7667a0	-0.06015742
195	0xbbd44e94	-0.006479094
196	0x3ded0eb4	0.1157507
197	0x3cec3302	0.028832916
198	0x3d09dd86	0.033658527
199	0xbdfe6e9d	-0.124234416
200	0x3e27881f	0.1636052
201	0xba0aba93	-0.0005292084
202	0xbca39c55	-0.019972006
203	0x3a20722c	0.00061205286
204	0xbdddf4e5	-0.108377255
205	0x3deeb80b	0.11656197
206	0xbd853f12	-0.0650617
207	0xbd5092d4	-0.050921276
208	0x3c0e5a50	0.008688524
209	0xbd00647f	-0.03134584
210	0xbdcead61	-0.10091663
211	0x3d0ab80a	0.03386692
212	0xbd905912	-0.07048239
213	0x3e2a2c84	0.16618544
214	0xbd97ebab	-0.07417997
215	0x3ddd5113	0.10806479
216	0x3dbc9d15	0.092096485
217	0x3de4e2d1	0.11176074
218	0xbdf2528a	-0.11832149
219	0x3e14ac2b	0.14518802
220	0xbd1031bf	-0.03520369
221	0x3d0cbbf7	0.034358945
222	0x3e25bad2	0.16184548
223	0xbe1666ce	-0.14687654
224	0xbbddbb6f	-0.0067667286
225	0xbda98883	-0.08277991
226	0xbe0db1cf	-0.1383736
227	0xbd395361	-0.045245532
228	0xbc1954b7	-0.0093585765
229	0xbdce9e56	-0.10088794
230	0x3d70ba29	0.058771286
231	0x3de4ae95	0.111661114
232	0x3e12ccff	0.14336012
233	0x3cbe2bac	0.023214184
234	0xbd468150	-0.048463166
235	0xbd7c9a1d	-0.06167041
236	0xbdc7f054	-0.09762636
237	0xbdf257fd	-0.11833189
238	0x3d113d46	0.035458826
239	0xbd18a604	-0.0372677
240	0xbda7ae76	-0.08187573
241	0x3d86d16d	0.065829135
242	0xbcc0ef38	-0.023551568
243	0x3e2465fd	0.1605453
244	0x3d2c2b9e	0.042033784
245	0x3cedf19a	0.029045869
246	0xbdb9b606	-0.09067921
247	0xba917134	-0.0011096359
248	0xbbad9f71	-0.005298548
249	0xbd9bcd75	-0.07607547
250	0x3dd8ead0	0.10591662
251	0x3e1122f3	0.14173488
252	0x3dfe69eb	0.12422546
253	0x3d34d8e7	0.044152167
254	0x3cd3621a	0.025803614
255	0xbe2a2be9	-0.16618313

net_container.0.bias f4 [256]
0	0x3e523693	0.20528631
1	0xbe0a4f7d	-0.13506885
2	0x3d2b919b	0.041886907
3	0x3c49c39c	0.012314703
4	0x3d336a00	0.04380226
5	0x3d313a5f	0.043268558
6	0x3e1de133	0.15417938
7	0x3e0bb164	0.13641888
8	0x3db0ee3a	0.08639188
9	0x3ba85160	0.005136654
10	0x3d152378	0.03641078
11	0xbd3f1ac3	-0.04665638
12	0x3d842d1b	0.06453916
13	0xbd24f79f	-0.040275212
14	0x3e0dfee6	0.13866767
15	0xbdc62ac1	-0.096761234
16	0x3de2a8a9	0.110673256
17	0xbdedabb0	-0.116050124
18	0x3df24d79	0.11831183
19	0x3d785046	0.06062343
20	0x3c6a873c	0.014314469
21	0x3d51fbec	0.051265642
22	0xbd8f26b2	-0.069898024
23	0x3e3755da	0.17903844
24	0x3db32955	0.08748118
25	0x3d51d772	0.051230855
26	0xbd4be6ec	-0.04978077
27	0xbe533fa6	-0.20629749
28	0xbe02576a	-0.12728658
29	0xbdced91a	-0.101000026
30	0xbdaa7ffc	-0.08325192
31	0xbd0cf550	-0.034413636
32	0x3e060ec5	0.13091572
33	0x3db886ec	0.09010109
34	0x3ce268dc	0.027637891
35	0xbe44dd97	-0.19225155
36	0x3ddad674	0.10685435
37	0xbc72790e	-0.0147993695
38	0x3db976ef	0.09055888
39	0xbdd544f6	-0.10413544
40	0xbe34f56e	-0.17671749
41	0x3e1552ee	0.14582416
42	0xbdc97264	-0.098362714
43	0xbd5315d4	-0.05153449
44	0x3ca2ca21	0.019871773
45	0xbd68df0a	-0.05685333
46	0xbbdbd50a	-0.006708746
47	0xbdec5de6	-0.11541347
48	0x3e00df9c	0.125853
49	0x3d4d64dd	0.05014502
50	0xbd9ba420	-0.07599664
51	0xbd80f64c	-0.062969774
52	0xbdf840e6	-0.121217534
53	0xbd9f922c	-0.07791552
54	0xbe024a38	-0.12723625
55	0xbd8b8fb3	-0.06814518
56	0x3e1cc099	0.15307845
57	0x3ca4c12b	0.02011164
58	0x3e10ca7f	0.14139746
59	0x3ded73a2	0.11594321
60	0xbd90bf5b	-0.07067748
61	0x3dd0c465	0.10193709
62	0x3e1c6688	0.15273488
63	0xbc7678cf	-0.015043451
64	0x3c0bde21	0.008536846
65	0x3e2b86b3	0.16750602
66	0x3dcf460f	0.101207845
67	0xbd878268	-0.0661667
68	0x3db727be	0.08943127
69	0x3dcf27cf	0.10115015
70	0x3df9f323	0.12204578
71	0xbde8d417	-0.11368578
72	0x3dfde4a2	0.12397124
73	0x3d4a241a	0.049350835
74	0xbd1fbce8	-0.038998514
75	0x3d94675d	0.072462775
76	0x3e05fef9	0.13085546
77	0xbcc365f2	-0.023852322
78	0x3e196fce	0.14984056
79	0x3dbf7970	0.09349334
80	0xbe14734a	-0.14497104
81	0xbdeb5bfe	-0.114921555
82	0x3da97075	0.082734026
83	0x3de42d43	0.111414455
84	0x3b844f87	0.0040378007
85	0x3dfcb434	0.123390585
86	0x3dca2dad	0.09871993
87	0x3e1aaf2f	0.1510589
88	0xbd7572d7	-0.059923973
89	0x3e086473	0.13319568
90	0xbda5c09c	-0.08093378
91	0xbdcb8337	-0.099371366
92	0x3d70cdef	0.058790144
93	0xbde2c8fc	-0.11073491
94	0xbd203e85	-0.039122123
95	0x3d09a05b	0.033600193
96	0x3d81181b	0.06303426
97	0x3c1ba36f	0.009499415
98	0xbe391a49	-0.18076433
99	0x3b570eba	0.0032815174
100	0x3daa4b0c	0.08315095
101	0x3d8e1461	0.06937481
102	0xbe3153c8	-0.17317116
103	0xbc1f84b1	-0.009736226
104	0xbc91c93c	-0.017796151
105	0x3d582412	0.052768774
106	0xbcb5d572	-0.022196505
107	0xbd991a48	-0.07475716
108	0xbd06c00f	-0.032898005
109	0xbd6a9d0a	-0.05727867
110	0x3c64d9b7	0.013967923
111	0x3da9561e	0.08268379
112	0xbdc806e4	-0.09766939
113	0xbdf87a9b	-0.1213276
114	0x3dd49e23	0.10381725
115	0x3e004a09	0.12528242
116	0xbe2f7ab3	-0.1713665
117	0x3d443cc6	0.04790952
118	0xbd204e9b	-0.039137464
119	0x3d62413f	0.055238005
120	0xbd7e7c8e	-0.062130503
121	0xbd6adb5b	-0.0573381
122	0x3e347e75	0.17626365
123	0xbe33b525	-0.1754957
124	0x3c6f09e2	0.014589759
125	0xbdcae512	-0.09906973
126	0xbdbf3fdf	-0.09338354
127	0x3e06f069	0.13177647
128	0x3db5c777	0.088759355
129	0xbe76a7a6	-0.2408739
130	0x3e073ca3	0.13206725
131	0xbd6a6056	-0.05722078
132	0xbe34c64f	-0.17653774
133	0xbd5afb3b	-0.05346225
134	0xbdb6e81d	-0.08930991
135	0x3baddb13	0.0053056567
136	0x3e5ccf5c	0.21563476
137	0x3d9f57f2	0.07780446
138	0x3dc05fad	0.09393249
139	0x3d74fea4	0.059813157
140	0x3e0467d5	0.12930234
141	0xbe2ea1ba	-0.17053881
142	0xbcb346e4	-0.02188439
143	0xbe190748	-0.14944184
144	0xbd90b1c0	-0.07065153
145	0x3dd1218f	0.10211479
146	0xbd1f505b	-0.038894992
147	0xbe0daaf0	-0.13834739
148	0xbdb1f2af	-0.08688866
149	0xbe21f18b	-0.15814798
150	0xbd0b4886	-0.03400471
151	0x3d81ad06	0.0633183
152	0xbd46eaf7	-0.048563924
153	0x3cbeabac	0.023275219
154	0x3e0bdd5d	0.13658662
155	0xbd7c6e26	-0.061628483
156	0xbd83591d	-0.064134814
157	0xbddca552	-0.1077372
158	0xbdc5ace9	-0.096521206
159	0xbceef4e0	-0.0291695
160	0xbd9f6a41	-0.07783938
161	0x3df22c04	0.118248016
162	0x3de45816	0.111496136
163	0x3c876506	0.016527664
164	0x3da82072	0.082093135
165	0xbd89c48e	-0.06726943
166	0xbdf3653d	-0.11884544
167	0x3cfa3f2a	0.030547697
168	0xbe17092a	-0.1474959
169	0xbe284b8f	-0.16435073
170	0x3dda94b6	0.106728956
171	0xbd894fa9	-0.06704647
172	0x3e26f734	0.16305238
173	0xbe1fe82b	-0.15615909
174	0x3e1cc6eb	0.15310256
175	0x3e1be691	0.15224673
176	0xbd6fcdf3	-0.058546018
177	0xbe02c73d	-0.12771316
178	0xbdbadae7	-0.091237836
179	0x3e0a00b2	0.13476828
180	0xbdfadf5f	-0.12249636
181	0x3d99d3a1	0.07511068
182	0x3d98fe32	0.07470359
183	0xbd561e81	-0.052275185
184	0xbdf9728b	-0.121800505
185	0x3d37ec14	0.044902876
186	0x3d396be6	0.045268916
187	0x3d284728	0.041083485
188	0xbd736702	-0.059424408
189	0xbdcca9a4	-0.09993294
190	0x3bf321fa	0.007419822
191	0xbddab74e	-0.10679494
192	0xbcefda32	-0.029278848
193	0xbd8642bf	-0.065556996
194	0x3e0d14d9	0.13777484
195	0x3d5e3b0e	0.054255538
196	0xbdfb56fd	-0.12272451
197	0x3d2977f5	0.041374166
198	0xbd095911	-0.033532206
199	0x3d4adbee	0.049526148
200	0x3c8aa421	0.016923966
201	0x3da0f461	0.078591116
202	0x3d56896f	0.05237716
203	0x3d1f33d9	0.038867805
204	0x3df76755	0.12080256
205	0xbca1065d	-0.019656355
206	0x3d132540	0.035924196
207	0xbddd6cbd	-0.10811756
208	0xbcf25fc0	-0.029586673
209	0x3e40ee1e	0.18840834
210	0xbc882728	-0.016620234
211	0x3d971c8e	0.07378493
212	0x3e357ba3	0.17722945
213	0x3dd94e5a	0.106106475
214	0xbe094f9c	-0.13409275
215	0x3d6d4b30	0.057933033
216	0x3dcbf51a	0.09958859
217	0x3d75d0ea	0.06001369
218	0x3e18f6c4	0.14937884
219	0x3dd11f3c	0.102110356
220	0x3c362cde	0.011119096
221	0x3d4e93bc	0.05043386
222	0x3cac134f	0.0210053
223	0xbe128fb9	-0.14312638
224	0x3de7a31b	0.11310407
225	0xbdf2a2a2	-0.11847426
226	0xbd881519	-0.06644649
227	0x3d6aa5fc	0.0572872
228	0xbd970bf8	-0.0737533
229	0xbd94f618	-0.07273501
230	0x3e49ee82	0.1971989
231	0x3ca18b7f	0.019719837
232	0xbde3fbcc	-0.11132011
233	0x3e109241	0.14118291
234	0x3e0729d0	0.13199544
235	0x3dc9815c	0.098391265
236	0x3ca56a46	0.020192277
237	0x3e355060	0.17706442
238	0x3d485bf0	0.048915803
239	0x3dd08706	0.10182004
240	0xbd0aa9da	-0.03385339
241	0xbd86606c	-0.0656136
242	0x3e19828c	0.14991206
243	0x3d1032b1	0.035204593
244	0x3cfcf2f4	0.030877568
245	0x3db47175	0.08810703
246	0xbe3c50d3	-0.18390207
247	0x3bae8e71	0.005327039
248	0xbaa0d16a	-0.0012269442
249	0xbc54100e	-0.012943281
250	0x3e16f247	0.14740859
251	0xba7fc446	-0.0009756725
252	0xbdc32ad6	-0.09529655
253	0x3ca0dafc	0.01963567
254	0xbe5f5381	-0.21809198
255	0x3d44e8e0	0.04807365

net_container.2.weight f4 [128, 256]
0	0x3d671f31	0.05642623
1	0xbcd8c029	-0.026458817
2	0xbb460e23	-0.0030220828
3	0xbc264acb	-0.010149668
4	0x3ccb1fe4	0.02479548
5	0xbcf4ede4	-0.029898591
6	0x3cefbeee	0.029265847
7	0xbd6b3dc2	-0.057431944
8	0xbcf87a49	-0.030331748
9	0x3d711c56	0.058864914
10	0xbd559158	-0.052140564
11	0xbcd9974a	-0.026561398
12	0x3d1ce0f6	0.038300477
13	0xbd8f3964	-0.06993368
14	0x3c6f6073	0.014610398
15	0xbc1852a7	-0.00929705
16	0xbd13bbdd	-0.036067832
17	0x3c9a44fd	0.018831724
18	0x3b88ac05	0.004170897
19	0x3d255c07	0.040370967
20	0xbd3effe6	-0.046630763
21	0xbb2974df	-0.0025857014
22	0xbd326fd1	-0.043563668
23	0xbdce397a	-0.100695565
24	0xbc8dddc2	-0.017317656
25	0x3ceeb769	0.029140191
26	0xbd2dfc29	-0.042476807
27	0x3db26a71	0.08711708
28	0x3c98420a	0.018586177
29	0x3c06f931	0.008238123
30	0xb9b4a41e	-0.00034454552
31	0x3d1d761f	0.038442727
32	0xbd92ca84	-0.07167533
33	0xbd813b57	-0.06310146
34	0xbda62b59	-0.08113737
35	0x3d742bf5	0.059612233
36	0xbbe59cb8	-0.0070072077
37	0x3da5cc38	0.08095592
38	0x3ce34d9f	0.027746974
39	0x3d0d8081	0.03454638
40	0x3d70cf6d	0.058791567
41	0x3d4663a1	0.048434857
42	0xbacdea62	-0.001571011
43	0xbd046d08	-0.032330543
44	0x3d292f7b	0.041305047
45	0x3d0e7e08	0.03478816
46	0xbd5cbc6c	-0.05389063
47	0x3da80423	0.08203914
48	0x3d3b7c1e	0.045772664
49	0x3cac2290	0.021012574
50	0x3d856695	0.065137066
51	0x3d037531	0.032094184
52	0x3d3ec841	0.046577696
53	0xbd110542	-0.035405405
54	0x3d08f58f	0.033437308
55	0x3c70e129	0.01470212
56	0xbdc3d26e	-0.09561621
57	0xbd90fb6b	-0.07079204
58	0x3d1dff5e	0.038573615
59	0xbc7739e5	-0.015089487
60	0x3d28738c	0.04112582
61	0x3c6e13ba	0.01453107
62	0x3ca7ba73	0.020474648
63	0x3c1e7503	0.009671452
64	0xbd81d8e5	-0.063401975
65	0xbd490776	-0.04907938
66	0xbd6e11db	-0.058122497
67	0xbd962bc1	-0.07332564
68	0xbc88475f	-0.016635595
69	0x3ce8bd17	0.028410478
70	0xbbcbcd8d	-0.006219572
71	0xbc0c5a5b	-0.008566464
72	0x3cc8963b	0.024485698
73	0xbd0874fb	-0.033314686
74	0x3c816abc	0.015797965
75	0x3d896801	0.0670929
76	0xbca08770	-0.019595832
77	0xbd238527	-0.039921906
78	0x3bd6cab2	0.006554925
79	0x3d57db4f	0.052699383
80	0x3d9754cf	0.07389223
81	0x3d9c1d95	0.0762283
82	0xbd3446a7	-0.04401269
83	0x3d3a693f	0.045510527
84	0x3ba9d1a7	0.005182463
85	0x3d3786c5	0.04480626
86	0xbcf5b60a	-0.02999403
87	0xbddaca7e	-0.106831536
88	0x3d14e86a	0.03635446
89	0xbd10d7eb	-0.035362165
90	0xbd1215f6	-0.035665475
91	0xbc832012	-0.016006503
92	0xbcc60f0c	-0.024177097
93	0x3d172d72	0.036908574
94	0xbd719e58	-0.0589889
95	0xbcf8b7f9	-0.030361162
96	0xbcb02e07	-0.021506323
97	0xbd3523e7	-0.044223692
98	0x3d91c24e	0.07117139
99	0xb932a987	-0.00017038557
100	0xbc8c60a1	-0.01713592
101	0xbd4d6ac2	-0.05015064
102	0xbc1e81a7	-0.009674466
103	0x39eb6292	0.00044896133
104	0x3cbc8e66	0.02301712
105	0xbd52bd97	-0.05145034
106	0xbd013a18	-0.031549543
107	0x3c4117f7	0.011785499
108	0x3da224f0	0.079172015
109	0x3da4a8a8	0.08039981
110	0xbb2c78ee	-0.0026317197
111	0xbd7f1e25	-0.062284607
112	0x3dabca44	0.083881885
113	0x3ca98b12	0.020696197
114	0xbd67c784	-0.056586757
115	0xbd88c7b8	-0.06678718
116	0xbcb611cd	-0.022225285
117	0xbd14665c	-0.03623043
118	0x3cc165f9	0.023608195
119	0x3d335040	0.043777704
120	0xbd1c88bd	-0.03821634
121	0x3d354129	0.044251595
122	0xbd4b8840	-0.049690485
123	0x3d6e4602	0.058172233
124	0x3d4c5526	0.04988589
125	0x3d8e5e3d	0.06951568
126	0xbb7bd666	-0.0038427352
127	0xbd8a4ace	-0.06752549
128	0x3c2d25c6	0.010568088
129	0x3d47653c	0.04868053
130	0xbd91c5a8	-0.07117778
131	0xbd033af0	-0.03203863
132	0x3d428d1a	0.047497846
133	0x3d012506	0.03152945
134	0x3d9cc3cf	0.07654535
135	0x3cbee2fb	0.023301592
136	0x3d831ef2	0.06402387
137	0xbc1af3de	-0.0094575565
138	0x3c71f6d1	0.014768318
139	0x3dbc91f1	0.092075236
140	0xbd07c7a6	-0.033149384
141	0x3c872f99	0.016502189
142	0xbd5daf9c	-0.054122552
143	0x3d23d2a3	0.0399958
144	0xba0329dc	-0.0005003491
145	0xbd936b5e	-0.07198213
146	0x3ca7cbc6	0.020482909
147	0x3d4e58a6	0.05037751
148	0xbd1100b5	-0.035401065
149	0xbd3b7c05	-0.04577257
150	0x3db9d50f	0.09073841
151	0xbd4c2581	-0.049840454
152	0xbd804df1	-0.06264866
153	0x3d53cc72	0.051708646
154	0xbdb8870e	-0.09010135
155	0x3da60708	0.0810681
156	0xbcb5a3b5	-0.022172788
157	0x3c853aac	0.016263328
158	0x3d04bd31	0.03240699
159	0xbd9008a2	-0.070328966
160	0x3d846b55	0.064657845
161	0xbcded2ee	-0.027200188
162	0xbda6608e	-0.08123885
163	0xbdabdb29	-0.08391411
164	0x3c35a8ef	0.01108764
165	0xbc85e27c	-0.016343348
166	0xbd9fabec	-0.07796463
167	0xbd3e34b3	-0.046436977
168	0x3d1f19e5	0.038843054
169	0x3d4f37c4	0.05059029
170	0xbc5e84e2	-0.013581486
171	0x3da7cb47	0.08193069
172	0xbd11c97d	-0.035592545
173	0x3b92b362	0.0044769505
174	0x3d35f02a	0.04441849
175	0x399540d2	0.0002846779
176	0xbc30ae9e	-0.0107838195
177	0x3bd1373d	0.0063847587
178	0x3d383c28	0.044979244
179	0xbd78c478	-0.060734242
180	0xbd4ddf1b	-0.050261598
181	0xbdd82a5f	-0.10554957
182	0x3c9d0f7a	0.019172419
183	0x395a5786	0.00020822705
184	0xbc8232af	-0.015893308
185	0x3d0b873c	0.034064516
186	0xbcd322b8	-0.025773391
187	0x3c0592d9	0.008152687
188	0xbcfb58fa	-0.030682076
189	0xbc82f0f7	-0.015984042
190	0xbcd083e2	-0.025453512
191	0x3dac856c	0.08423886
192	0xbb8e3a3d	-0.0043404386
193	0xbd82a242	-0.063786045
194	0xbd570409	-0.052494083
195	0xbd03f656	-0.032217346
196	0xbd8d120f	-0.0688821
197	0x3d955ccd	0.07293091
198	0x3d802da0	0.06258702
199	0xbd2a762e	-0.04161661
200	0xbc98dedb	-0.018660953
201	0x3cbddd97	0.023176951
202	0xbd9564ac	-0.07294592
203	0xbd964c92	-0.073388234
204	0x3c52a6dd	0.012857166
205	0x3cdc589c	0.026897721
206	0x3da4ca72	0.08046426
207	0xbd4b1677	-0.04958197
208	0xbccd4ffa	-0.02506255
209	0xbdadb53a	-0.08481832
210	0xbc48d9c8	-0.012258954
211	0xbd84fa97	-0.06493109
212	0xbda0ef62	-0.07858159
213	0xbd2b9fd2	-0.041900463
214	0x3cf77e77	0.03021167
215	0xbd7c8bf3	-0.061656903
216	0x39cf41a2	0.00039531017
217	0xbc5c89b2	-0.0134605635
218	0xbd22996b	-0.039697092
219	0xbc81fc2a	-0.015867312
220	0x3c8bf24f	0.017083315
221	0x3c83558d	0.016032005
222	0xbca01d64	-0.019545265
223	0x3cd06724	0.025439806
224	0xbce6802a	-0.028137285
225	0x3d7c32c3	0.061571848
226	0x3cce77f1	0.025203677
227	0x3d9edabd	0.07756565
228	0x3d5d25b6	0.053991042
229	0xbd4cccfa	-0.05000017
230	0x3ca8a04b	0.020584246
231	0x3daa11e0	0.08304191
232	0xbd2f1d20	-0.042752385
233	0xbc793b2f	-0.015211864
234	0xbdb621a7	-0.088931374
235	0xbd66fecf	-0.05639535
236	0x3d84df8e	0.06487952
237	0xbd4ef530	-0.050526798
238	0xbcb04237	-0.021515949
239	0x3c814d0a	0.015783805
240	0xbd0782ee	-0.03308385
241	0x3cd52e03	0.026022917
242	0x3ccadcef	0.024763552
243	0xbc958884	-0.018253572
244	0xbd5e5b27	-0.05428615
245	0x3d8c9f6c	0.06866345
246	0x3d71609a	0.058930017
247	0xba071bc6	-0.000515398
248	0x3d3bcdc0	0.045850515
249	0xbc933f31	-0.017974468
250	0xbdb2c780	-0.08729458
251	0xbd4ae9f3	-0.049539518
252	0xbb8178a4	-0.003951149
253	0xbd29d386	-0.04146149
254	0x3d36bac6	0.044611715
255	0xbc129b6f	-0.008948191

net_container.2.bias f4 [128]
0	0xbc948f44	-0.01813472
1	0xbdbb12dc	-0.091344565
2	0xbce46547	-0.027880324
3	0xbdcfa81e	-0.10139488
4	0xbdc43a59	-0.095814414
5	0x3d391924	0.04518999
6	0x3d95c2d7	0.073125534
7	0xbcd76e8c	-0.02629783
8	0x3d5b663e	0.053564303
9	0xbdae0244	-0.08496526
10	0x3d9be7e6	0.076125905
11	0xbcfba7c7	-0.03071965
12	0xbcbf3e2c	-0.023345076
13	0x3c633379	0.0138672525
14	0xbcab269b	-0.020892432
15	0x3d3e0631	0.046392623
16	0xbdc7cf1e	-0.09756301
17	0xbc70a6d8	-0.014688216
18	0x3c9b54ea	0.018961389
19	0x3c475ba0	0.012167841
20	0x3da0bbae	0.07848297
21	0x3a5d31ac	0.00084378826
22	0xbbcb71c3	-0.00620863
23	0xbc63ebeb	-0.013911228
24	0x3ca331ae	0.01992115
25	0x3cc08279	0.023499714
26	0x3c5f2076	0.013618579
27	0xbe01a700	-0.12661362
28	0xbdabef2c	-0.08395228
29	0xbd648c8d	-0.055798102
30	0xbdc8a6de	-0.097974524
31	0xbd12ea77	-0.035868134
32	0xbc12f8e4	-0.008970473
33	0xbae7ecd1	-0.0017694478
34	0x3d86c01f	0.06579613
35	0x3d1af3bf	0.03783011
36	0xbd0737dc	-0.033012256
37	0xbd9abf37	-0.075560026
38	0xbc760f50	-0.015018299
39	0x3c1309c5	0.008974497
40	0xbdf45d14	-0.11931816
41	0xbca1075c	-0.01965683
42	0xbd8708be	-0.06593464
43	0x3d76cee8	0.060255915
44	0x3d5eec91	0.054424826
45	0x3d1673ec	0.036731645
46	0x3d636b60	0.055522323
47	0x3d9d8a1f	0.0769236
48	0x3d72c92d	0.059273887
49	0x3d297ffd	0.041381825
50	0xbce4a1eb	-0.02790924
51	0xbdea111a	-0.11429043
52	0x3b7b3d57	0.0038336122
53	0x3da29645	0.07938818
54	0xbdb1ad12	-0.08675589
55	0xbd37a424	-0.04483427
56	0x3d93de1c	0.072200984
57	0xbddf0288	-0.10889155
58	0x3d958375	0.07300464
59	0x3d5407f8	0.051765412
60	0xbde68a58	-0.11256856
61	0x3d813a70	0.06309974
62	0xbcda1ed7	-0.026626034
63	0xbd2deb55	-0.04246076
64	0x3c89b140	0.016808152
65	0xbcf496f8	-0.029857144
66	0x3decca2b	0.11561998
67	0xbd3e0601	-0.046392445
68	0xbb367f05	-0.0027846706
69	0xbd0441b0	-0.032289207
70	0xbdb15a7c	-0.08659837
71	0xbd6d12cb	-0.05787925
72	0xbdd56e82	-0.10421468
73	0x3ce1f3b3	0.027582025
74	0xbcda0b32	-0.026616666
75	0xbd3959d8	-0.045251697
76	0xbb662f2f	-0.0035123338
77	0x3cfb87a1	0.030704321
78	0xbd9b1647	-0.075726084
79	0x3b6f3e59	0.0036505668
80	0x3c881b43	0.016614562
81	0xbd7c14ca	-0.061543263
82	0x3db24cab	0.087060295
83	0xbb853563	-0.004065202
84	0xbd8a9409	-0.06766517
85	0xbbd3b82a	-0.006461163
86	0x3dbf4c09	0.093406744
87	0x3d57df7d	0.05270337
88	0x3d280fa7	0.041030552
89	0x3c903a9c	0.017606072
90	0xbdffcec7	-0.124906115
91	0x3d398fe4	0.04530324
92	0xbdcedec9	-0.10101087
93	0x3b5721e1	0.003282659
94	0xbd85e241	-0.06537295
95	0x3ceea9e0	0.029133737
96	0xbade9fd5	-0.001698489
97	0x3d38bae8	0.045100123
98	0xbd84cd91	-0.06484521
99	0xbc765b45	-0.015036409
100	0xbdcc4a15	-0.099750675
101	0xbb77db62	-0.0037819971
102	0x3beb26a7	0.0071762386
103	0x3db17853	0.08665528
104	0xbcf2bee5	-0.029632041
105	0xbcc254d3	-0.023722088
106	0xbc5acbb7	-0.0133542335
107	0xbd40edf4	-0.04710193
108	0xbdc942f4	-0.098272234
109	0xbd2062fc	-0.0391569
110	0x3dc5e193	0.096621655
111	0x3d5c6691	0.053808752
112	0xbda893d0	-0.08231318
113	0xbc7018fc	-0.014654394
114	0x3c21498c	0.009844195
115	0x3d65d497	0.056110945
116	0x3d21521c	0.039384946
117	0xbd1d9b01	-0.0384779
118	0xbe077ee2	-0.13231996
119	0x3c4ca491	0.012490408
120	0x3d6b41d5	0.05743583
121	0xbbdc4d20	-0.006723061
122	0xbd65cad5	-0.05610164
123	0xbcfb5b3c	-0.030683152
124	0x3da77f7e	0.08178614
125	0xbc4460fc	-0.0119860135
126	0xbdb211ce	-0.08694802
127	0xbd5f9d09	-0.05459312

net_container.4.weight f4 [64, 128]
0	0x3c9ac4af	0.018892614
1	0x3d818bda	0.06325503
2	0xbd9d0d97	-0.07668608
3	0xbd0b56c7	-0.034018304
4	0xbaddace3	-0.0016912486
5	0xbd93a582	-0.072093025
6	0x3c52ce5e	0.012866585
7	0x3d70a992	0.058755465
8	0xbc60788e	-0.0137006175
9	0xbd589040	-0.052871943
10	0xbd56bc11	-0.052425448
11	0x3c681dfe	0.014167307
12	0x3d96899b	0.07350465
13	0xbd50b782	-0.050956257
14	0xbcb03b25	-0.021512577
15	0xbcdd7d46	-0.027037274
16	0xbcb7da5d	-0.02244299
17	0xbd1ba574	-0.037999585
18	0xb91a6332	-0.00014723538
19	0x3d5025bf	0.050817247
20	0xbdc46ae3	-0.095906995
21	0xbdc6eced	-0.09713159
22	0x3dfbdb50	0.1229769
23	0xbda4b79f	-0.080428354
24	0xbb2e759b	-0.0026620391
25	0x3da3480c	0.07972726
26	0x3d04d47b	0.0324292
27	0xbc3fea00	-0.011713505
28	0x3da27ddb	0.07934161
29	0x3cfe025b	0.031006983
30	0xbd0fbb73	-0.035090875
31	0x3cefeb56	0.029287022
32	0x3b9dce9b	0.004815889
33	0xbcd798c1	-0.026317956
34	0xbde44f11	-0.11147893
35	0xbdc441e0	-0.09582877
36	0xbc647be6	-0.013945555
37	0xbc8e8bec	-0.017400704
38	0x3cba476c	0.022739135
39	0xbcc55975	-0.024090508
40	0xbca13e34	-0.019682981
41	0xbca57a12	-0.02019981
42	0x3d5628e9	0.05228511
43	0xbcb5f62d	-0.022212112
44	0xbbb8052e	-0.005615852
45	0x3c3f0bfa	0.01166057
46	0xbdcad243	-0.099033855
47	0x3d359c61	0.044338588
48	0xbd542e60	-0.05180204
49	0xbd8228f2	-0.06355466
50	0x3d989e19	0.0745203
51	0x3d823766	0.06358223
52	0x3d940b55	0.07228724
53	0xbd57920d	-0.05262952
54	0x3d3c6559	0.04599509
55	0xbc98ba9e	-0.018643674
56	0x3d7e5c8f	0.06209999
57	0xbbf5fa09	-0.007506613
58	0x3ce68fb9	0.028144704
59	0x3bc763f7	0.006084915
60	0x3d82fa35	0.063953795
61	0xbc5846b1	-0.013200448
62	0xbcfb6fe5	-0.030693004
63	0x3bb4c35f	0.005516454
64	0xbd602dd7	-0.054731216
65	0xbd49adc7	-0.049237993
66	0xbd8fae57	-0.070156746
67	0xbd92902c	-0.07156405
68	0x3cd18370	0.02557537
69	0x3ddd0912	0.10792746
70	0xbcb6c9fa	-0.022313107
71	0x3dc4c666	0.09608154
72	0x3d8a1fdb	0.06744357
73	0xbca417e7	-0.020030929
74	0xbdafe131	-0.08587874
75	0xbd19c258	-0.037538856
76	0xbc8ffe6e	-0.017577376
77	0x3cbb2b76	0.022847872
78	0x3ddddea7	0.10833483
79	0xbd700577	-0.05859896
80	0xbd45d52b	-0.048298996
81	0xbae1989d	-0.001721162
82	0xbd5ac291	-0.05340821
83	0xbd991527	-0.074747376
84	0x3bd36eb8	0.0064524077
85	0x3d9d9fde	0.07696508
86	0xbdda1bbe	-0.10649823
87	0x3d2c1104	0.042008415
88	0x3d1eed22	0.038800366
89	0x39f881cd	0.00047398955
90	0x3d79e5df	0.061010238
91	0xbdd1aaf9	-0.102376886
92	0x3d6a752b	0.057240646
93	0xbd6f9c16	-0.058498465
94	0xbdbba6cd	-0.09162674
95	0xbde52f1c	-0.11190626
96	0xbd72a718	-0.059241384
97	0x3d90d8b4	0.07072583
98	0x3cacada1	0.021078886
99	0x3dd0d3dc	0.10196659
100	0x3d5277ea	0.05138389
101	0xbc51533b	-0.012776191
102	0x3d0d96b0	0.034567535
103	0xbcaef0dd	-0.021355087
104	0xbb95b012	-0.0045681084
105	0x3c83a593	0.016070163
106	0x3da1493b	0.07875296
107	0xbda01300	-0.07816124
108	0xbd4db371	-0.050219957
109	0xbd99a9fb	-0.07503124
110	0xbbc9d56d	-0.0061594755
111	0x3d838330	0.064215064
112	0xbd0fba93	-0.03509004
113	0x3c81aaf7	0.015828593
114	0x3d117e39	0.035520766
115	0x3cbf1860	0.023327053
116	0xbd1a8412	-0.03772361
117	0x3d571b2f	0.05251616
118	0xbce4e480	-0.027940989
119	0xbd9a6ceb	-0.07540306
120	0x3c9c2bd6	0.019063871
121	0xbdc283bd	-0.09497783
122	0xbb974c04	-0.004617216
123	0x3d8bd96b	0.068285786
124	0xbd5fe7af	-0.05466431
125	0x3cb89330	0.022531122
126	0x3dd06d0e	0.101770505
127	0xbcf475bd	-0.029841298
128	0x3dd78f65	0.10525397
129	0xbda3ab17	-0.07991617
130	0xbd7c0c6d	-0.061535288
131	0x3d4950e9	0.049149428
132	0x3d9eea5f	0.077595465
133	0xbd5867af	-0.052833255
134	0xbc9e259b	-0.019305041
135	0xbd930693	-0.07178988
136	0xbdaaed3e	-0.083460316
137	0xbda66fed	-0.08126817
138	0x3d67f18c	0.05662684
139	0xbd5801ed	-0.05273621
140	0x39660c4a	0.00021939087
141	0x3cbc521a	0.022988368
142	0x3dbd9596	0.09257047
143	0xbd92e71f	-0.07172989
144	0xbc25d28d	-0.010121
145	0xbd8f1514	-0.06986442
146	0xbd61d143	-0.05513121
147	0x3d5d3c8d	0.054012824
148	0xbc4ceab4	-0.012507129
149	0xbb9de561	-0.004818604
150	0x3d997ca4	0.074944764
151	0x3d4d2ebb	0.050093394
152	0x3c8acefc	0.016944401
153	0xbc7fa033	-0.015602159
154	0x3c9684b8	0.018373832
155	0xbd175f2b	-0.036955994
156	0x3d348d3b	0.04408
157	0xbd9819bb	-0.07426783
158	0x3d441351	0.047869984
159	0x3d6aba18	0.05730638
160	0x3d646c79	0.05576751
161	0x3c786436	0.015160611
162	0xbcf7494e	-0.030186322
163	0x3acf4257	0.0015812617
164	0xbd0d08b4	-0.034432128
165	0xbd08009c	-0.033203706
166	0xbc62788b	-0.013822685
167	0xbd7a1aa5	-0.061060566
168	0x3cbee1d3	0.02330104
169	0xbd027ce2	-0.03185738
170	0xbdf6cd08	-0.12050825
171	0x3c98ec27	0.018667294
172	0xbd0a5f87	-0.03378251
173	0x3ce93805	0.028469095
174	0xbd9d307b	-0.076752625
175	0x3ca2ee5e	0.019889053
176	0xbda502fc	-0.0805721
177	0xbddae8dd	-0.106889464
178	0x3c990ded	0.018683398
179	0x3d8a20b0	0.06744516
180	0xbde67f4a	-0.11254747
181	0x3cb20d91	0.021734985
182	0xbdac35a1	-0.084086664
183	0xbd869ce0	-0.0657289
184	0x3c72bb51	0.0148151675
185	0x3cd50bb1	0.026006551
186	0x3c9ef98a	0.019406099
187	0xbd5d5895	-0.054039557
188	0x3d6538b7	0.05596229
189	0x3d695e0f	0.056974467
190	0x3d6e5cf2	0.05819411
191	0xbdad5b1f	-0.084646456
192	0xbdefac8a	-0.11702831
193	0xbdbfe04d	-0.09368954
194	0x3d6907f0	0.056892335
195	0x3d56087d	0.05225419
196	0x3d1a9958	0.037743896
197	0x3cd77f27	0.026305748
198	0xbd9b2ead	-0.07577262
199	0xbd3b00d6	-0.045655094
200	0x3db2fc3c	0.08739516
201	0xbc0280de	-0.007965295
202	0x3d38b753	0.045096707
203	0x3d6fade6	0.05851545
204	0xbd0673bc	-0.032825217
205	0xbdaa29e2	-0.0830877
206	0xbd9f88b9	-0.0778975
207	0xbcd51785	-0.026012192
208	0x3b5f5727	0.0034079046
209	0xbd97083e	-0.07374619
210	0xbd10e637	-0.0353758
211	0xbc9e59a1	-0.019329848
212	0x3a6542ae	0.0008745593
213	0x3cf1b041	0.02950299
214	0xbdddf9c6	-0.10838656
215	0xbd822739	-0.063551374
216	0x3d82dd38	0.063898504
217	0xbde59161	-0.112093695
218	0x3c799579	0.015233391
219	0xbd51fb10	-0.051264822
220	0x3ca4ed0d	0.020132566
221	0x3b737c44	0.0037152926
222	0x3d450cc8	0.048107892
223	0x3cfb2d5f	0.030661283
224	0x3d38b2f5	0.04509254
225	0xbd4a5da3	-0.049405705
226	0x3d1a9d83	0.03774787
227	0x3c32ccf9	0.010913127
228	0x3da3c8cf	0.079972856
229	0xbd328cd9	-0.043591354
230	0x3d32c7cb	0.04364757
231	0x3d901fd6	0.07037322
232	0x3cdceb1a	0.026967574
233	0xbd1a530a	-0.03767685
234	0xbd52271b	-0.051306825
235	0x3bc7405b	0.00608067
236	0x3cc87c5d	0.024473364
237	0xbda71e52	-0.0816008
238	0xbd9afb73	-0.075674914
239	0xbde79b48	-0.113089144
240	0xbbafa909	-0.0053607267
241	0x3dea96a2	0.11454512
242	0x3d51eac5	0.051249284
243	0x3be8a549	0.0070997817
244	0x3def31ea	0.11679442
245	0xbd983a9d	-0.074330546
246	0x3da44f1f	0.08022904
247	0x3ce9ebb3	0.028554773
248	0xbc266e7b	-0.0101581765
249	0xbcbdef58	-0.023185417
250	0x3d2c0261	0.041994456
251	0x3d5538df	0.05205619
252	0x3d0d6fe6	0.034530543
253	0xbc9c3b97	-0.019071383
254	0x3cc11580	0.023569822
255	0x3d7eaa59	0.062174175

net_container.4.bias f4 [64]
0	0xbdef3240	-0.11679506
1	0xbd6a17f3	-0.057151746
2	0x3db7c86e	0.08973776
3	0x3c15848a	0.009125838
4	0xbda049eb	-0.07826599
5	0xbc34b602	-0.011029722
6	0xbd1f165d	-0.038839687
7	0xbe038e1d	-0.1284718
8	0xbe07d853	-0.13266115
9	0x3da9fb64	0.08299902
10	0x3d9f9e7e	0.07793902
11	0xbc3038e1	-0.0107557485
12	0x3ccef8ad	0.025265062
13	0xbdae3f87	-0.08508211
14	0xbd089831	-0.033348266
15	0x3dce3f9d	0.10070727
16	0xbc23f951	-0.010008172
17	0x3d3c140a	0.04591755
18	0x3dbbd06c	0.09170613
19	0x3dea4a8f	0.11440002
20	0xbda44d5a	-0.08022566
21	0x3c8e2167	0.017349912
22	0xbdd1da33	-0.10246696
23	0x3c9ec139	0.019379245
24	0x3d41f75c	0.04735504
25	0xbda3d82b	-0.08000215
26	0x3ccb3454	0.024805225
27	0xbd00c5ac	-0.031438515
28	0xbd7f7e0c	-0.062376067
29	0x3aa6ab75	0.0012715893
30	0xbb17a8bc	-0.0023141345
31	0x3d981ab6	0.0742697
32	0xbd34af68	-0.044112593
33	0xbccb42c2	-0.024812106
34	0x3d76e4d9	0.06027684
35	0xbc9e0248	-0.019288197
36	0xbddf51e2	-0.1090429
37	0x3d71828a	0.058962382
38	0x3cbb33b4	0.022851802
39	0x3b901712	0.0043972814
40	0x3ca30c93	0.019903457
41	0x3d14099d	0.03614198
42	0x3bd5bd87	0.0065228376
43	0xbe234dcf	-0.1594765
44	0xbd2754af	-0.040852245
45	0x3c0ea8e4	0.008707259
46	0xbd210020	-0.03930676
47	0xbd94366b	-0.07236942
48	0x3d53a7ad	0.05167358
49	0x3e16556a	0.1468102
50	0x3dc318bb	0.09526201
51	0x3afeb858	0.0019433601
52	0xbd2d277c	-0.042273983
53	0xbdcc4ca8	-0.099755585
54	0xbddd23c7	-0.107978396
55	0xbc41ec31	-0.011836098
56	0x3b15d0f6	0.0022860146
57	0x3d30364d	0.043020535
58	0xbd77af36	-0.06046983
59	0x3d401dd7	0.046903457
60	0x3d845c5f	0.06462931
61	0xbd1b6e08	-0.03794673
62	0xbdd945c6	-0.10609011
63	0xbdb982a7	-0.09058123

policy_layer.weight f4 [8, 64]
0	0xbd31d612	-0.043417044
1	0x3c30e89b	0.010797645
2	0xbc76fb56	-0.015074572
3	0xba0d2f7d	-0.00053857994
4	0xbe0093b4	-0.12556344
5	0x3e0b9b07	0.13633357
6	0x3d0788ce	0.03308945
7	0xbe63f83a	-0.2226266
8	0xbcb12dce	-0.021628287
9	0x3dcaa005	0.098938026
10	0xbdb2d84b	-0.08732661
11	0x3db2a20b	0.087223135
12	0x3e105a17	0.14096867
13	0x3d0f7feb	0.0350341
14	0x3c412702	0.011789085
15	0x3e029b5f	0.12754582
16	0x3b168362	0.0022966494
17	0xbc6afdc1	-0.014342726
18	0x3dfc628e	0.12323485
19	0x3d1c0976	0.03809496
20	0x3d80f1da	0.062961295
21	0x3cc3c9b6	0.023899894
22	0x3dd058ee	0.10173212
23	0xbdebf831	-0.11521948
24	0xbd0e6801	-0.034767155
25	0x3c70dd3b	0.014701183
26	0x3d380522	0.04492677
27	0x3d16f610	0.036855757
28	0x3e3305ce	0.17482683
29	0x3da643e3	0.08118417
30	0xbd42808c	-0.047485873
31	0x3dbabcb9	0.09118027
32	0xbdcb9d88	-0.09942156
33	0x39d4c4c1	0.00040582384
34	0x3d848bc9	0.064719744
35	0xbe01902b	-0.12652652
36	0x3e164947	0.1467639
37	0x3dbd60b7	0.092469625
38	0xbc47d339	-0.0121963555
39	0x3d91d2d5	0.07120291
40	0xbc3e8892	-0.011629241
41	0x3d58ced2	0.052931614
42	0xbdd978e4	-0.10618761
43	0x3e0f5858	0.13998544
44	0xbda8eb2c	-0.082479805
45	0xbe18ae07	-0.14910136
46	0x3d59cd93	0.053174566
47	0x3d47ed37	0.04881021
48	0x3c693c66	0.0142355915
49	0x3d46bd10	0.048520148
50	0xbdd5d4c8	-0.104409754
51	0x3b7176c4	0.0036844471
52	0x3b495e24	0.0030726278
53	0x3ddd6e9d	0.108121134
54	0x3d657752	0.056021996
55	0x3c8f290f	0.017475633
56	0xbd9b7cea	-0.07592185
57	0x3dbec86a	0.0931557
58	0x3d2247ff	0.039619442
59	0x3d9bd951	0.07609809
60	0x3d027f05	0.031859417
61	0x3dcb298b	0.09920033
62	0x3d062a3b	0.032755118
63	0xbde19354	-0.11014429
64	0x3dd3cd02	0.103418365
65	0xbcd776f9	-0.026301848
66	0xbde942d0	-0.113896966
67	0x3c8ac555	0.016939798
68	0xbbf3269f	-0.0074203755
69	0xbcac730a	-0.021050949
70	0xbdd0caef	-0.101949565
71	0x3d92d802	0.071701065
72	0x3dc2340e	0.09482585
73	0xbdcdfb2b	-0.10057672
74	0x3c0bce36	0.008533051
75	0x3ab36049	0.0013685311
76	0x3e0ed3ed	0.13948031
77	0xbc66fd0e	-0.014098419
78	0xba253617	-0.00063023105
79	0xbd15fa80	-0.03661585
80	0xbdb6c268	-0.08923799
81	0x3dd9f4bb	0.10642382
82	0x3de533a8	0.11191493
83	0xbddf8346	-0.1091371
84	0x3e3a2011	0.18176295
85	0xbd55d8e3	-0.052208792
86	0x3dc91eef	0.09820353
87	0x3dba536c	0.09097943
88	0xbd24ed05	-0.040265102
89	0x3e07c9e6	0.13260612
90	0x3e180cea	0.14848676
91	0xbbff4c14	-0.0077910516
92	0x3c90d793	0.017680919
93	0x3e24adde	0.1608195
94	0xbdb07e48	-0.08617836
95	0xbca59962	-0.02021474
96	0x3e26260a	0.16225448
97	0x3df76e71	0.12081612
98	0xbd976d8e	-0.07393943
99	0xbdc0e67b	-0.09418961
100	0x3d06a7ac	0.032874748
101	0xbc22bb5c	-0.009932365
102	0x3cd94ef3	0.026526904
103	0x3dd985e1	0.106212385
104	0x3cda511a	0.02665
105	0xbd85b2ea	-0.06528266
106	0x3df679c3	0.12034943
107	0x3de68497	0.11255758
108	0xbdcd67dd	-0.10029576
109	0xbd6d729d	-0.057970632
110	0x3dc714aa	0.09720738
111	0x3e012f21	0.12615635
112	0x3d16b793	0.036796164
113	0xbc0c4c27	-0.008563078
114	0xbc71fb07	-0.014769322
115	0x3d0b0786	0.03394272
116	0xbdf4b4c2	-0.11948539
117	0x3ddc18f8	0.1074695
118	0xbc9e0525	-0.019289562
119	0x3d71c852	0.05902893
120	0xbc84a135	-0.01619015
121	0xbe0bf12c	-0.13666219
122	0xbc071be6	-0.008246398
123	0x3af0b050	0.0018363092
124	0xbd3d5182	-0.04622031
125	0xbdc6f2d0	-0.097142816
126	0x3d2c11b0	0.042009056
127	0xbdd54cde	-0.10415052
128	0xbd195678	-0.03743598
129	0x3dd79cc1	0.10527945
130	0x3d90129c	0.070347995
131	0xbde6b438	-0.11264843
132	0xbdeb7416	-0.11496751
133	0x3e1c2339	0.15247811
134	0x3c0c6d23	0.008570942
135	0x3ce68729	0.028140621
136	0xbd451ed3	-0.0481251
137	0xba01ac18	-0.00049466034
138	0xbdf9046b	-0.12159046
139	0xbd76e0c6	-0.060272954
140	0xbe052c42	-0.13005164
141	0xbe05bf79	-0.13061322
142	0xb9dc6931	-0.00042040044
143	0xbdcf211d	-0.10113738
144	0x3b92fb74	0.004485542
145	0xbcb70f2f	-0.022346107
146	0x3e0f6b83	0.14005856
147	0xbd66d83f	-0.056358572
148	0x3db4234e	0.08795796
149	0x3d4750c9	0.048661027
150	0x3d80aad8	0.06282586
151	0x3df253a5	0.1183236
152	0xbb94abbf	-0.0045370753
153	0x3e20a723	0.15688758
154	0x3e174f80	0.1477642
155	0x3d012f3c	0.031539187
156	0x3d8c0fd0	0.068389535
157	0xbc3c310a	-0.011486301
158	0xbd38453a	-0.044987895
159	0xbd9c0b8f	-0.07619392
160	0x3dbb914c	0.091585726
161	0x3db6c454	0.08924165
162	0xbd46c7e8	-0.04853049
163	0xbd8f5c69	-0.07000048
164	0x3e213b1f	0.15745209
165	0xbdd8c5de	-0.10584615
166	0x3e14afff	0.14520262
167	0x3cfad0c1	0.03061712
168	0xbd5eaa72	-0.054361768
169	0xbda00be1	-0.07814766
170	0xbd879d3a	-0.066217855
171	0xba82a826	-0.0009968325
172	0x3ca6904e	0.020332482
173	0x3de4e43a	0.11176343
174	0xbceab346	-0.028649937
175	0x3d875908	0.06608778
176	0xbbbc6de9	-0.005750407
177	0x3cdf4a62	0.027257148
178	0xbdcfa827	-0.101394944
179	0xbdabd451	-0.083901055
180	0x3ca02918	0.019550845
181	0x3d5fb8b7	0.054619517
182	0x3cc9a01a	0.024612475
183	0x3e18a7ce	0.14907762
184	0xbe0ed090	-0.13946748
185	0xbe03cbd0	-0.12870717
186	0xbdc9a785	-0.09846405
187	0x3e199151	0.1499684
188	0xbdfd6168	-0.123720944
189	0x3d52a776	0.051429234
190	0xbd8359ec	-0.064136356
191	0x3d227a53	0.03966744
192	0x3cef2442	0.029192094
193	0xbd078392	-0.03308446
194	0x3ca86182	0.020554308
195	0xbd56caf1	-0.052439634
196	0x3db92701	0.090406425
197	0x3e20324c	0.15644187
198	0xbd79cbb7	-0.060985293
199	0xbe2e1034	-0.16998369
200	0xbe08284c	-0.13296622
201	0xbdd66ae3	-0.10469606
202	0x3c9af693	0.018916404
203	0x3cfa31d9	0.030541347
204	0xbd93f297	-0.07224005
205	0x3daef3a5	0.08542565
206	0x3c889730	0.016673654
207	0xbe114947	-0.1418811
208	0xbdecda4f	-0.115650766
209	0x3df3ff84	0.1191397
210	0xbd0d1300	-0.034441948
211	0x3d9f14b6	0.07767622
212	0x3deb213b	0.114809476
213	0x3d9430c0	0.07235861
214	0x3dcd64c7	0.100289874
215	0x3cea36b7	0.028590543
216	0xbdd76fe7	-0.105193906
217	0xbc8ad57f	-0.016947506
218	0x3d1b5c6d	0.03792994
219	0xbdcf2bf0	-0.10115802
220	0xbc986cce	-0.01860657
221	0xbd9f7de5	-0.07787684
222	0xbcc20737	-0.02368508
223	0x3dad3315	0.08457009
224	0x3df2dbf1	0.11858357
225	0x3d613e7d	0.054991234
226	0xbd31fc1a	-0.043453313
227	0x3c2d73ee	0.010586722
228	0x3cb26162	0.021774951
229	0x3d9497b0	0.072554946
230	0x3db69a6b	0.08916172
231	0x3e1b1539	0.15144815
232	0x3c63fabc	0.01391476
233	0x3d2aad13	0.041668963
234	0x3d399685	0.045309562
235	0x3e051afc	0.12998575
236	0xbe1201c0	-0.1425848
237	0x3c950e29	0.018195229
238	0xbda4f48d	-0.08054457
239	0x3cf4cef2	0.029883835
240	0xbe12622a	-0.14295259
241	0xbd8e06be	-0.0693488
242	0xbd3c4759	-0.04596648
243	0xbd32e5a5	-0.043676037
244	0x3e0eacb7	0.13933073
245	0x3d437150	0.047715485
246	0xbd306871	-0.043068353
247	0xbcd4d761	-0.025981607
248	0x3d232d40	0.039838076
249	0x3cc3506a	0.023842055
250	0x3d2d2237	0.042268958
251	0x3e10df78	0.14147747
252	0x3c3e5ef6	0.01161932
253	0x3cefe556	0.02928416
254	0xbce0e04b	-0.027450701
255	0x3dc88967	0.097918324

policy_layer.bias f4 [8]
0	0xbc33ca28	-0.010973491
1	0xbdd0067c	-0.10157487
2	0xbd89a835	-0.06721536
3	0xbd31298d	-0.043252517
4	0xbaffea36	-0.0019524756
5	0xbdb81f73	-0.089903735
6	0xbdfb3b3c	-0.122671574
7	0x3d0acd08	0.03388694

value_layer.weight f4 [1, 64]
0	0x3c0bf8f8	0.0085432455
1	0x3cf71578	0.030161604
2	0xbb92d23e	-0.004480629
3	0x3a099e8b	0.000524976
4	0xbd979008	-0.07400519
5	0x3ce19e19	0.027541207
6	0xbd1733d2	-0.036914654
7	0x3b9e5df9	0.0048329798
8	0xbcb3ccbd	-0.021948213
9	0x3c959d27	0.018263413
10	0xbd993b7e	-0.0748205
11	0xbcfe28ed	-0.031025374
12	0x3d2add7a	0.041715123
13	0xbd2c1f80	-0.04202223
14	0xbd14fdab	-0.03637473
15	0xbd424b9b	-0.047435384
16	0x3bb48ae8	0.005509723
17	0xbd6d4643	-0.057928335
18	0x3df1bfd6	0.11804168
19	0x3d0ed177	0.03486773
20	0xbd7956b5	-0.060873706
21	0x3d7fdfeb	0.062469404
22	0x3d91f282	0.07126333
23	0x3e08923f	0.13337038
24	0x3d7bfc9e	0.06152021
25	0x3dd76191	0.10516656
26	0xbd4adbbf	-0.049525972
27	0xbdbe1ec1	-0.092832096
28	0xbd079688	-0.033102542
29	0x3b90fe12	0.004424819
30	0x3dcea4f5	0.10090057
31	0x3d910935	0.07081834
32	0x3d1468d7	0.036232796
33	0x3d37b2ce	0.044848256
34	0x3d7c5439	0.06160376
35	0x3c669265	0.014072989
36	0xbd9742ae	-0.07385765
37	0x3c5fc636	0.013658097
38	0xbd3290b2	-0.043595023
39	0xbd06649a	-0.032810785
40	0xbb74c5a3	-0.0037349246
41	0x3d84f4e9	0.064920254
42	0xbd0890a7	-0.033341076
43	0xbcfc7ea4	-0.030822106
44	0x3db645b9	0.08900017
45	0xbd7fa814	-0.06241615
46	0x3d9fb648	0.07798439
47	0xbca7ed48	-0.020498887
48	0xbd9898ba	-0.07451005
49	0x3cbe15b0	0.0232037
50	0x3d9987b5	0.07496587
51	0x3a0eae5f	0.00054428534
52	0xbd54151b	-0.05177794
53	0xbcfcc27f	-0.030854462
54	0xbdac6b39	-0.084188886
55	0xbd9354a6	-0.0719388
56	0xbd57b150	-0.052659333
57	0xbbdadd51	-0.006679215
58	0x3c8f561d	0.017497117
59	0x3bf33130	0.007421635
60	0x3d1789bf	0.0369966
61	0x3d768dc2	0.060193785
62	0xbdc6071c	-0.09669325
63	0xbd862d27	-0.06551581

log_std_parameter f4 [8]
0	0xc05f1a28	-3.4859715
1	0xc043702e	-3.053722
2	0xc059fa99	-3.4059203
3	0xc05f832a	-3.4923806
4	0xc082f05e	-4.0918417
5	0xc07150d3	-3.770558
6	0xc0881a6c	-4.2532253
7	0xc03fec28	-2.9987888

net_container.0.weight f4 [256, 45]
0	0x3c86751e	0.016413268
1	0xbe5bf596	-0.21480402
2	0x3b7d46af	0.0038646867
3	0xbd9eb988	-0.07750231
4	0xbe0b30c8	-0.13592827
5	0x3d3320f4	0.0437326
6	0x3dcded95	0.10055081
7	0xbc04fbdb	-0.008116688
8	0x3ca830b7	0.020531042
9	0xbdc629c5	-0.09675936
10	0xbd3fd3fb	-0.04683302
11	0x3dc0a7ff	0.09407043
12	0x3d7ba2b5	0.061434466
13	0xbe32803e	-0.17431733
14	0xbd0d0287	-0.03442624
15	0xbda87b19	-0.08226604
16	0x3dfb305f	0.122650854
17	0xbdba93f1	-0.09110249
18	0xbc25414b	-0.010086368
19	0xbdccdca0	-0.100030184
20	0xbe1bcb3c	-0.15214247
21	0x3df5277e	0.11970423
22	0x3e11973c	0.14217848
23	0xbdbe56b3	-0.0929388
24	0xbd95af2a	-0.073088005
25	0xbbaf343a	-0.005346802
26	0xbdd9495e	-0.10609697
27	0x3c2dcf0a	0.010608444
28	0x3e1fa518	0.15590322
29	0xbdbc3f53	-0.09191766
30	0xbe3d637c	-0.18494982
31	0x3c55fccf	0.013060763
32	0x3d9b2abe	0.07576512
33	0xbdecdc70	-0.115654826
34	0xbdc7c346	-0.09754042
35	0x3e0b2b85	0.1359082
36	0xbd721451	-0.059101406
37	0xbd7a027e	-0.061037533
38	0xbe164d93	-0.1467803
39	0x3dc0d447	0.09415489
40	0x3d70a7bc	0.058753714
41	0xbbc4d599	-0.006006908
42	0x3dfe2012	0.12408461
43	0x3d076000	0.033050537
44	0x3dace23c	0.08441588
45	0x3d7aef2e	0.061263256
46	0xbdc84e7b	-0.09780594
47	0x3d5f84e3	0.05457009
48	0xbe1a07e3	-0.15042071
49	0x3d58982e	0.052879505
50	0xbded5890	-0.115891576
51	0x3e2ef83d	0.17086883
52	0x3e15c250	0.14624906
53	0x3de5e3b7	0.11225074
54	0xbd332a99	-0.043741796
55	0xbdd413b8	-0.103553236
56	0x3daea4a8	0.085274994
57	0xbd112fb2	-0.035445876
58	0xbdcf7e07	-0.1013146
59	0x3e491fb5	0.19641002
60	0xbc804ac7	-0.015660657
61	0xbd9c77c2	-0.076400295
62	0xbe16ec29	-0.14738525
63	0xbda67bbf	-0.081290714
64	0xb96db85e	-0.00022670763
65	0xbc2d7a2f	-0.010588213
66	0xbc116619	-0.00887444
67	0xbd2416bd	-0.040060747
68	0x3d9f4e43	0.07778599
69	0xbd8bee0c	-0.06832513
70	0x3c149029	0.009067574
71	0x3d80b299	0.06284065
72	0xbdd49e83	-0.10381796
73	0xbdfd1701	-0.12357903
74	0x3e8267c6	0.25469798
75	0xbd5b8c70	-0.05360073
76	0xbd0bd683	-0.03414012
77	0xbc2984bc	-0.010346588
78	0x3db01438	0.085976064
79	0xbc59dc81	-0.013297201
80	0x3dd516da	0.10404749
81	0xbb343d3c	-0.002750232
82	0x3d53c8b7	0.05170509
83	0x3d507e04	0.050901428
84	0x3e0126fb	0.12612526
85	0xbd842ea1	-0.06454206
86	0xbd966a37	-0.073444776
87	0xbd8c056b	-0.06836971
88	0x3daecd54	0.08535257
89	0xbdbf6c7c	-0.093468636
90	0x3e20c39f	0.15699624
91	0x3e134a94	0.14383918
92	0xbd46cd47	-0.04853561
93	0x3de737db	0.112899505
94	0x3d39ea13	0.045389246
95	0xbde040a6	-0.10949831
96	0xbc0aa9b7	-0.008463315
97	0x3da68393	0.081305645
98	0xbe0bdee5	-0.13659246
99	0x3d1337d6	0.03594192
100	0xbdc5748d	-0.09641371
101	0x3e27eaf1	0.16398217
102	0xbcf19d83	-0.029494053
103	0xbde289d6	-0.11061446
104	0xbd5d8c61	-0.054088954
105	0xbdae61fe	-0.08514784
106	0x3c33f9a3	0.010984811
107	0x3e1c7f0f	0.15282844
108	0x3dd5b7e7	0.10435467
109	0x3dc8a6eb	0.09797462
110	0xbdd9338a	-0.106055334
111	0xbd9d45b0	-0.076793075
112	0x3de4898c	0.111590475
113	0x3d7b8683	0.061407577
114	0x3da1a3dc	0.07892582
115	0x3dc6d75f	0.097090475
116	0x3e1671ae	0.14691803
117	0x3a87bfce	0.0010356845
118	0x3dffe0bd	0.12494037
119	0x3d0d72bf	0.03453326
120	0xbd7479e5	-0.05968656
121	0x3bb4e011	0.005519875
122	0x3de15d3d	0.11004112
123	0x3c8907d8	0.016727373
124	0xbdc69b57	-0.096975975
125	0xbcfd4064	-0.030914493
126	0x3de85873	0.11344995
127	0xbc24f512	-0.010068195
128	0x3dbc289f	0.09187435
129	0xbd62abeb	-0.055339735
130	0x3df3097c	0.118670434
131	0xbd957ea5	-0.07299546
132	0xbd93e080	-0.07220554
133	0xbda93d0a	-0.082635954
134	0xbdb0965b	-0.08622428
135	0xbe2b6677	-0.16738306
136	0xbcbf50e8	-0.023354009
137	0x3d6c2033	0.057647895
138	0x3d1f7529	0.038930092
139	0x3e365273	0.1780489
140	0x36dc5ef4	6.567565e-06
141	0x3c86733e	0.016412374
142	0x3b0449b6	0.0020185537
143	0xbe6ac4cd	-0.22926636
144	0xbdbc30d3	-0.09189
145	0xbe158547	-0.14601623
146	0x3e0f64da	0.14003316
147	0x3e15336c	0.14570397
148	0xbc15c6f2	-0.009141671
149	0xbe394553	-0.18092851
150	0x3d260cb4	0.04053946
151	0x3d157abf	0.036494013
152	0x3e1fdfab	0.15612666
153	0xbe195eea	-0.14977613
154	0xbd1113c7	-0.03541925
155	0x3d32a3ab	0.043613117
156	0x3dc4e7c6	0.0961452
157	0xbc98878e	-0.018619325
158	0x3dbb020c	0.0913125
159	0xbdec9715	-0.11552254
160	0x3c04a783	0.0080965785
161	0x3b6e881f	0.0036397052
162	0xbd0ae291	-0.033907477
163	0x3d4e2a4d	0.05033331
164	0x3d71ea92	0.059061594
165	0x3dbdd063	0.09268262
166	0xbe084c41	-0.13310339
167	0xbd7293e4	-0.05922307
168	0x3dca7453	0.09885468
169	0x3e025eb3	0.12731437
170	0x3dd27e6f	0.102780215
171	0x3dec5463	0.11539533
172	0x3d48389b	0.04888211
173	0xbda5445b	-0.080696784
174	0xbb8a7cef	-0.004226319
175	0x3e3cdfb7	0.18444715
176	0xbcc4692e	-0.023975935
177	0x3c70253f	0.014657318
178	0xbdd592e4	-0.10428408
179	0xbd8b829a	-0.0681202
180	0xbd627491	-0.055286948
181	0x3d639dd0	0.055570424
182	0x3c384696	0.011247298
183	0x3d8c9ae3	0.0686548
184	0xbe4194c6	-0.18904409
185	0xbd31ad8d	-0.0433784
186	0x3d4d653d	0.050145376
187	0xbd05a64b	-0.032629292
188	0x3d312a34	0.04325314
189	0x3df22094	0.1182262
190	0x3cfc423f	0.030793307
191	0xbdda7c74	-0.10668269
192	0x3cfb1607	0.030650152
193	0x3e3c7d24	0.18407112
194	0xbd7667a0	-0.06015742
195	0xbbd44e94	-0.006479094
196	0x3ded0eb4	0.1157507
197	0x3cec3302	0.028832916
198	0x3d09dd86	0.033658527
199	0xbdfe6e9d	-0.124234416
200	0x3e27881f	0.1636052
201	0xba0aba93	-0.0005292084
202	0xbca39c55	-0.019972006
203	0x3a20722c	0.00061205286
204	0xbdddf4e5	-0.108377255
205	0x3deeb80b	0.11656197
206	0xbd853f12	-0.0650617
207	0xbd5092d4	-0.050921276
208	0x3c0e5a50	0.008688524
209	0xbd00647f	-0.03134584
210	0xbdcead61	-0.10091663
211	0x3d0ab80a	0.03386692
212	0xbd905912	-0.07048239
213	0x3e2a2c84	0.16618544
214	0xbd97ebab	-0.07417997
215	0x3ddd5113	0.10806479
216	0x3dbc9d15	0.092096485
217	0x3de4e2d1	0.11176074
218	0xbdf2528a	-0.11832149
219	0x3e14ac2b	0.14518802
220	0xbd1031bf	-0.03520369
221	0x3d0cbbf7	0.034358945
222	0x3e25bad2	0.16184548
223	0xbe1666ce	-0.14687654
224	0xbbddbb6f	-0.0067667286
225	0xbda98883	-0.08277991
226	0xbe0db1cf	-0.1383736
227	0xbd395361	-0.045245532
228	0xbc1954b7	-0.0093585765
229	0xbdce9e56	-0.10088794
230	0x3d70ba29	0.058771286
231	0x3de4ae95	0.111661114
232	0x3e12ccff	0.14336012
233	0x3cbe2bac	0.023214184
234	0xbd468150	-0.048463166
235	0xbd7c9a1d	-0.06167041
236	0xbdc7f054	-0.09762636
237	0xbdf257fd	-0.11833189
238	0x3d113d46	0.035458826
239	0xbd18a604	-0.0372677
240	0xbda7ae76	-0.08187573
241	0x3d86d16d	0.065829135
242	0xbcc0ef38	-0.023551568
243	0x3e2465fd	0.1605453
244	0x3d2c2b9e	0.042033784
245	0x3cedf19a	0.029045869
246	0xbdb9b606	-0.09067921
247	0xba917134	-0.0011096359
248	0xbbad9f71	-0.005298548
249	0xbd9bcd75	-0.07607547
250	0x3dd8ead0	0.10591662
251	0x3e1122f3	0.14173488
252	0x3dfe69eb	0.12422546
253	0x3d34d8e7	0.044152167
254	0x3cd3621a	0.025803614
255	0xbe2a2be9	-0.16618313
