CubeStackTask/logs/skrl/object_red_stack/2025-10-09_17-18-16_ppo_torch/checkpoints/agent_72000.pt (torch, 660141 bytes, 46 tensors)

log_std_parameter f4 [8]
0	0xc0622662	-3.5335927
1	0xc046cd75	-3.10629
2	0xc05ddee8	-3.46673
3	0xc062a56c	-3.5413465
4	0xc0841e14	-4.1286716
5	0xc076a41c	-3.8537664
6	0xc089abdd	-4.3022294
7	0xc042e5df	-3.0452802

net_container.0.weight f4 [256, 45]
0	0x3c8a6147	0.016892089
1	0xbe5c1445	-0.21492107
2	0x3b79b196	0.0038100234
3	0xbd9de97d	-0.0771055
4	0xbe0b6a03	-0.13614659
5	0x3d31a53e	0.043370478
6	0x3dce348c	0.10068616
7	0xbc062665	-0.008187865
8	0x3cac5928	0.021038607
9	0xbdc67df1	-0.0969199
10	0xbd3f1c31	-0.046657745
11	0x3dbfb1c1	0.09360076
12	0x3d798ac1	0.06092334
13	0xbe32f1a8	-0.17474997
14	0xbd0ca3d9	-0.034335945
15	0xbda8ced2	-0.08242573
16	0x3dfaf9d8	0.12254685
17	0xbdb814ce	-0.08988343
18	0xbc1a52fc	-0.009419199
19	0xbdcca6b6	-0.09992735
20	0xbe1ba13f	-0.15198229
21	0x3df5aace	0.11995469
22	0x3e10fc1d	0.14158674
23	0xbdbd79c9	-0.09251744
24	0xbd9511a4	-0.07278755
25	0xbbc6e1c9	-0.006069396
26	0xbdd7c423	-0.10535457
27	0x3c325439	0.010884338
28	0x3e1fde31	0.15612103
29	0xbdbdb3ca	-0.09262808
30	0xbe3ddc0c	-0.18540972
31	0x3c662ccd	0.014048767
32	0x3d9b38b5	0.075791754
33	0xbded0220	-0.11572671
34	0xbdc7cb90	-0.09755623
35	0x3e0b523b	0.13605587
36	0xbd721af1	-0.059107725
37	0xbd76d4af	-0.060261425
38	0xbe1596eb	-0.14608352
39	0x3dc0f841	0.09422351
40	0x3d730a82	0.059336193
41	0xbba16455	-0.0049252906
42	0x3dffdc89	0.124932356
43	0x3d06b8dc	0.03289114
44	0x3dad18c3	0.084519885
45	0x3d8100c1	0.06298972
46	0xbdc8f23e	-0.09811829
47	0x3d62046a	0.05517999
48	0xbe1a193a	-0.15048686
49	0x3d57166b	0.052511614
50	0xbdee8115	-0.11645714
51	0x3e30a920	0.17252016
52	0x3e16abcb	0.14713971
53	0x3dea050b	0.11426743
54	0xbd33f882	-0.043938167
55	0xbdd29616	-0.10282533
56	0x3dae44ea	0.08509238
57	0xbd102aff	-0.035197254
58	0xbdd10291	-0.10205568
59	0x3e4aaede	0.19793269
60	0xbc81dc41	-0.015852096
61	0xbd9d05f8	-0.07667154
62	0xbe161f02	-0.14660266
63	0xbda9d33c	-0.08292243
64	0xba8c8ff2	-0.0010724051
65	0xbc2f411a	-0.010696674
66	0xbc28315a	-0.010265673
67	0xbd216bcf	-0.039409455
68	0x3d9fee05	0.078090705
69	0xbd86513f	-0.06558465
70	0x3c43a0ef	0.011940225
71	0x3d8660a2	0.065614
72	0xbdd87136	-0.10568468
73	0xbdfe3584	-0.12412551
74	0x3e81f480	0.2538185
75	0xbd5db28a	-0.054125346
76	0xbd0d40c9	-0.034485612
77	0xbc3420e1	-0.010994167
78	0x3dab807d	0.083741166
79	0xbc3d3582	-0.011548402
80	0x3dd3fec6	0.103513286
81	0xbb403449	-0.002932804
82	0x3d59844f	0.053104695
83	0x3d535124	0.051591054
84	0x3e0209c1	0.12699033
85	0xbd835484	-0.064126045
86	0xbd948501	-0.07251931
87	0xbd8b18bd	-0.06791828
88	0x3dae6919	0.085161395
89	0xbdbede45	-0.09319738
90	0x3e2163b5	0.15760691
91	0x3e137b9c	0.14402622
92	0xbd463185	-0.04838707
93	0x3de84770	0.113417506
94	0x3d3bd023	0.04585279
95	0xbde00b44	-0.10939649
96	0xbc0496a3	-0.008092555
97	0x3da514c9	0.08060605
98	0xbe0b4ab6	-0.13602719
99	0x3d12a35c	0.035800323
100	0xbdc56c69	-0.09639818
101	0x3e28752d	0.16450949
102	0xbcedbf1b	-0.02902179
103	0xbde28d7f	-0.110621445
104	0xbd5bc7ba	-0.05365727
105	0xbdac05bc	-0.08399531
106	0x3c45f399	0.012082004
107	0x3e1ba16b	0.15198295
108	0x3ddb885c	0.10719368
109	0x3dcd7bd0	0.10033381
110	0xbdd78794	-0.10523906
111	0xbd9c66c5	-0.07636789
112	0x3de6d21f	0.11270546
113	0x3d81898a	0.063250616
114	0x3d9d578d	0.076827146
115	0x3dcdc4b3	0.10047283
116	0x3e15d9f2	0.14633921
117	0x3b59396d	0.00331458
118	0x3e000dc0	0.12505245
119	0x3d080c3f	0.033214804
120	0xbd6f688f	-0.058449324
121	0x3b9321fc	0.0044901352
122	0x3de2ee58	0.11080617
123	0x3c65294d	0.013986898
124	0xbdcbffde	-0.09960912
125	0xbcff6e00	-0.031180382
126	0x3de8a7a4	0.113601
127	0xbc451488	-0.012028821
128	0x3dba6497	0.09101217
129	0xbd5fb336	-0.05461427
130	0x3df202b8	0.11816925
131	0xbd9a0af9	-0.07521624
132	0xbd8f0a67	-0.06984406
133	0xbda6e0c8	-0.08148342
134	0xbdb2d5a3	-0.08732154
135	0xbe2b82ae	-0.16749069
136	0xbcb8a19c	-0.022537999
137	0x3d6c5594	0.0576988
138	0x3d229108	0.039689094
139	0x3e370858	0.17874277
140	0x3a4e3b3b	0.00078671024
141	0x3c6a3edb	0.0142972125
142	0x3abcae65	0.0014395235
143	0xbe6adf79	-0.2293681
144	0xbdba547f	-0.090981476
145	0xbe157ff8	-0.14599597
146	0x3e1079d7	0.14108978
147	0x3e1561d1	0.14588095
148	0xbc0971da	-0.008388961
149	0xbe3b51e8	-0.18292964
150	0x3d254c97	0.040356245
151	0x3d150c37	0.036388602
152	0x3e1e63b5	0.15467723
153	0xbe1668e5	-0.14688452
154	0xbd12fa53	-0.03588326
155	0x3d311de1	0.043241385
156	0x3dc46d58	0.09591168
157	0xbc9f2005	-0.019424448
158	0x3dbc6885	0.09199623
159	0xbdf16a97	-0.117879085
160	0x3c172424	0.009224925
161	0xb8b4a025	-8.612898e-05
162	0xbd179ec6	-0.037016653
163	0x3d4f8c17	0.05067071
164	0x3d78b1bd	0.06071638
165	0x3dbabe6f	0.091183536
166	0xbe05e7ff	-0.1307678
167	0xbd70ae68	-0.058760077
168	0x3dcf508c	0.10122785
169	0x3e05d7a2	0.13070539
170	0x3dd319bf	0.10307645
171	0x3dea6f17	0.1144697
172	0x3d440715	0.047858316
173	0xbda62f0b	-0.081144415
174	0xbba08e3d	-0.0048997686
175	0x3e3b8f70	0.18316436
176	0xbcc3cf87	-0.023902668
177	0x3c5d2c51	0.013499335
178	0xbdd5f2a7	-0.10446673
179	0xbd8b4b31	-0.06801451
180	0xbd63f55f	-0.055653926
181	0x3d626636	0.055273257
182	0x3c361517	0.011113427
183	0x3d8bf492	0.068337575
184	0xbe41f2bf	-0.18940257
185	0xbd32c783	-0.0436473
186	0x3d4f5502	0.05061818
187	0xbd06f978	-0.032952756
188	0x3d2ed3a0	0.04268229
189	0x3df19b32	0.11797179
190	0x3cfb9dd1	0.030714901
191	0xbddbfd1c	-0.10741636
192	0x3cf79329	0.030221539
193	0x3e3c662b	0.18398349
194	0xbd749265	-0.059709925
195	0xbbe285fa	-0.006912944
196	0x3debfe0c	0.11523065
197	0x3cf016a6	0.029307675
198	0x3d07cffe	0.03315734
199	0xbdfc7b00	-0.12328148
200	0x3e27f239	0.16400994
201	0xb8f0984b	-0.000114724586
202	0xbcaee73a	-0.021350492
203	0x3adcaaf1	0.0016835612
204	0xbddc5d46	-0.10759978
205	0x3df1efe9	0.11813337
206	0xbd833516	-0.0640661
207	0xbd55c3cb	-0.052188676
208	0x3c1a231e	0.009407787
209	0xbcfa7b01	-0.030576231
210	0xbdd6e0da	-0.10492106
211	0x3d0502be	0.03247332
212	0xbd91c559	-0.07117719
213	0x3e29ee5b	0.16594832
214	0xbd9456ff	-0.07243156
215	0x3ddeec33	0.10884895
216	0x3dbdbea6	0.09264879
217	0x3de9e51c	0.11420652
218	0xbdef77ec	-0.11692795
219	0x3e14ab10	0.1451838
220	0xbd0dfb75	-0.034663636
221	0x3d1389b0	0.03601998
222	0x3e24ae85	0.16082199
223	0xbe16d8b4	-0.14731103
224	0xbbccad19	-0.006246221
225	0xbda8922c	-0.08231005
226	0xbe0d5cb1	-0.1380489
227	0xbd3933a1	-0.045215253
228	0xbc11c160	-0.008896202
229	0xbdcecd74	-0.10097781
230	0x3d70fd59	0.05883536
231	0x3de4bc81	0.11168767
232	0x3e130260	0.14356375
233	0x3cc20fbf	0.023689149
234	0xbd4609a8	-0.048349053
235	0xbd7c59ec	-0.061609194
236	0xbdc82f35	-0.09774629
237	0xbdf372f8	-0.11887163
238	0x3d107ea5	0.035277028
239	0xbd18ac03	-0.03727342
240	0xbda821f5	-0.08209602
241	0x3d865664	0.065594465
242	0xbcb5a5e4	-0.02217383
243	0x3e25a4b0	0.16176105
244	0x3d2c055a	0.04199729
245	0x3cf05184	0.029335745
246	0xbdb6e1b6	-0.0892977
247	0xba7d0729	-0.0009652251
248	0xbbbd818a	-0.0057832645
249	0xbd9b11dc	-0.07571766
250	0x3dd6fd57	0.104975395
251	0x3e1191c9	0.14215769
252	0x3dff981b	0.12480184
253	0x3d344aba	0.044016577
254	0x3cd0a839	0.02547084
255	0xbe2a0bb3	-0.16606025

net_container.0.bias f4 [256]
0	0x3e525191	0.20538928
1	0xbe09401f	-0.13403367
2	0x3d338f61	0.04383791
3	0x3c3c48de	0.011491982
4	0x3d300012	0.042968817
5	0x3d2feeef	0.042952474
6	0x3e1e3b12	0.15452221
7	0x3e0c1986	0.13681611
8	0x3daed286	0.08536248
9	0x3bba2241	0.005680353
10	0x3d189bc4	0.037257925
11	0xbd3d1998	-0.046166986
12	0x3d84c6fe	0.06483267
13	0xbd1fb3c4	-0.038989797
14	0x3e0d8ff0	0.13824439
15	0xbdc5c405	-0.096565284
16	0x3de3f072	0.11129846
17	0xbdef24e3	-0.116769575
18	0x3def5712	0.11686529
19	0x3d7457b0	0.059653938
20	0x3c64ec33	0.01397233
21	0x3d56a58e	0.05240398
22	0xbd8ea427	-0.06964903
23	0x3e380861	0.17971946
24	0x3db1fac4	0.08690408
25	0x3d4dee00	0.050275803
26	0xbd4cfa57	-0.05004343
27	0xbe539056	-0.20660529
28	0xbe026008	-0.12731946
29	0xbdcd4ce5	-0.10024432
30	0xbdaabe40	-0.083370686
31	0xbd0ccd41	-0.034375433
32	0x3e0595bd	0.13045402
33	0x3db7c51b	0.08973142
34	0x3ce66e64	0.02812881
35	0xbe452c3f	-0.1925516
36	0x3ddc056d	0.107432224
37	0xbc6e3bfd	-0.0145406695
38	0x3db93ca5	0.0904477
39	0xbdd53108	-0.104097426
40	0xbe352297	-0.17688976
41	0x3e1576c4	0.14596087
42	0xbdcab6ae	-0.09898125
43	0xbd53ec96	-0.051739298
44	0x3ca5506d	0.020179952
45	0xbd64955d	-0.055806506
46	0xbbc6d704	-0.0060681123
47	0xbdee179a	-0.116255954
48	0x3e026a5b	0.12735884
49	0x3d4c8f24	0.049941197
50	0xbd9dff07	-0.07714658
51	0xbd830b1a	-0.06398602
52	0xbdf90c48	-0.121605456
53	0xbd9ff851	-0.078110345
54	0xbe029776	-0.1275309
55	0xbd8c78d5	-0.068589844
56	0x3e1dda33	0.15415268
57	0x3ca869cc	0.02055826
58	0x3e10f9f1	0.14157845
59	0x3ded2c86	0.11580758
60	0xbd907af3	-0.07054701
61	0x3dcfd9ab	0.10148939
62	0x3e1c728c	0.15278071
63	0xbc77f9b4	-0.015135217
64	0x3c12f36a	0.008969167
65	0x3e2cbbd7	0.1686853
66	0x3dd293ed	0.10282121
67	0xbd87fc1d	-0.06639884
68	0x3db78b72	0.08962144
69	0x3dcf8b92	0.10134043
70	0x3dfac3c7	0.12244373
71	0xbde9e420	-0.114204645
72	0x3dfbd407	0.122963004
73	0x3d4afdc1	0.049558405
74	0xbd2663f5	-0.04062267
75	0x3d93bfe3	0.07214334
76	0x3e06162e	0.13094398
77	0xbcc8a615	-0.024493257
78	0x3e192bad	0.14958067
79	0x3dc11c09	0.094291754
80	0xbe14e2e8	-0.14539683
81	0xbdeab3ef	-0.11460101
82	0x3da9fa3d	0.08299682
83	0x3de58bc9	0.112083025
84	0x3b7b72dd	0.0038368024
85	0x3dfba8d0	0.12288058
86	0x3dc847a5	0.0977929
87	0x3e1b6a1c	0.15177196
88	0xbd73317a	-0.059373356
89	0x3e08f115	0.13373215
90	0xbda8bd55	-0.08239237
91	0xbdcc73d2	-0.099830285
92	0x3d705727	0.058676865
93	0xbde2b015	-0.11068741
94	0xbd22cd6f	-0.039746698
95	0x3d076e50	0.033064187
96	0x3d83573e	0.064131245
97	0x3c14bc9a	0.009078169
98	0xbe3a308f	-0.18182586
99	0x3b37b386	0.0028030588
100	0x3dab1534	0.083536536
101	0x3d8eb5b6	0.06968252
102	0xbe3161a6	-0.17322406
103	0xbc2f75d3	-0.010709244
104	0xbc9055ed	-0.017619098
105	0x3d55b54c	0.05217485
106	0xbcb7e47d	-0.022447819
107	0xbd9827eb	-0.07429489
108	0xbd06016e	-0.032716207
109	0xbd6cfc99	-0.057858083
110	0x3c5dd40c	0.013539325
111	0x3da88fce	0.082305536
112	0xbdca7312	-0.09885229
113	0xbdf96231	-0.12176932
114	0x3dd41a24	0.103565484
115	0x3e00c729	0.12575974
116	0xbe2ff4e8	-0.17183268
117	0x3d44f0f0	0.04808134
118	0xbd28f09d	-0.04124509
119	0x3d62ceaf	0.05537289
120	0xbd7eb9bb	-0.062188845
121	0xbd6b6535	-0.057469565
122	0x3e34df1b	0.17663233
123	0xbe33ac14	-0.17546111
124	0x3c6bc99d	0.01439133
125	0xbdceaa5a	-0.10091086
126	0xbdbf5b2f	-0.09343564
127	0x3e06d0d6	0.13165602
128	0x3db5c872	0.088761225
129	0xbe776ead	-0.24163313
130	0x3e069f4d	0.13146706
131	0xbd6c0fe2	-0.057632335
132	0xbe346b9c	-0.17619175
133	0xbd5de2d9	-0.054171417
134	0xbdb5cef7	-0.08877366
135	0x3bba2da1	0.005681709
136	0x3e5c48df	0.21512173
137	0x3d9fd727	0.07804709
138	0x3dbf44cb	0.09339293
139	0x3d7ab0c5	0.061203737
140	0x3e03edd8	0.12883699
141	0xbe2e892a	-0.17044511
142	0xbca859ce	-0.020550635
143	0xbe194b3a	-0.14970103
144	0xbd8edda2	-0.06975867
145	0x3dd30860	0.10304332
146	0xbd21f4bf	-0.03954005
147	0xbe0de979	-0.13858594
148	0xbdac6c0d	-0.084190466
149	0xbe21a0a2	-0.15783933
150	0xbd074884	-0.03302814
151	0x3d843f62	0.06457402
152	0xbd43e9e0	-0.047830462
153	0x3cc0a65f	0.023516832
154	0x3e0c0889	0.13675131
155	0xbd8035cd	-0.06260262
156	0xbd80453c	-0.062632054
157	0xbddbe780	-0.107375145
158	0xbdc741d3	-0.09729352
159	0xbcedf304	-0.029046543
160	0xbd9efb63	-0.07762792
161	0x3df3648a	0.11884411
162	0x3de295e1	0.110637434
163	0x3c83e188	0.016098753
164	0x3dab9c60	0.083794355
165	0xbd8921fd	-0.06695936
166	0xbdf3997b	-0.118945085
167	0x3cf9ea8d	0.03050735
168	0xbe16bbb8	-0.14720047
169	0xbe29157b	-0.165121
170	0x3ddb5cc4	0.10711053
171	0xbd8a8cad	-0.06765113
172	0x3e271040	0.16314793
173	0xbe1fa9e2	-0.15592149
174	0x3e1c45f5	0.15261061
175	0x3e1b4b32	0.15165403
176	0xbd73042d	-0.059330154
177	0xbe020567	-0.12697373
178	0xbdbcc450	-0.09217131
179	0x3e09e621	0.13466693
180	0xbdf974d1	-0.12180484
181	0x3d99f647	0.07517677
182	0x3d9795f8	0.07401651
183	0xbd546210	-0.051851332
184	0xbdf8c3a0	-0.121466875
185	0x3d382bfd	0.044963825
186	0x3d367cc1	0.04455257
187	0x3d289851	0.041160885
188	0xbd764dea	-0.0601329
189	0xbdcd3015	-0.100189365
190	0x3bef289c	0.007298542
191	0xbddacf85	-0.106841125
192	0xbcf1ad0d	-0.029501462
193	0xbd855ccb	-0.065118395
194	0x3e0e23b2	0.13880804
195	0x3d5c6805	0.05381014
196	0xbdfaad0e	-0.12240039
197	0x3d277e0b	0.04089169
198	0xbd092ebf	-0.033491846
199	0x3d47e3a9	0.048801098
200	0x3c8a3fc1	0.016876103
201	0x3da0cf9e	0.078521
202	0x3d588fd0	0.052871525
203	0x3d21f70c	0.039542243
204	0x3df70903	0.12062266
205	0xbc9d91b1	-0.01923451
206	0x3d116c85	0.035503883
207	0xbddac8d3	-0.106828354
208	0xbce966b6	-0.02849136
209	0x3e419338	0.18903816
210	0xbc8acf9a	-0.016944695
211	0x3d96ebb7	0.07369178
212	0x3e35719d	0.17719121
213	0x3dd96cbe	0.10616444
214	0xbe095533	-0.13411407
215	0x3d7091e3	0.05873288
216	0x3dca0f96	0.09866254
217	0x3d6e9135	0.05824395
218	0x3e1894e3	0.14900546
219	0x3dd02994	0.101641804
220	0x3c391f05	0.0112989
221	0x3d4ceb3c	0.050029024
222	0x3caddb88	0.021222845
223	0xbe1388ac	-0.14407605
224	0x3de3c3b3	0.11121311
225	0xbdf36fa0	-0.11886525
226	0xbd8696ab	-0.065717064
227	0x3d665e45	0.056242246
228	0xbd9655c5	-0.07340578
229	0xbd940790	-0.07228005
230	0x3e4a259d	0.19740911
231	0x3c9a27a1	0.018817725
232	0xbde3871e	-0.11109756
233	0x3e0fd433	0.14045791
234	0x3e087db0	0.13329196
235	0x3dc84eb6	0.09780638
236	0x3ca06638	0.019579992
237	0x3e35b9e2	0.1774669
238	0x3d48e078	0.049042195
239	0x3dceb37e	0.10092829
240	0xbd081beb	-0.03322975
241	0xbd86458d	-0.065562345
242	0x3e197443	0.14985757
243	0x3d160c8f	0.03663307
244	0x3cfb1da0	0.030653775
245	0x3db31682	0.087445274
246	0xbe3b8e69	-0.18316044
247	0x3baaeef4	0.0052164737
248	0xbae3ca26	-0.001737897
249	0xbc549931	-0.012975977
250	0x3e182383	0.14857297
251	0xbb024d9b	-0.0019882682
252	0xbdc1a555	-0.09455363
253	0x3caa5275	0.020791272
254	0xbe5fdffa	-0.21862784
255	0x3d455622	0.048177846

net_container.2.weight f4 [128, 256]
0	0x3d643ebf	0.0557239
1	0xbcd75c20	-0.026289046
2	0xbb38129b	-0.0028087262
3	0xbc0c7e21	-0.008574993
4	0x3cbf01d0	0.023316294
5	0xbcf0864f	-0.029360918
6	0x3cf70814	0.03015522
7	0xbd67a043	-0.05654932
8	0xbd0980e8	-0.0335702
9	0x3d6e259b	0.058141332
10	0xbd54f5bc	-0.051992163
11	0xbcdd13d0	-0.026986986
12	0x3d21d574	0.039510205
13	0xbd90b0e7	-0.070649914
14	0x3c66742c	0.0140657835
15	0xbc33b31c	-0.010967996
16	0xbd1221a9	-0.035676632
17	0x3c8bb23b	0.01705276
18	0x3b761d10	0.0037553944
19	0x3d26a60d	0.040685702
20	0xbd410cac	-0.047131225
21	0xbafde8a7	-0.0019371704
22	0xbd38323c	-0.044969782
23	0xbdd11f0b	-0.10210999
24	0xbc8b1cef	-0.01698157
25	0x3ce2e81b	0.027698567
26	0xbd2f6a3f	-0.042825934
27	0x3db57543	0.088602565
28	0x3c974c44	0.018468983
29	0x3c04c1b3	0.008102822
30	0xba80c64a	-0.000982472
31	0x3d1cce08	0.038282424
32	0xbd91204b	-0.070862375
33	0xbd7a8eb0	-0.061171234
34	0xbda62f0b	-0.081144415
35	0x3d782b67	0.060588267
36	0xbbae1d01	-0.005313516
37	0x3dac9ed0	0.084287286
38	0x3ce899b7	0.02839361
39	0x3d08f0f2	0.03343291
40	0x3d6b6def	0.057477888
41	0x3d44cd6f	0.04804748
42	0xb9f2fb08	-0.0004634487
43	0xbcf258ba	-0.029583324
44	0x3d283470	0.041065633
45	0x3d05eb49	0.03269509
46	0xbd5a72fa	-0.053332306
47	0x3da8ffea	0.08251937
48	0x3d48c7e5	0.04901876
49	0x3cbd9567	0.02314253
50	0x3d873e03	0.06603625
51	0x3d0668f9	0.032814953
52	0x3d470e1d	0.048597444
53	0xbd0a0bd2	-0.03370268
54	0x3d11c41a	0.035587408
55	0x3c66ca4f	0.01408632
56	0xbdc71eb0	-0.0972265
57	0xbd925f27	-0.07147055
58	0x3d23886a	0.039925016
59	0xbc82ffba	-0.01599108
60	0x3d205959	0.03914771
61	0x3c66553c	0.014058407
62	0x3cac4278	0.021027789
63	0x3c1eec4d	0.009699893
64	0xbd84bfc1	-0.06481887
65	0xbd4603e1	-0.048343543
66	0xbd6ff555	-0.058583576
67	0xbd949a6a	-0.07256015
68	0xbc8b42b5	-0.016999582
69	0x3ceeab9c	0.029134564
70	0xbbd804ed	-0.006592384
71	0xbc0544d3	-0.008134085
72	0x3cc6e33d	0.024278278
73	0xbd11ebdd	-0.035625327
74	0x3c7caa92	0.0154215265
75	0x3d8782b6	0.06616728
76	0xbc9319aa	-0.017956574
77	0xbd284173	-0.041078042
78	0x3bc35485	0.0059610032
79	0x3d507303	0.050890934
80	0x3d95bbb4	0.07311192
81	0x3d9a5826	0.07536344
82	0xbd3915fb	-0.045186978
83	0x3d4614d5	0.04835971
84	0x3ba3f9cb	0.005004143
85	0x3d3b25f2	0.045690484
86	0xbcf95280	-0.030434847
87	0xbddbbf10	-0.10729802
88	0x3d0ee9c5	0.03489091
89	0xbd10497c	-0.03522633
90	0xbd0fc40b	-0.03509907
91	0xbc8231c9	-0.01589288
92	0xbcbead25	-0.023275921
93	0x3d15dd49	0.036587987
94	0xbd704569	-0.058659945
95	0xbce74eb5	-0.028235773
96	0xbcb409f8	-0.02197741
97	0xbd326fab	-0.043563526
98	0x3d96cc1a	0.07363148
99	0x3a8179a4	0.0009878171
100	0xbc92e5e3	-0.017931884
101	0xbd4c5133	-0.049882125
102	0xbc2dda92	-0.010611193
103	0x3b2477d9	0.0025095849
104	0x3cba0de5	0.022711704
105	0xbd4b4a66	-0.0496315
106	0xbd00409d	-0.03131162
107	0x3c5d4a2a	0.013506452
108	0x3da00ac8	0.07814556
109	0x3da7f6d9	0.08201379
110	0xbafe1e3f	-0.0019387676
111	0xbd7f5b59	-0.062342975
112	0x3dad53dc	0.084632605
113	0x3ca5d98e	0.02024534
114	0xbd643e5d	-0.055723537
115	0xbd86d235	-0.065830626
116	0xbcb8b79d	-0.022548491
117	0xbd19b56d	-0.037526537
118	0x3cd5a476	0.026079398
119	0x3d357b30	0.044306934
120	0xbd2118fd	-0.03933047
121	0x3d3aa7df	0.04557025
122	0xbd48f040	-0.049057245
123	0x3d69f642	0.057119615
124	0x3d52d861	0.051475886
125	0x3d90dfd9	0.070739456
126	0xbb865b6b	-0.0041002533
127	0xbd898d24	-0.067163736
128	0x3c2a8ab0	0.010409042
129	0x3d483dc4	0.04888703
130	0xbd90c249	-0.07068307
131	0xbd0508e6	-0.03247919
132	0x3d438b88	0.04774049
133	0x3d06b3f8	0.032886475
134	0x3d9de067	0.07708817
135	0x3cbc7688	0.023005739
136	0x3d838123	0.06421115
137	0xbc308de4	-0.010776017
138	0x3c69c8d7	0.014269075
139	0x3dbdf500	0.09275246
140	0xbd067e5b	-0.032835346
141	0x3c75f0b7	0.015011004
142	0xbd5e3f0e	-0.054259352
143	0x3d25cf6c	0.040481016
144	0xbaf48bcb	-0.0018657384
145	0xbd949386	-0.072547
146	0x3cae3a34	0.021267988
147	0x3d505af9	0.05086801
148	0xbd11f8b1	-0.03563756
149	0xbd41c463	-0.04730643
150	0x3db9edc7	0.090785556
151	0xbd4e7a4f	-0.05040961
152	0xbd80d27b	-0.06290146
153	0x3d553981	0.052056793
154	0xbdb64c0f	-0.08901226
155	0x3da8a103	0.082338355
156	0xbcb86589	-0.022509353
157	0x3c6e8e2b	0.014560263
158	0x3d059525	0.03261294
159	0xbd8fcf35	-0.070219435
160	0x3d8566e9	0.06513769
161	0xbcde5860	-0.02714175
162	0xbda69515	-0.08133904
163	0xbdacfd74	-0.0844678
164	0x3c28c523	0.010300907
165	0xbc8c1d0d	-0.017103696
166	0xbd9c5a78	-0.07634443
167	0xbd39d3b1	-0.0453679
168	0x3d224d80	0.03962469
169	0x3d544151	0.051820103
170	0xbc5de9a7	-0.013544477
171	0x3da8e958	0.08247632
172	0xbd129605	-0.0357876
173	0x3b3b9799	0.0028624295
174	0x3d34303e	0.04399132
175	0x3b2f9fcd	0.002679813
176	0xbc2939ab	-0.0103286905
177	0x3ba429e0	0.0050098747
178	0x3d32c31d	0.043643106
179	0xbd762378	-0.06009242
180	0xbd50e7ea	-0.05100242
181	0xbdd619f3	-0.10454168
182	0x3c98dc51	0.018659743
183	0x3b2a75f2	0.0026010242
184	0xbc822e5f	-0.015891252
185	0x3d0b0e2d	0.033949066
186	0xbcc548e3	-0.024082607
187	0x3c21361b	0.00983956
188	0xbcfaaee4	-0.030600972
189	0xbc683fa1	-0.014175327
190	0xbcda7d2a	-0.026671011
191	0x3dacab7b	0.08431145
192	0xbb4fd865	-0.0031714675
193	0xbd7e8af0	-0.06214422
194	0xbd52af8e	-0.051436953
195	0xbcf9c222	-0.030488078
196	0xbd8fe43f	-0.07025956
197	0x3d917219	0.071018405
198	0x3d7dfd8b	0.062009376
199	0xbd300086	-0.04296925
200	0xbcb24d88	-0.021765485
201	0x3cb88434	0.022523977
202	0xbd96fad6	-0.07372062
203	0xbd980391	-0.07422555
204	0x3c4ec32f	0.012619778
205	0x3cd31aaf	0.02576956
206	0x3da61467	0.0810936
207	0xbd4edac8	-0.050501615
208	0xbccd3f6c	-0.025054656
209	0xbdaf84c8	-0.08570248
210	0xbc65082b	-0.013978998
211	0xbd853f39	-0.065061994
212	0xbda4900a	-0.08035286
213	0xbd2a9414	-0.041645125
214	0x3cfba7be	0.030719634
215	0xbd8270a1	-0.063691385
216	0xbae4d148	-0.001745739
217	0xbc6f9227	-0.014622248
218	0xbd220b75	-0.039561708
219	0xbc7d2774	-0.015451301
220	0x3c894e96	0.016761106
221	0x3c679035	0.014133503
222	0xbc929b5e	-0.01789635
223	0x3cbde697	0.023181243
224	0xbcdef384	-0.027215727
225	0x3d7af180	0.06126547
226	0x3cd168c2	0.025562648
227	0x3da45cad	0.08025489
228	0x3d59f0fe	0.053208344
229	0xbd506317	-0.05087575
230	0x3ca673f7	0.020318968
231	0x3dabad32	0.08382644
232	0xbd35db1c	-0.044398412
233	0xbc64d814	-0.013967533
234	0xbdb91055	-0.09036318
235	0xbd67bfb3	-0.056579303
236	0x3d8510af	0.06497323
237	0xbd4f74e6	-0.050648592
238	0xbcb46a68	-0.022023395
239	0x3c834177	0.016022427
240	0xbd0e2c34	-0.034710124
241	0x3cd1db12	0.025617156
242	0x3ccd04a4	0.025026627
243	0xbc9cc786	-0.019138109
244	0xbd5f396d	-0.054498125
245	0x3d8f2783	0.06989958
246	0x3d739231	0.05946559
247	0xba9021b3	-0.0010996371
248	0x3d4011d0	0.046891987
249	0xbc9ef87c	-0.019405596
250	0xbdb15310	-0.08658421
251	0xbd4789e3	-0.048715483
252	0xbacfdc4e	-0.0015858503
253	0xbd2b7311	-0.041857783
254	0x3d2e8003	0.04260255
255	0xbc33cdd7	-0.010974369

net_container.2.bias f4 [128]
0	0xbc9bd6e3	-0.019023364
1	0xbdbc2226	-0.09186201
2	0xbce2c200	-0.027680397
3	0xbdd11b87	-0.102103285
4	0xbdc53ce0	-0.096307516
5	0x3d3d5d38	0.04623148
6	0x3d97abb1	0.074057944
7	0xbcd6aafb	-0.026204577
8	0x3d5ecbc6	0.054393552
9	0xbdad7ffe	-0.08471678
10	0x3d9dca30	0.0770458
11	0xbd003248	-0.031297952
12	0xbcb828b0	-0.022480339
13	0x3c73c8a4	0.014879379
14	0xbca3fafb	-0.020017138
15	0x3d3ace7f	0.045607086
16	0xbdc5d7cc	-0.096603006
17	0xbc763798	-0.015027903
18	0x3c9c3e91	0.019072803
19	0x3c4b5d7f	0.012412428
20	0x3da08922	0.07838656
21	0xb8db1df4	-0.00010448313
22	0xbbb75a5a	-0.0055954875
23	0xbc6297f0	-0.01383017
24	0x3ca2946f	0.01984617
25	0x3cba7a06	0.022763263
26	0x3c7800a0	0.015136868
27	0xbe00f5b8	-0.12593734
28	0xbdab6792	-0.08369364
29	0xbd621158	-0.05519232
30	0xbdcb1a84	-0.09917167
31	0xbd0dbf0b	-0.03460602
32	0xbc0db7ac	-0.008649748
33	0xba145888	-0.0005658944
34	0x3d86d014	0.065826565
35	0x3d1ff99c	0.039056405
36	0xbd0cc709	-0.034369502
37	0xbd98f8d7	-0.074693374
38	0xbc58c02f	-0.013229414
39	0x3c0cff93	0.0086058555
40	0xbdf36399	-0.11884231
41	0xbca30993	-0.019902026
42	0xbd855799	-0.065108486
43	0x3d7bf976	0.0615172
44	0x3d5cc1ac	0.053895637
45	0x3d138667	0.036016848
46	0x3d6812be	0.0566585
47	0x3da02127	0.07818823
48	0x3d6da895	0.0580221
49	0x3d2750d4	0.040848568
50	0xbcded125	-0.027199337
51	0xbde8a369	-0.11359293
52	0x3b519eab	0.0031985443
53	0x3da1bfa7	0.07897883
54	0xbdb052d1	-0.08609546
55	0xbd357e07	-0.044309642
56	0x3d9396a6	0.07206468
57	0xbddf2110	-0.10894978
58	0x3d94244d	0.07233486
59	0x3d552a54	0.05204232
60	0xbde64075	-0.11242763
61	0x3d82f4d1	0.06394351
62	0xbcd7eef7	-0.026359065
63	0xbd296e6d	-0.041365076
64	0x3c89e263	0.016831582
65	0xbcfcab6a	-0.030843455
66	0x3dec8483	0.11548712
67	0xbd3c7c3e	-0.046016924
68	0xbb76858a	-0.0037616217
69	0xbd06da94	-0.032923296
70	0xbdb0c050	-0.08630431
71	0xbd69ff32	-0.05712814
72	0xbdd44bbe	-0.10366009
73	0x3ce279ac	0.027645908
74	0xbcd8b131	-0.026451679
75	0xbd39a651	-0.045324627
76	0xbb6116b6	-0.0034345812
77	0x3cffc35f	0.03122109
78	0xbd9a6bce	-0.07540093
79	0x3b627830	0.00345565
80	0x3c906788	0.017627493
81	0xbd7a82a6	-0.061159752
82	0x3db1f7a7	0.08689814
83	0xbb8866ff	-0.0041626687
84	0xbd89eb1b	-0.06734296
85	0xbbad9532	-0.0052973265
86	0x3dbf7b40	0.0934968
87	0x3d56455c	0.05231224
88	0x3d2874f4	0.04112716
89	0x3c95429d	0.01822024
90	0xbdff6e96	-0.124722645
91	0x3d41a71a	0.0472785
92	0xbdce6d74	-0.1007947
93	0x3ba13c68	0.004920531
94	0xbd856e40	-0.06515169
95	0x3ce6081b	0.028080037
96	0xbb350c50	-0.0027625747
97	0x3d37d762	0.04488314
98	0xbd842465	-0.06452254
99	0xbc8041da	-0.0156564
100	0xbdcc85ea	-0.099864796
101	0xbb16be20	-0.0023001507
102	0x3bdfbd53	0.006827989
103	0x3db2b082	0.087250724
104	0xbcf1532f	-0.02945861
105	0xbccaa664	-0.024737544
106	0xbc57acdd	-0.013163772
107	0xbd46e95f	-0.048562404
108	0xbdc899cd	-0.0979496
109	0xbd236c72	-0.039898343
110	0x3dc4c9f0	0.09608829
111	0x3d5f1eda	0.05447278
112	0xbda76682	-0.08173849
113	0xbc5f3421	-0.013623268
114	0x3c1883b2	0.009308742
115	0x3d69cbeb	0.057079237
116	0x3d1e0902	0.03858281
117	0xbd1d84b8	-0.03845665
118	0xbe077530	-0.13228297
119	0x3c4bf95d	0.01244959
120	0x3d6ba99f	0.05753481
121	0xbbeeb297	-0.007284473
122	0xbd656cd7	-0.056012
123	0xbcf7a662	-0.030230705
124	0x3da9d62f	0.082928054
125	0xbc2e690e	-0.010645164
126	0xbdb101ff	-0.08642959
127	0xbd5e9234	-0.05433865

net_container.4.weight f4 [64, 128]
0	0x3ca79f85	0.020461807
1	0x3d831aed	0.0640162
2	0xbd9d4f7d	-0.07681177
3	0xbcfb392c	-0.03066691
4	0xbaa39238	-0.001247949
5	0xbd941252	-0.07230057
6	0x3c2a9942	0.010412516
7	0x3d712b13	0.05887897
8	0xbc5ed7ef	-0.013601287
9	0xbd59b231	-0.053148452
10	0xbd54bf67	-0.051940348
11	0x3c6e7630	0.014554545
12	0x3d96c136	0.07361071
13	0xbd515762	-0.051108725
14	0xbcafa0d1	-0.021438988
15	0xbce41c31	-0.027845474
16	0xbcb2ff7a	-0.021850336
17	0xbd1ad2cc	-0.037798688
18	0xba433ff5	-0.000744819
19	0x3d4e5682	0.05037547
20	0xbdc4fab6	-0.09618132
21	0xbdc58860	-0.09645152
22	0x3df91dc9	0.12163884
23	0xbda3587a	-0.0797586
24	0xbb2bf67d	-0.0026239448
25	0x3da147b8	0.078750074
26	0x3d03c0c0	0.032166243
27	0xbc2ca0fb	-0.010536428
28	0x3da31267	0.07962494
29	0x3cffc5de	0.03122228
30	0xbd0f17a3	-0.03493465
31	0x3ceb48d0	0.028721243
32	0x3babd650	0.005244054
33	0xbcd4f043	-0.025993472
34	0xbdecbcac	-0.11559424
35	0xbdc65a16	-0.09685151
36	0xbc7149f0	-0.014727101
37	0xbc8af9e4	-0.01696486
38	0x3cbeecd7	0.023306293
39	0xbcd237af	-0.025661318
40	0xbc9f2797	-0.019428058
41	0xbca4a408	-0.020097747
42	0x3d5e0f80	0.054214
43	0xbcbf4c3c	-0.023351781
44	0xbbeb3303	-0.007177712
45	0x3c3e9d7b	0.011634226
46	0xbdcf09b9	-0.10109276
47	0x3d3a057b	0.045415383
48	0xbd5790f6	-0.05262848
49	0xbd82e91f	-0.063921206
50	0x3d99a243	0.07501652
51	0x3d83a128	0.064272225
52	0x3d93039c	0.07178423
53	0xbd5a47f2	-0.05329127
54	0x3d3dffb4	0.046386436
55	0xbc9e260a	-0.019305248
56	0x3d7a074f	0.061042126
57	0xbbbba711	-0.005726703
58	0x3cd17204	0.025567062
59	0x3bd0cfe3	0.0063724383
60	0x3d83bd4f	0.06432592
61	0xbc798a0e	-0.015230669
62	0xbcf67ba2	-0.03008825
63	0x3bb51b98	0.005526971
64	0xbd5dfae1	-0.054194335
65	0xbd4b6c21	-0.049663667
66	0xbd989f75	-0.07452289
67	0xbd9291cb	-0.07156714
68	0x3cd5c632	0.026095483
69	0x3ddc4428	0.10755187
70	0xbcb64e73	-0.022254204
71	0x3dc52a25	0.09627179
72	0x3d8b4401	0.0680008
73	0xbca57de4	-0.02020163
74	0xbdaf8743	-0.08570721
75	0xbd1a28e5	-0.037636656
76	0xbc863535	-0.016382793
77	0x3cb87f39	0.022521602
78	0x3ddc78b1	0.107652076
79	0xbd70c877	-0.05878493
80	0xbd4ab288	-0.049486667
81	0xbae9f7fc	-0.0017850394
82	0xbd5bead2	-0.05369074
83	0xbd9a3333	-0.07529297
84	0x3bb5c79e	0.005547478
85	0x3d973ca2	0.07384612
86	0xbddb2193	-0.10699763
87	0x3d2d0e6c	0.042250082
88	0x3d1d1ba7	0.03835645
89	0x3995d15c	0.0002857548
90	0x3d7bb8bc	0.061455473
91	0xbdd4f566	-0.103983685
92	0x3d6bb24e	0.05754309
93	0xbd749da9	-0.05972067
94	0xbdbe3069	-0.09286577
95	0xbde541f6	-0.11194222
96	0xbd734eec	-0.059401438
97	0x3d8dfa10	0.06932461
98	0x3cb234ee	0.021753754
99	0x3dcfd49b	0.10147973
100	0x3d50fae8	0.051020533
101	0xbc5752cd	-0.0131423
102	0x3d0625d8	0.032750934
103	0xbcb2727c	-0.021783106
104	0xbba45b80	-0.0050157905
105	0x3c80950c	0.015696071
106	0x3da1b00e	0.07894908
107	0xbd9ca2d9	-0.07648248
108	0xbd5355a6	-0.051595353
109	0xbd9b033d	-0.07568977
110	0xbbc6ef0e	-0.006070978
111	0x3d82da36	0.06389277
112	0xbd119b90	-0.035548747
113	0x3c8fe097	0.017563147
114	0x3d0cbdfc	0.03436087
115	0x3ca45b14	0.02006296
116	0xbd1f3515	-0.038868982
117	0x3d53f1e0	0.05174434
118	0xbce54c2a	-0.02799042
119	0xbd9a1aa8	-0.075246155
120	0x3c9a2c2d	0.018819893
121	0xbdc30b8a	-0.09523685
122	0xbb993e9b	-0.0046766526
123	0x3d8eb3e5	0.06967906
124	0xbd656bac	-0.056010887
125	0x3cb85de1	0.022505702
126	0x3dd0d6d6	0.10197227
127	0xbcf4d99d	-0.029888922
128	0x3dd81430	0.105507255
129	0xbda3a7bb	-0.079909764
130	0xbd7c307c	-0.061569676
131	0x3d4cf39f	0.050037023
132	0x3d9f5c80	0.07781315
133	0xbd5a9b36	-0.053370677
134	0xbca0cd46	-0.019629132
135	0xbd93567e	-0.071942315
136	0xbdaaecaf	-0.08345925
137	0xbda5eeef	-0.081022136
138	0x3d66015b	0.056153636
139	0xbd578d35	-0.0526249
140	0xb8905dbb	-6.883914e-05
141	0x3cbb2df2	0.022849057
142	0x3dbcb5cf	0.09214365
143	0xbd91397b	-0.07091042
144	0xbc25fd2a	-0.01013116
145	0xbd8f6f14	-0.07003608
146	0xbd616675	-0.05502935
147	0x3d5d1a40	0.053980112
148	0xbc4a5c7d	-0.0123511525
149	0xbb8e1c3e	-0.004336863
150	0x3d98a78b	0.07453831
151	0x3d4c91aa	0.049943604
152	0x3c8bc8ab	0.01706346
153	0xbc799283	-0.015232685
154	0x3c961833	0.018322086
155	0xbd17374d	-0.036917973
156	0x3d349a43	0.044092428
157	0xbd9843e3	-0.07434823
158	0x3d4529df	0.048135635
159	0x3d6a736c	0.05723898
160	0x3d662efa	0.056197144
161	0x3c760a04	0.015017036
162	0xbcfdb5b9	-0.030970441
163	0x3ab807b2	0.0014040379
164	0xbd0acecd	-0.033888627
165	0xbd085dd1	-0.033292595
166	0xbc68094d	-0.014162374
167	0xbd771d51	-0.060330693
168	0x3cbe7d3c	0.023253076
169	0xbd02c95c	-0.031930313
170	0xbdf7083f	-0.1206212
171	0x3c96d45a	0.018411804
172	0xbd073e10	-0.03301817
173	0x3ceac81d	0.028659875
174	0xbd9d6e28	-0.07687026
175	0x3ca241de	0.019806799
176	0xbda40849	-0.08009393
177	0xbdda77ee	-0.10667406
178	0x3c99b144	0.018761285
179	0x3d8a51e3	0.067539
180	0xbde5b6bd	-0.11216495
181	0x3cb277fe	0.021785732
182	0xbdacaf81	-0.08431912
183	0xbd876821	-0.06611658
184	0x3c744034	0.014907885
185	0x3cd65891	0.026165279
186	0x3c9dde8f	0.019271163
187	0xbd5d9476	-0.05409666
188	0x3d651350	0.05592662
189	0x3d69f7c6	0.05712106
190	0x3d6daad0	0.058024228
191	0xbdad8585	-0.084727325
192	0xbdf02516	-0.117258236
193	0xbdbe021a	-0.092777446
194	0x3d6ad9af	0.057336506
195	0x3d552cc7	0.052044656
196	0x3d1aa922	0.037758954
197	0x3cdfb6da	0.02730887
198	0xbd9b1117	-0.07571619
199	0xbd3b5d56	-0.04574331
200	0x3db2a86a	0.08723529
201	0xbc02fff1	-0.0079955915
202	0x3d38813b	0.04504512
203	0x3d6e626a	0.058199324
204	0xbd05d3a2	-0.032672532
205	0xbdaa6ffa	-0.08322139
206	0xbd9f9c52	-0.077934876
207	0xbcd5aaae	-0.026082363
208	0x3b432286	0.0029775216
209	0xbd9796d9	-0.07401819
210	0xbd105b54	-0.035243347
211	0xbc9e0d05	-0.019293318
212	0x3a8a4ce7	0.0010551483
213	0x3d03b92c	0.032159016
214	0xbdde37d4	-0.10850492
215	0xbd82587c	-0.06364533
216	0x3d828e59	0.06374807
217	0xbde578f7	-0.11204713
218	0x3c7947e2	0.015214892
219	0xbd52d94e	-0.05147677
220	0x3ca2fd95	0.019896308
221	0x3b67900d	0.0035333664
222	0x3d461455	0.048359234
223	0x3cff3c9e	0.031156834
224	0x3d3841ef	0.044984754
225	0xbd49f40d	-0.04930501
226	0x3d1b0b5a	0.037852623
227	0x3c33c269	0.010971644
228	0x3da3d34b	0.07999285
229	0xbd33b1f1	-0.04387087
230	0x3d36dccc	0.044644162
231	0x3d8fff95	0.0703117
232	0x3cdc9cb5	0.026930192
233	0xbd18967b	-0.037252884
234	0xbd51d3a5	-0.05122723
235	0x3bc7df4a	0.006099616
236	0x3cc55d33	0.024092292
237	0xbda6c2d1	-0.08142627
238	0xbd99c1ce	-0.075076684
239	0xbde782ba	-0.11304231
240	0xbb8de6ee	-0.0043305075
241	0x3de9f1a4	0.114230424
242	0x3d5b4f1f	0.053542253
243	0x3bdfc2d3	0.006828645
244	0x3def2dc6	0.116786525
245	0xbd98dccf	-0.07463991
246	0x3da41ed1	0.0801369
247	0x3ce9a60c	0.02852156
248	0xbc290d83	-0.010318163
249	0xbcbd8093	-0.023132598
250	0x3d272aa4	0.04081215
251	0x3d53b06c	0.05168192
252	0x3d0b5f5e	0.034026496
253	0xbc9b9dc3	-0.018996125
254	0x3cc0e777	0.023547871
255	0x3d7e7259	0.06212077

net_container.4.bias f4 [64]
0	0xbdf15606	-0.11783986
1	0xbd6a8ecd	-0.05726509
2	0x3db89342	0.09012462
3	0x3c0cc8e7	0.008592821
4	0xbda130c2	-0.07870628
5	0xbc2740ae	-0.010208292
6	0xbd1c1fd6	-0.0381163
7	0xbe037a12	-0.12839535
8	0xbe082267	-0.13294373
9	0x3daabadd	0.083364226
10	0x3d9fb492	0.07798113
11	0xbc104ad2	-0.008806901
12	0x3cd494d2	0.02594987
13	0xbdab8b86	-0.08376221
14	0xbd0977bf	-0.033561464
15	0x3dcfcce8	0.10146505
16	0xbc321682	-0.010869624
17	0x3d3f71bd	0.04673933
18	0x3dbe5aad	0.09294639
19	0x3dedde81	0.11614705
20	0xbda345eb	-0.0797232
21	0x3c8ba167	0.017044736
22	0xbdd2074d	-0.10255299
23	0x3c92dfd7	0.017929
24	0x3d3b6be5	0.045757193
25	0xbda47b19	-0.080312915
26	0x3ccd8f14	0.025092639
27	0xbcfa6055	-0.030563513
28	0xbd799fa4	-0.06094326
29	0x3b17f48b	0.002318653
30	0xbb716ba0	-0.003683783
31	0x3d991b4f	0.07475912
32	0xbd34c75f	-0.044135448
33	0xbccb1e4d	-0.024794722
34	0x3d77f67a	0.060537793
35	0xbcaeb59c	-0.021326832
36	0xbddd8e86	-0.108182
37	0x3d728160	0.059205413
38	0x3cc107ba	0.023563255
39	0x3bca880a	0.006180768
40	0x3ca5490a	0.02017643
41	0x3d173d3b	0.03692363
42	0x3bd7459f	0.006569579
43	0xbe20c7bc	-0.15701193
44	0xbd2cd4cf	-0.042195138
45	0x3c134ace	0.008990003
46	0xbd23fca3	-0.040035855
47	0xbd933e09	-0.07189567
48	0x3d5381d3	0.051637482
49	0x3e172a38	0.14762199
50	0x3dc06a93	0.093953274
51	0x3ad3515b	0.0016122268
52	0xbd2e0f5f	-0.042495128
53	0xbdcad00a	-0.099029616
54	0xbdd9b6a6	-0.106305405
55	0xbc1ef33c	-0.009701546
56	0x3aceaca7	0.0015768007
57	0x3d376bfa	0.04478071
58	0xbd74d323	-0.05977167
59	0x3d445f1a	0.04794226
60	0x3d84ad68	0.06478387
61	0xbd1a60b2	-0.037689872
62	0xbdd2b6b4	-0.10288754
63	0xbdbb0fc1	-0.09133864

policy_layer.weight f4 [8, 64]
0	0xbd3b01ac	-0.04565589
1	0x3c1abf34	0.009445
2	0xbc4c1925	-0.012457167
3	0xb990a09a	-0.00027585478
4	0xbe0163ae	-0.12635681
5	0x3e0e5d9e	0.139029
6	0x3d15f2ca	0.036608495
7	0xbe6a07b4	-0.22854501
8	0xbcd41320	-0.025888026
9	0x3dc9185c	0.09819099
10	0xbdb19a4c	-0.08672008
11	0x3db8f673	0.090313815
12	0x3e130bd2	0.14359978
13	0x3d1ac7f4	0.037788346
14	0x3c281873	0.010259735
15	0x3e04e094	0.12976295
16	0x3b99d141	0.0046941345
17	0xbc7047fa	-0.014665598
18	0x3dfdd528	0.12394172
19	0x3d28dba1	0.04122508
20	0x3d805218	0.06265658
21	0x3cbff6c9	0.023433106
22	0x3dcfbea2	0.10143782
23	0xbded5fea	-0.1159056
24	0xbd239be4	-0.03994359
25	0x3c8b9ceb	0.017042598
26	0x3d376f2c	0.044783756
27	0x3d20a67d	0.039221276
28	0x3e365f36	0.17809758
29	0x3da5e2d8	0.08099908
30	0xbd3dc6dc	-0.046332225
31	0x3dbaef82	0.09127714
32	0xbdce350d	-0.100687124
33	0x3b59052b	0.0033114653
34	0x3d88f6b7	0.06687682
35	0xbe05a248	-0.13050187
36	0x3e17bce9	0.14818157
37	0x3dbb6f2b	0.09152063
38	0xbc481133	-0.012211132
39	0x3d94e621	0.07270456
40	0xbc210192	-0.009827035
41	0x3d64857f	0.055791374
42	0xbdd7d7a1	-0.10539175
43	0x3e0ffbb8	0.14060867
44	0xbda3d80a	-0.080001906
45	0xbe1a43b6	-0.15064892
46	0x3d558224	0.052126065
47	0x3d476e9d	0.048689473
48	0x3c574e3a	0.013141209
49	0x3d538968	0.051644713
50	0xbdd37ae5	-0.10326175
51	0x3b26056b	0.002533282
52	0x3aa2023e	0.0012360287
53	0x3ddcb075	0.10775844
54	0x3d615c19	0.05501947
55	0x3c989475	0.018625477
56	0xbd9b6070	-0.07586753
57	0x3dc51669	0.09623415
58	0x3d24d092	0.04023797
59	0x3da1b5c5	0.07895998
60	0x3d0924cd	0.03348236
61	0x3dccb17d	0.09994791
62	0x3cf950b7	0.030433996
63	0xbde26ebe	-0.11056279
64	0x3dd4e422	0.103950754
65	0xbcdbd37f	-0.026834248
66	0xbdea70e2	-0.11447312
67	0x3c8c86db	0.017154148
68	0xbbdc0942	-0.006714971
69	0xbcb24d09	-0.021765249
70	0xbdd2ceb5	-0.102933325
71	0x3d9239cd	0.07139931
72	0x3dc544e9	0.09632284
73	0xbdce5544	-0.10074857
74	0x3c0b7bf3	0.0085134385
75	0x3a508e3d	0.00079557655
76	0x3e0eba98	0.13938367
77	0xbc64ae1a	-0.013957525
78	0xb9723923	-0.00023100204
79	0xbd1630ce	-0.036667638
80	0xbdb7ee78	-0.08981031
81	0x3dda2066	0.10650711
82	0x3de5e24a	0.11224802
83	0xbde0a9c3	-0.109698795
84	0x3e3a7953	0.18210344
85	0xbd55357d	-0.052052964
86	0x3dcaa230	0.09894216
87	0x3dbb33bb	0.09140726
88	0xbd23455f	-0.03986108
89	0x3e07734f	0.1322758
90	0x3e183c1f	0.14866684
91	0xbc0e5cc9	-0.008689114
92	0x3c879a03	0.01655293
93	0x3e250fe5	0.16119345
94	0xbdb0c5de	-0.0863149
95	0xbca1ec28	-0.019765928
96	0x3e26d4bc	0.16292089
97	0x3df81951	0.12114204
98	0xbd983360	-0.07431674
99	0xbdbe75eb	-0.09299835
100	0x3d0433c3	0.032275926
101	0xbc1afc22	-0.009459527
102	0x3cdb5c28	0.026777342
103	0x3dd977dc	0.106185645
104	0x3cd9f7b7	0.026607377
105	0xbd869dda	-0.065730765
106	0x3df68284	0.12036613
107	0x3de71a99	0.1128437
108	0xbdcdd24d	-0.10049877
109	0xbd6a7e99	-0.05724964
110	0x3dc6c842	0.09706165
111	0x3e017bf7	0.12644945
112	0x3d14c7fa	0.036323525
113	0xbc1661c4	-0.009178583
114	0xbc76f888	-0.015073903
115	0x3d0bde07	0.03414729
116	0xbdf794f2	-0.12088956
117	0x3ddccac7	0.10780864
118	0xbc9a69b9	-0.01884924
119	0x3d731cff	0.059353825
120	0xbc81a334	-0.015824892
121	0xbe0c5991	-0.13706042
122	0xbc0f4152	-0.008743601
123	0x3aa54073	0.0012607708
124	0xbd3e64e3	-0.04648293
125	0xbdc732fe	-0.09726523
126	0x3d3288d9	0.04358754
127	0xbdd6325a	-0.104588225
128	0xbd1b8ac8	-0.03797415
129	0x3dd8946e	0.10575186
130	0x3d921814	0.07133499
131	0xbde623bd	-0.11237285
132	0xbdec80e3	-0.11548021
133	0x3e1bbbec	0.15208405
134	0x3c13fdea	0.009032706
135	0x3d0af745	0.03392722
136	0xbd41e47c	-0.04733704
137	0xb9cd2eb2	-0.00039135438
138	0xbdf83086	-0.1211863
139	0xbd77a04c	-0.060455605
140	0xbe0550cd	-0.13019104
141	0xbe08334a	-0.13300815
142	0x39b304bd	0.0003414507
143	0xbdce44d0	-0.10071719
144	0x3bb2be4f	0.0054548155
145	0xbcb79a26	-0.02241237
146	0x3e0fc8c5	0.14041431
147	0xbd675d74	-0.05648561
148	0x3db439eb	0.088001095
149	0x3d479b3c	0.048732027
150	0x3d8159d5	0.06315962
151	0x3df1a291	0.11798585
152	0x3ad275d1	0.001605684
153	0x3e2134dc	0.1574282
154	0x3e173552	0.14766434
155	0x3d036761	0.03208101
156	0x3d8b7864	0.06810072
157	0xbc397681	-0.011319757
158	0xbd39d106	-0.045365356
159	0xbd9cf0a9	-0.0766309
160	0x3dbc7300	0.09201622
161	0x3dbb299e	0.09138797
162	0xbd456702	-0.04819394
163	0xbd8bb306	-0.068212554
164	0x3e20ff6f	0.1572244
165	0xbdd6eb65	-0.10494117
166	0x3e155ff9	0.14587392
167	0x3cfe7893	0.031063354
168	0xbd5e866a	-0.054327406
169	0xbda1c633	-0.078991316
170	0xbd882269	-0.06647188
171	0xba33a64e	-0.00068530894
172	0x3cb67c90	0.022276193
173	0x3de6e5e3	0.11274316
174	0xbcee1f57	-0.029067678
175	0x3d8774c6	0.0661407
176	0xbbdaf810	-0.0066824034
177	0x3ce6c571	0.02817032
178	0xbdd1974d	-0.102339365
179	0xbdabb156	-0.083834335
180	0x3c9a34ab	0.018823942
181	0x3d5fb357	0.05461439
182	0x3cca78bb	0.024715772
183	0x3e19c016	0.15014681
184	0xbe0f6ef7	-0.14007173
185	0xbe03f626	-0.12886867
186	0xbdcc7beb	-0.09984573
187	0x3e19daf5	0.15024932
188	0xbdfe4878	-0.12416166
189	0x3d524753	0.05133755
190	0xbd822e9a	-0.06356545
191	0x3d22e6db	0.039770942
192	0x3cea8c8b	0.02863147
193	0xbd0b950f	-0.0340777
194	0x3cb056af	0.021525709
195	0xbd555728	-0.05208507
196	0x3db8cdc0	0.09023619
197	0x3e212103	0.15735249
198	0xbd76bd54	-0.06023915
199	0xbe3184d0	-0.1733582
200	0xbe0a4615	-0.13503297
201	0xbdd4f076	-0.10397427
202	0x3ca11711	0.01966432
203	0x3d03a3ab	0.032138508
204	0xbd937d31	-0.07201613
205	0x3db01a83	0.08598807
206	0x3c8ac850	0.01694122
207	0xbe10a404	-0.14125067
208	0xbdeb1d8d	-0.11480246
209	0x3df55715	0.119795
210	0xbd0cf175	-0.03440996
211	0x3da1be37	0.07897609
212	0x3debb17e	0.11508463
213	0x3d948d8a	0.07253559
214	0x3dcc4889	0.099747725
215	0x3ce95f59	0.028487848
216	0xbdde7d5b	-0.108637534
217	0xbc84ddfa	-0.016219128
218	0x3d1d2d82	0.038373478
219	0xbdd0af63	-0.10189702
220	0xbc8a208d	-0.016861225
221	0xbd9ecf5e	-0.07754396
222	0xbcb793f8	-0.022409424
223	0x3dafe2d3	0.08588185
224	0x3df20ca0	0.11818814
225	0x3d5bcb5d	0.05366074
226	0xbd2daecb	-0.042403024
227	0x3c0b4ad7	0.00850173
228	0x3cbc286f	0.022968499
229	0x3d97f59f	0.074198954
230	0x3db80511	0.08985341
231	0x3e1b3f02	0.15160754
232	0x3c6edcbd	0.014578995
233	0x3d310ece	0.04322701
234	0x3d3e3341	0.0464356
235	0x3e05439e	0.13014075
236	0xbe119c5f	-0.14219807
237	0x3c9a668c	0.018847726
238	0xbda34d73	-0.07973757
239	0x3cf50b26	0.029912543
240	0xbe1176a3	-0.14205413
241	0xbd8b5084	-0.068024665
242	0xbd37583c	-0.04476188
243	0xbd2ee9c6	-0.042703412
244	0x3e0e99c6	0.13925847
245	0x3d446414	0.047947004
246	0xbd300a86	-0.042978786
247	0xbcd2a695	-0.025714198
248	0x3d253cc1	0.040341143
249	0x3cc9d6c5	0.024638543
250	0x3d2821e3	0.041047942
251	0x3e11bee8	0.14232981
252	0x3c4ecd17	0.012622139
253	0x3cf5a4b7	0.029985769
254	0xbce3fd8a	-0.027830858
255	0x3dc783e5	0.09741954

policy_layer.bias f4 [8]
0	0xbbfe605a	-0.007762951
1	0xbdd161bc	-0.102237195
2	0xbd8977c2	-0.06712295
3	0xbd298da0	-0.04139483
4	0xbac48e2f	-0.0014995987
5	0xbdba9646	-0.09110694
6	0xbdfad902	-0.12248422
7	0x3cfc6064	0.030807681

value_layer.weight f4 [1, 64]
0	0x3c316123	0.010826382
1	0x3d0212ba	0.03175614
2	0xbbcbbbd3	-0.0062174588
3	0xb9e02850	-0.00042754645
4	0xbd97f237	-0.07419246
5	0x3cc76c45	0.02434362
6	0xbd266e96	-0.040632807
7	0x3c1012c0	0.008793533
8	0xbc9e537d	-0.01932692
9	0x3c63e18e	0.013908757
10	0xbd9ae22b	-0.07562669
11	0xbd08eda5	-0.03342976
12	0x3d20b1d7	0.0392321
13	0xbd3f30e5	-0.04667749
14	0xbccd5d46	-0.02506889
15	0xbd46c09f	-0.04852354
16	0x3b3ed3a5	0.002911785
17	0xbd6e695a	-0.05820594
18	0x3dec68d7	0.11543434
19	0x3d06548e	0.03279548
20	0xbd79c11d	-0.060975183
21	0x3d81e2d3	0.063420914
22	0x3d97546d	0.0738915
23	0x3e0d0ac2	0.13773635
24	0x3d8806fe	0.06641959
25	0x3dd1de84	0.102475196
26	0xbd4d46eb	-0.05011646
27	0xbdc4fd02	-0.0961857
28	0xbd12fffd	-0.03588866
29	0x3b4eb59d	0.0031541355
30	0x3dcbaa0c	0.09944543
31	0x3d8dc85a	0.0692298
32	0x3d2af9e7	0.04174223
33	0x3d3065d5	0.043065865
34	0x3d764eae	0.06013363
35	0x3c856c65	0.016287038
36	0xbd9da689	-0.0769778
37	0x3c68d49c	0.014210846
38	0xbd373d36	-0.04473611
39	0xbd1582cc	-0.03650169
40	0xbbb39c34	-0.0054812673
41	0x3d814161	0.06311298
42	0xbd0df774	-0.034659818
43	0xbd065a3a	-0.03280089
44	0x3db29f1a	0.087217525
45	0xbd73529f	-0.059404965
46	0x3dab71c4	0.083713084
47	0xbcb189c4	-0.021672137
48	0xbd8f6680	-0.07001972
49	0x3cad5c60	0.021162212
50	0x3d960d27	0.07326727
51	0x3be627ba	0.0070237787
52	0xbd445fb9	-0.04794285
53	0xbcfd4fef	-0.030921904
54	0xbda80277	-0.08203595
55	0xbd981709	-0.074262686
56	0xbd5ad4c4	-0.053425565
57	0xbc0d6802	-0.008630754
58	0x3c99b611	0.018763574
59	0x3b8e94ed	0.0043512494
60	0x3d119753	0.035544705
61	0x3d60f8dd	0.054924835
62	0xbdc209ca	-0.09474523
63	0xbd82b37e	-0.06381892

log_std_parameter f4 [8]
0	0xc0622662	-3.5335927
1	0xc046cd75	-3.10629
2	0xc05ddee8	-3.46673
3	0xc062a56c	-3.5413465
4	0xc0841e14	-4.1286716
5	0xc076a41c	-3.8537664
6	0xc089abdd	-4.3022294
7	0xc042e5df	-3.0452802

net_container.0.weight f4 [256, 45]
0	0x3c8a6147	0.016892089
1	0xbe5c1445	-0.21492107
2	0x3b79b196	0.0038100234
3	0xbd9de97d	-0.0771055
4	0xbe0b6a03	-0.13614659
5	0x3d31a53e	0.043370478
6	0x3dce348c	0.10068616
7	0xbc062665	-0.008187865
8	0x3cac5928	0.021038607
9	0xbdc67df1	-0.0969199
10	0xbd3f1c31	-0.046657745
11	0x3dbfb1c1	0.09360076
12	0x3d798ac1	0.06092334
13	0xbe32f1a8	-0.17474997
14	0xbd0ca3d9	-0.034335945
15	0xbda8ced2	-0.08242573
16	0x3dfaf9d8	0.12254685
17	0xbdb814ce	-0.08988343
18	0xbc1a52fc	-0.009419199
19	0xbdcca6b6	-0.09992735
20	0xbe1ba13f	-0.15198229
21	0x3df5aace	0.11995469
22	0x3e10fc1d	0.14158674
23	0xbdbd79c9	-0.09251744
24	0xbd9511a4	-0.07278755
25	0xbbc6e1c9	-0.006069396
26	0xbdd7c423	-0.10535457
27	0x3c325439	0.010884338
28	0x3e1fde31	0.15612103
29	0xbdbdb3ca	-0.09262808
30	0xbe3ddc0c	-0.18540972
31	0x3c662ccd	0.014048767
32	0x3d9b38b5	0.075791754
33	0xbded0220	-0.11572671
34	0xbdc7cb90	-0.09755623
35	0x3e0b523b	0.13605587
36	0xbd721af1	-0.059107725
37	0xbd76d4af	-0.060261425
38	0xbe1596eb	-0.14608352
39	0x3dc0f841	0.09422351
40	0x3d730a82	0.059336193
41	0xbba16455	-0.0049252906
42	0x3dffdc89	0.124932356
43	0x3d06b8dc	0.03289114
44	0x3dad18c3	0.084519885
45	0x3d8100c1	0.06298972
46	0xbdc8f23e	-0.09811829
47	0x3d62046a	0.05517999
48	0xbe1a193a	-0.15048686
49	0x3d57166b	0.052511614
50	0xbdee8115	-0.11645714
51	0x3e30a920	0.17252016
52	0x3e16abcb	0.14713971
53	0x3dea050b	0.11426743
54	0xbd33f882	-0.043938167
55	0xbdd29616	-0.10282533
56	0x3dae44ea	0.08509238
57	0xbd102aff	-0.035197254
58	0xbdd10291	-0.10205568
59	0x3e4aaede	0.19793269
60	0xbc81dc41	-0.015852096
61	0xbd9d05f8	-0.07667154
62	0xbe161f02	-0.14660266
63	0xbda9d33c	-0.08292243
64	0xba8c8ff2	-0.0010724051
65	0xbc2f411a	-0.010696674
66	0xbc28315a	-0.010265673
67	0xbd216bcf	-0.039409455
68	0x3d9fee05	0.078090705
69	0xbd86513f	-0.06558465
70	0x3c43a0ef	0.011940225
71	0x3d8660a2	0.065614
72	0xbdd87136	-0.10568468
73	0xbdfe3584	-0.12412551
74	0x3e81f480	0.2538185
75	0xbd5db28a	-0.054125346
76	0xbd0d40c9	-0.034485612
77	0xbc3420e1	-0.010994167
78	0x3dab807d	0.083741166
79	0xbc3d3582	-0.011548402
80	0x3dd3fec6	0.103513286
81	0xbb403449	-0.002932804
82	0x3d59844f	0.053104695
83	0x3d535124	0.051591054
84	0x3e0209c1	0.12699033
85	0xbd835484	-0.064126045
86	0xbd948501	-0.07251931
87	0xbd8b18bd	-0.06791828
88	0x3dae6919	0.085161395
89	0xbdbede45	-0.09319738
90	0x3e2163b5	0.15760691
91	0x3e137b9c	0.14402622
92	0xbd463185	-0.04838707
93	0x3de84770	0.113417506
94	0x3d3bd023	0.04585279
95	0xbde00b44	-0.10939649
96	0xbc0496a3	-0.008092555
97	0x3da514c9	0.08060605
98	0xbe0b4ab6	-0.13602719
99	0x3d12a35c	0.035800323
100	0xbdc56c69	-0.09639818
101	0x3e28752d	0.16450949
102	0xbcedbf1b	-0.02902179
103	0xbde28d7f	-0.110621445
104	0xbd5bc7ba	-0.05365727
105	0xbdac05bc	-0.08399531
106	0x3c45f399	0.012082004
107	0x3e1ba16b	0.15198295
108	0x3ddb885c	0.10719368
109	0x3dcd7bd0	0.10033381
110	0xbdd78794	-0.10523906
111	0xbd9c66c5	-0.07636789
112	0x3de6d21f	0.11270546
113	0x3d81898a	0.063250616
114	0x3d9d578d	0.076827146
115	0x3dcdc4b3	0.10047283
116	0x3e15d9f2	0.14633921
117	0x3b59396d	0.00331458
118	0x3e000dc0	0.12505245
119	0x3d080c3f	0.033214804
120	0xbd6f688f	-0.058449324
121	0x3b9321fc	0.0044901352
122	0x3de2ee58	0.11080617
123	0x3c65294d	0.013986898
124	0xbdcbffde	-0.09960912
125	0xbcff6e00	-0.031180382
126	0x3de8a7a4	0.113601
127	0xbc451488	-0.012028821
128	0x3dba6497	0.09101217
129	0xbd5fb336	-0.05461427
130	0x3df202b8	0.11816925
131	0xbd9a0af9	-0.07521624
132	0xbd8f0a67	-0.06984406
133	0xbda6e0c8	-0.08148342
134	0xbdb2d5a3	-0.08732154
135	0xbe2b82ae	-0.16749069
136	0xbcb8a19c	-0.022537999
137	0x3d6c5594	0.0576988
138	0x3d229108	0.039689094
139	0x3e370858	0.17874277
140	0x3a4e3b3b	0.00078671024
141	0x3c6a3edb	0.0142972125
142	0x3abcae65	0.0014395235
143	0xbe6adf79	-0.2293681
144	0xbdba547f	-0.090981476
145	0xbe157ff8	-0.14599597
146	0x3e1079d7	0.14108978
147	0x3e1561d1	0.14588095
148	0xbc0971da	-0.008388961
149	0xbe3b51e8	-0.18292964
150	0x3d254c97	0.040356245
151	0x3d150c37	0.036388602
152	0x3e1e63b5	0.15467723
153	0xbe1668e5	-0.14688452
154	0xbd12fa53	-0.03588326
155	0x3d311de1	0.043241385
156	0x3dc46d58	0.09591168
157	0xbc9f2005	-0.019424448
158	0x3dbc6885	0.09199623
159	0xbdf16a97	-0.117879085
160	0x3c172424	0.009224925
161	0xb8b4a025	-8.612898e-05
162	0xbd179ec6	-0.037016653
163	0x3d4f8c17	0.05067071
164	0x3d78b1bd	0.06071638
165	0x3dbabe6f	0.091183536
166	0xbe05e7ff	-0.1307678
167	0xbd70ae68	-0.058760077
168	0x3dcf508c	0.10122785
169	0x3e05d7a2	0.13070539
170	0x3dd319bf	0.10307645
171	0x3dea6f17	0.1144697
172	0x3d440715	0.047858316
173	0xbda62f0b	-0.081144415
174	0xbba08e3d	-0.0048997686
175	0x3e3b8f70	0.18316436
176	0xbcc3cf87	-0.023902668
177	0x3c5d2c51	0.013499335
178	0xbdd5f2a7	-0.10446673
179	0xbd8b4b31	-0.06801451
180	0xbd63f55f	-0.055653926
181	0x3d626636	0.055273257
182	0x3c361517	0.011113427
183	0x3d8bf492	0.068337575
184	0xbe41f2bf	-0.18940257
185	0xbd32c783	-0.0436473
186	0x3d4f5502	0.05061818
187	0xbd06f978	-0.032952756
188	0x3d2ed3a0	0.04268229
189	0x3df19b32	0.11797179
190	0x3cfb9dd1	0.030714901
191	0xbddbfd1c	-0.10741636
192	0x3cf79329	0.030221539
193	0x3e3c662b	0.18398349
194	0xbd749265	-0.059709925
195	0xbbe285fa	-0.006912944
196	0x3debfe0c	0.11523065
197	0x3cf016a6	0.029307675
198	0x3d07cffe	0.03315734
199	0xbdfc7b00	-0.12328148
200	0x3e27f239	0.16400994
201	0xb8f0984b	-0.000114724586
202	0xbcaee73a	-0.021350492
203	0x3adcaaf1	0.0016835612
204	0xbddc5d46	-0.10759978
205	0x3df1efe9	0.11813337
206	0xbd833516	-0.0640661
207	0xbd55c3cb	-0.052188676
208	0x3c1a231e	0.009407787
209	0xbcfa7b01	-0.030576231
210	0xbdd6e0da	-0.10492106
211	0x3d0502be	0.03247332
212	0xbd91c559	-0.07117719
213	0x3e29ee5b	0.16594832
214	0xbd9456ff	-0.07243156
215	0x3ddeec33	0.10884895
216	0x3dbdbea6	0.09264879
217	0x3de9e51c	0.11420652
218	0xbdef77ec	-0.11692795
219	0x3e14ab10	0.1451838
220	0xbd0dfb75	-0.034663636
221	0x3d1389b0	0.03601998
222	0x3e24ae85	0.16082199
223	0xbe16d8b4	-0.14731103
224	0xbbccad19	-0.006246221
225	0xbda8922c	-0.08231005
226	0xbe0d5cb1	-0.1380489
227	0xbd3933a1	-0.045215253
228	0xbc11c160	-0.008896202
229	0xbdcecd74	-0.10097781
230	0x3d70fd59	0.05883536
231	0x3de4bc81	0.11168767
232	0x3e130260	0.14356375
233	0x3cc20fbf	0.023689149
234	0xbd4609a8	-0.048349053
235	0xbd7c59ec	-0.061609194
236	0xbdc82f35	-0.09774629
237	0xbdf372f8	-0.11887163
238	0x3d107ea5	0.035277028
239	0xbd18ac03	-0.03727342
240	0xbda821f5	-0.08209602
241	0x3d865664	0.065594465
242	0xbcb5a5e4	-0.02217383
243	0x3e25a4b0	0.16176105
244	0x3d2c055a	0.04199729
245	0x3cf05184	0.029335745
246	0xbdb6e1b6	-0.0892977
247	0xba7d0729	-0.0009652251
248	0xbbbd818a	-0.0057832645
249	0xbd9b11dc	-0.07571766
250	0x3dd6fd57	0.104975395
251	0x3e1191c9	0.14215769
252	0x3dff981b	0.12480184
253	0x3d344aba	0.044016577
254	0x3cd0a839	0.02547084
255	0xbe2a0bb3	-0.16606025
