CubeStackTask/logs/skrl/object_red_stack/2025-10-09_17-18-16_ppo_torch/checkpoints/agent_57600.pt (torch, 660141 bytes, 46 tensors)

log_std_parameter f4 [8]
0	0xc05abe2d	-3.4178574
1	0xc03fdb89	-2.9977744
2	0xc0551c10	-3.3298378
3	0xc05b6153	-3.4278152
4	0xc080fbff	-4.0307612
5	0xc06b2e3f	-3.6746976
6	0xc0861a2f	-4.1906962
7	0xc03c4802	-2.941895

net_container.0.weight f4 [256, 45]
0	0x3c8410fa	0.016121376
1	0xbe5bafdc	-0.21453804
2	0x3b863b19	0.0040964005
3	0xbd9fa06f	-0.07794272
4	0xbe0acee8	-0.13555491
5	0x3d34f472	0.044178434
6	0x3dcd905e	0.100373015
7	0xbc055610	-0.008138195
8	0x3ca3fa14	0.020016707
9	0xbdc626b0	-0.09675348
10	0xbd3fdaca	-0.046839513
11	0x3dc16379	0.09442801
12	0x3d7cc6c4	0.061712995
13	0xbe3222f8	-0.17396152
14	0xbd0d4d9c	-0.034497842
15	0xbda80661	-0.08204342
16	0x3dfb7ee8	0.12280065
17	0xbdbc5a97	-0.09196966
18	0xbbf8d3ea	-0.0075936215
19	0xbdcd8edb	-0.10037013
20	0xbe1c1246	-0.15241346
21	0x3df65aa5	0.12029008
22	0x3e11c2c8	0.1423446
23	0xbdbff43b	-0.09372755
24	0xbd986142	-0.074404255
25	0xbb9023d5	-0.0043988028
26	0xbdd92143	-0.10602047
27	0x3c32bf13	0.010909813
28	0x3e1fc40e	0.15602133
29	0xbdbabeaa	-0.091183975
30	0xbe3adcd9	-0.18248309
31	0x3c5c90cc	0.013462257
32	0x3d98e251	0.074650414
33	0xbdecb524	-0.11557987
34	0xbdc82fa8	-0.09774715
35	0x3e0b4423	0.13600211
36	0xbd710b9c	-0.058848962
37	0xbd7cfa46	-0.061762117
38	0xbe1669ee	-0.14688846
39	0x3dc186b4	0.09449521
40	0x3d6eba8f	0.058283385
41	0xbbeabf3e	-0.007163911
42	0x3dfca8a3	0.123368524
43	0x3d084948	0.03327301
44	0x3dac93b2	0.08426608
45	0x3d75b0b3	0.059982967
46	0xbdc78369	-0.097418614
47	0x3d5f17d6	0.05446609
48	0xbe1a1fe4	-0.15051228
49	0x3d5b0d6b	0.053479593
50	0xbdec418c	-0.115359396
51	0x3e2e0959	0.16995753
52	0x3e15c500	0.14625931
53	0x3de347c5	0.11097673
54	0xbd31d181	-0.04341269
55	0xbdd46ed0	-0.10372698
56	0x3dafa6e9	0.085767575
57	0xbd0dba03	-0.034601223
58	0xbdce0b4d	-0.10060749
59	0x3e48268e	0.19545957
60	0xbc827041	-0.015922667
61	0xbd9ce7ce	-0.07661401
62	0xbe183a71	-0.14866044
63	0xbda7b399	-0.081885524
64	0x395a2845	0.00020805102
65	0xbc3a64fa	-0.011376614
66	0xbc059607	-0.008153445
67	0xbd2956a1	-0.04134238
68	0x3d9ec188	0.07751757
69	0xbd8c3e71	-0.06847847
70	0x3c2165ac	0.009850901
71	0x3d809af7	0.06279557
72	0xbdd26ca4	-0.10274628
73	0xbdfbaa5d	-0.122883536
74	0x3e821692	0.25407845
75	0xbd636ce5	-0.05552377
76	0xbce9c025	-0.028534004
77	0xbc2c4fed	-0.010517103
78	0x3db0a4a3	0.08625152
79	0xbc6b0f96	-0.014346978
80	0x3dd68ac3	0.104756854
81	0xbb3ebe8f	-0.002910528
82	0x3d56936c	0.052386686
83	0x3d4d264c	0.05008535
84	0x3e003759	0.12521113
85	0xbd848d42	-0.06472255
86	0xbd981138	-0.07425159
87	0xbd8bacb3	-0.06820049
88	0x3dae43e0	0.0850904
89	0xbdbefc70	-0.093254924
90	0x3e20695f	0.15665196
91	0x3e12e985	0.14346893
92	0xbd4725d6	-0.048620068
93	0x3de62a38	0.11238521
94	0x3d375d75	0.044766862
95	0xbde09a0b	-0.10966881
96	0xbbff041d	-0.0077824728
97	0x3da9bbde	0.08287786
98	0xbe0c0285	-0.13672836
99	0x3d13359d	0.0359398
100	0xbdc527db	-0.096267425
101	0x3e27298a	0.1632444
102	0xbcf6e0e1	-0.030136527
103	0xbde28ca1	-0.11061979
104	0xbd5ab00c	-0.053390548
105	0xbda8dba5	-0.08245019
106	0x3c603ff5	0.013687124
107	0x3e1e3d93	0.15453176
108	0x3dd05b3f	0.10173654
109	0x3dc3bf75	0.09558002
110	0xbdd6e880	-0.104935646
111	0xbd9d979d	-0.076949336
112	0x3de68cc5	0.112573184
113	0x3d728dcc	0.05921726
114	0x3d9b685f	0.075882666
115	0x3dcb8671	0.09937752
116	0x3e1b0da5	0.15141924
117	0xbb3cce85	-0.0028809619
118	0x3dfe5ecf	0.12420427
119	0x3d0982c8	0.03357199
120	0xbd7bf91c	-0.061516866
121	0x3bebeb2c	0.0071996655
122	0x3de19d67	0.1101635
123	0x3c87f6d8	0.016597196
124	0xbdbe235d	-0.09284089
125	0xbd01ec5d	-0.031719554
126	0x3de803fc	0.11328885
127	0xbc444d8d	-0.01198138
128	0x3dbe4244	0.09289983
129	0xbd62b2a9	-0.055346165
130	0x3df47ade	0.119374976
131	0xbd936687	-0.0719729
132	0xbd989f5d	-0.07452271
133	0xbda3b6b2	-0.07993831
134	0xbdb61f05	-0.08892635
135	0xbe2ae7ae	-0.16689941
136	0xbcc33c14	-0.023832358
137	0x3d6cb8c6	0.0577934
138	0x3d1dd753	0.038535427
139	0x3e35d8ce	0.17758486
140	0xb9c6ded0	-0.0003793151
141	0x3c9365cc	0.017992876
142	0x3b1852a9	0.0023242629
143	0xbe6a5842	-0.2288523
144	0xbdbd16a8	-0.09232837
145	0xbe155b42	-0.14585593
146	0x3e0e8232	0.13916853
147	0x3e14c02b	0.14526431
148	0xbc1c306f	-0.009533032
149	0xbe378ade	-0.17924067
150	0x3d28e528	0.041234165
151	0x3d17c67a	0.037054516
152	0x3e223a69	0.15842594
153	0xbe18e779	-0.1493205
154	0xbd1923ab	-0.03738753
155	0x3d33eaf3	0.043925237
156	0x3dc42777	0.0957784
157	0xbc9e9edf	-0.019362865
158	0x3db9149e	0.090371355
159	0xbdeef012	-0.116668835
160	0x3c0e1b68	0.008673526
161	0x3bcd30d6	0.006261925
162	0xbd056e35	-0.032575805
163	0x3d4b5979	0.049645875
164	0x3d6f2a25	0.0583898
165	0x3dbee28c	0.09320554
166	0xbe09c2b2	-0.13453177
167	0xbd81f368	-0.06345254
168	0x3dc9c66c	0.09852299
169	0x3e006c10	0.12541223
170	0x3dd114b6	0.102090284
171	0x3ded5e59	0.11590261
172	0x3d4841a9	0.048890743
173	0xbda3cc60	-0.07997966
174	0xbb391f02	-0.0028247242
175	0x3e3d4fa2	0.18487409
176	0xbcc74ce5	-0.024328658
177	0x3c6881fe	0.014191149
178	0xbdd426cc	-0.103589624
179	0xbd8ca868	-0.068680584
180	0xbd60e753	-0.054908108
181	0x3d653645	0.05595996
182	0x3c3bed3c	0.011470135
183	0x3d8dbbb3	0.069205664
184	0xbe41303b	-0.18866055
185	0xbd2fd714	-0.042929724
186	0x3d489531	0.048970405
187	0xbd05dcdb	-0.032681327
188	0x3d32b813	0.043632578
189	0x3df2c12c	0.11853251
190	0x3cfd5e87	0.030928863
191	0xbdd8de54	-0.10589281
192	0x3cfe0e57	0.031012697
193	0x3e3cbd57	0.18431602
194	0xbd7b5ea2	-0.061369546
195	0xbbd91483	-0.0066247596
196	0x3decddb7	0.11565726
197	0x3cd5cdba	0.026099075
198	0x3d0baefa	0.034102418
199	0xbe013c11	-0.1262057
200	0x3e258042	0.16162208
201	0xba892bc8	-0.0010465318
202	0xbc9d5b58	-0.019208595
203	0x3b144a61	0.002262734
204	0xbddda0af	-0.108216636
205	0x3defb360	0.11704135
206	0xbd897adb	-0.06712886
207	0xbd480cb2	-0.048840232
208	0x3c03a521	0.008034975
209	0xbd01421b	-0.031557184
210	0xbdc298eb	-0.09501823
211	0x3cfa0c55	0.030523458
212	0xbd90a800	-0.070632935
213	0x3e2a6c8f	0.16642974
214	0xbd9c5014	-0.07632461
215	0x3ddbf2b2	0.1073965
216	0x3dbbedd7	0.09176224
217	0x3de4d160	0.111727476
218	0xbdf3e789	-0.11909396
219	0x3e151d17	0.14561878
220	0xbd12e5b4	-0.035863593
221	0x3d0c7618	0.03429231
222	0x3e26cab7	0.16288267
223	0xbe168cef	-0.147022
224	0xbbdaaacc	-0.0066731926
225	0xbdaaafd3	-0.08334317
226	0xbe0e5636	-0.13900074
227	0xbd39f6db	-0.045401435
228	0xbc2dd83a	-0.010610634
229	0xbdceaca2	-0.10091521
230	0x3d6e8294	0.058229998
231	0x3de4ed93	0.11178126
232	0x3e12a6b5	0.14321406
233	0x3cb93a3b	0.022610774
234	0xbd49fff9	-0.04931638
235	0xbd7d1a1c	-0.061792478
236	0xbdc87cd0	-0.09789431
237	0xbdf19ed0	-0.11797869
238	0x3d0efdf1	0.034910146
239	0xbd17bbac	-0.037044212
240	0xbda71ef1	-0.081601985
241	0x3d873d60	0.06603503
242	0xbcc43b6b	-0.023954114
243	0x3e26a414	0.16273528
244	0x3d2be76a	0.04196874
245	0x3cecacc1	0.02889097
246	0xbdba5b2d	-0.09099422
247	0xbaf502de	-0.0018692871
248	0xbbafc2f5	-0.005363817
249	0xbd9f8d70	-0.07790649
250	0x3dd8dc19	0.10588855
251	0x3e120d3e	0.14262864
252	0x3dff10c9	0.124543734
253	0x3d34cec8	0.044142514
254	0x3ccd95ee	0.025095906
255	0xbe280992	-0.16409901

net_container.0.bias f4 [256]
0	0x3e523a0a	0.20529953
1	0xbe0a4f53	-0.13506822
2	0x3d244274	0.040102437
3	0x3c436ec9	0.011928269
4	0x3d344b64	0.04401721
5	0x3d33a4bb	0.04385827
6	0x3e1d3cc4	0.15355211
7	0x3e0b6e75	0.13616355
8	0x3db2f895	0.087388195
9	0x3b85e7a1	0.00408645
10	0x3d12f43d	0.035877455
11	0xbd40d70a	-0.047080077
12	0x3d8343ea	0.06409438
13	0xbd285039	-0.04109213
14	0x3e0e6779	0.13906659
15	0xbdc7219b	-0.097232066
16	0x3de11bf7	0.10991662
17	0xbdeda6b1	-0.116040595
18	0x3df526c7	0.11970287
19	0x3d7985e9	0.060918722
20	0x3c7db74d	0.015485597
21	0x3d4e9bcf	0.05044156
22	0xbd904c33	-0.07045784
23	0x3e365378	0.17805278
24	0x3db3e43f	0.08783769
25	0x3d53af6b	0.051680963
26	0xbd4be2f9	-0.049777005
27	0xbe52e2db	-0.20594351
28	0xbe0244e2	-0.12721589
29	0xbdd040be	-0.101685986
30	0xbdaa4a68	-0.08314973
31	0xbd0bada7	-0.034101155
32	0x3e06558c	0.13118571
33	0x3db927f3	0.09040823
34	0x3ce19553	0.027537024
35	0xbe440fb6	-0.19146618
36	0x3dd9941f	0.10623955
37	0xbc77173f	-0.015081226
38	0x3dba35da	0.090923026
39	0xbdd51b63	-0.10405614
40	0xbe34752f	-0.17622827
41	0x3e160173	0.1464899
42	0xbdc77a23	-0.097400926
43	0xbd52b471	-0.051441614
44	0x3ca46fa4	0.020072766
45	0xbd6eec60	-0.058330894
46	0xbbd1d466	-0.0064034937
47	0xbdebf379	-0.11521048
48	0x3dfe60e3	0.124208234
49	0x3d4ed2f6	0.050494157
50	0xbd96d4b9	-0.073647924
51	0xbd7ab29b	-0.061205488
52	0xbdf8798c	-0.12132558
53	0xbd9e2caa	-0.07723363
54	0xbe02eb7f	-0.12785147
55	0xbd89c67b	-0.0672731
56	0x3e1bc9a7	0.15213643
57	0x3ca106a4	0.019656487
58	0x3e103a84	0.14084822
59	0x3ded6797	0.11592024
60	0xbd917b62	-0.071036115
61	0x3dd0112a	0.10159524
62	0x3e1cb9c1	0.15305234
63	0xbc8206c5	-0.015872369
64	0x3c14dee9	0.009086349
65	0x3e2a491c	0.16629452
66	0x3dcb5fd6	0.09930389
67	0xbd87219a	-0.06598206
68	0x3db5b207	0.08871847
69	0x3dce676f	0.10078322
70	0x3df7d0f2	0.121004
71	0xbde7ff1e	-0.113279566
72	0x3dff9dd4	0.12481275
73	0x3d467363	0.048449885
74	0xbd18b476	-0.037281476
75	0x3d94e5f3	0.07270422
76	0x3e063fd6	0.13110289
77	0xbcbc28da	-0.022968698
78	0x3e196fc6	0.14984044
79	0x3dbcf673	0.09226694
80	0xbe143751	-0.14474227
81	0xbdec5ffe	-0.115417466
82	0x3da9d19e	0.082919344
83	0x3de14b3f	0.1100068
84	0x3b7b408f	0.003833804
85	0x3dfd17a9	0.123580284
86	0x3dca925c	0.09891197
87	0x3e191f8f	0.14953445
88	0xbd764b70	-0.060130537
89	0x3e07ae59	0.13250102
90	0xbda14675	-0.07874767
91	0xbdc9acce	-0.09847413
92	0x3d705f39	0.05868456
93	0xbde35aaa	-0.11101277
94	0xbd1ba071	-0.037994806
95	0x3d0a4a4f	0.033762272
96	0x3d7f2956	0.06229528
97	0x3c1caf60	0.009563297
98	0xbe3742b8	-0.17896545
99	0x3b63bc71	0.003474977
100	0x3daacdac	0.0834001
101	0x3d8e20af	0.06939828
102	0xbe319f50	-0.17345929
103	0xbc172971	-0.009226189
104	0xbc89eac6	-0.016835582
105	0x3d5ae655	0.053442318
106	0xbcaa7913	-0.020809686
107	0xbd984bb8	-0.07436317
108	0xbd085290	-0.033281863
109	0xbd67fde6	-0.05663862
110	0x3c6e7053	0.014553147
111	0x3da93aca	0.08263166
112	0xbdc5c6b0	-0.09657037
113	0xbdf67f33	-0.1203598
114	0x3dd51a68	0.10405427
115	0x3dff4f40	0.124662876
116	0xbe2e4a72	-0.17020586
117	0x3d3dafc3	0.046310198
118	0xbd186abb	-0.03721116
119	0x3d61f834	0.055168346
120	0xbd7ee8ae	-0.06223362
121	0xbd6c4241	-0.057680372
122	0x3e3463a5	0.17616136
123	0xbe33cb3c	-0.17557997
124	0x3c6a3fd9	0.014297449
125	0xbdc655e9	-0.09684355
126	0xbdbe85e9	-0.09302885
127	0x3e06f26d	0.13178416
128	0x3db846fe	0.08997916
129	0xbe762279	-0.24036588
130	0x3e07af27	0.13250409
131	0xbd65a3e7	-0.056064513
132	0xbe356c3c	-0.1771707
133	0xbd55fae1	-0.05224121
134	0xbdb72b04	-0.089437515
135	0x3b9b70b9	0.004743662
136	0x3e5d4d82	0.21611598
137	0x3d9e6a73	0.07735147
138	0x3dc08c2a	0.09401734
139	0x3d6e84c9	0.058232103
140	0x3e0496e5	0.12948187
141	0xbe2e7273	-0.17035846
142	0xbcc38e25	-0.02387149
143	0xbe1822f5	-0.14857085
144	0xbd92fba7	-0.07176905
145	0x3dce33e2	0.100684896
146	0xbd1f1648	-0.03883961
147	0xbe0ce6cc	-0.13759917
148	0xbdb65694	-0.08903232
149	0xbe222261	-0.15833427
150	0xbd0fc0e2	-0.035096057
151	0x3d7f85aa	0.06238333
152	0xbd44afa9	-0.048019085
153	0x3cb9f5e2	0.022700254
154	0x3e0bb18d	0.13641949
155	0xbd7b6c96	-0.061382852
156	0xbd862b2f	-0.06551205
157	0xbddd52b0	-0.10806787
158	0xbdc37fb8	-0.09545845
159	0xbced8565	-0.028994272
160	0xbda05142	-0.07827999
161	0x3df18e47	0.117947154
162	0x3de4a462	0.11164166
163	0x3c8c2420	0.01710707
164	0x3da64f67	0.081206135
165	0xbd8ba18f	-0.06817924
166	0xbdf26ad9	-0.11836786
167	0x3cfbb543	0.03072608
168	0xbe173b4f	-0.14768718
169	0xbe27acb6	-0.16374478
170	0x3dda056c	0.106455654
171	0xbd889c8f	-0.06670486
172	0x3e26f986	0.16306123
173	0xbe207bf7	-0.15672289
174	0x3e1c3d55	0.15257771
175	0x3e1c97e0	0.1529231
176	0xbd6f11ac	-0.058366463
177	0xbe039364	-0.12849194
178	0xbdba0112	-0.090822354
179	0x3e0a25d7	0.13490997
180	0xbdfbead0	-0.12300646
181	0x3d9a6866	0.07539444
182	0x3d994ab7	0.07484954
183	0xbd58bb6e	-0.052913122
184	0xbdfba1b9	-0.122867055
185	0x3d3a807c	0.04553269
186	0x3d3d3a43	0.04619814
187	0x3d2b48f4	0.04181762
188	0xbd723e02	-0.059141167
189	0xbdcb951a	-0.09940548
190	0x3bdf8134	0.006820822
191	0xbdd9aec0	-0.10629034
192	0xbcef2851	-0.029194029
193	0xbd860c95	-0.065453686
194	0x3e0c6638	0.13710868
195	0x3d61ac8a	0.055096187
196	0xbdfc205a	-0.12310858
197	0x3d29a62e	0.041418247
198	0xbd05fddb	-0.0327128
199	0x3d4cfe99	0.05004749
200	0x3c85ce16	0.016333621
201	0x3da00006	0.078125045
202	0x3d56fdeb	0.05248825
203	0x3d1e7582	0.038686283
204	0x3df87472	0.12131585
205	0xbca65b75	-0.020307282
206	0x3d156041	0.036468748
207	0xbddf7595	-0.10911099
208	0xbcfc53c4	-0.030801661
209	0x3e4013ed	0.18757601
210	0xbc7e2718	-0.01551225
211	0x3d9776fc	0.07395741
212	0x3e356057	0.17712532
213	0x3dd62b41	0.10457469
214	0xbe090824	-0.13382012
215	0x3d6b1350	0.057391465
216	0x3dcc9657	0.099896125
217	0x3d7beb1d	0.06150352
218	0x3e18aeb8	0.149104
219	0x3dd1c3e0	0.10242438
220	0x3c36199e	0.011114506
221	0x3d4e9c37	0.050441947
222	0x3cab7312	0.020928893
223	0xbe118e35	-0.14214404
224	0x3dea7bd3	0.11449399
225	0xbdf12957	-0.11775463
226	0xbd8778fc	-0.06614873
227	0x3d6c0c24	0.057628766
228	0xbd9833fe	-0.07431792
229	0xbd965360	-0.07340121
230	0x3e494585	0.19655426
231	0x3ca5db98	0.020246312
232	0xbde4e783	-0.1117697
233	0x3e103329	0.14082016
234	0x3e05ebb7	0.130782
235	0x3dc8d0fa	0.09805484
236	0x3caab59d	0.020838553
237	0x3e3503a0	0.17677164
238	0x3d4892ae	0.04896801
239	0x3dd09c42	0.10186054
240	0xbd0bdf13	-0.034148287
241	0xbd86c7ac	-0.06581053
242	0x3e194476	0.14967522
243	0x3d09edb3	0.033673953
244	0x3cfbf37e	0.030755755
245	0x3db4c200	0.08826065
246	0xbe3c5177	-0.18390451
247	0x3baf84d7	0.005356412
248	0xb9c3415a	-0.0003724199
249	0xbc543d6d	-0.012954098
250	0x3e159fe6	0.14611778
251	0xba0f75a6	-0.0005472548
252	0xbdc6193e	-0.09672783
253	0x3c9ef4a1	0.019403758
254	0xbe5ec380	-0.21754265
255	0x3d43b963	0.04778422

net_container.2.weight f4 [128, 256]
0	0x3d674671	0.056463663
1	0xbcdb94aa	-0.026804287
2	0xbb37cb81	-0.0028044882
3	0xbc415caf	-0.011801883
4	0x3cbb95f7	0.022898657
5	0xbcfa86d8	-0.030581877
6	0x3ced258e	0.028948572
7	0xbd7215f0	-0.059102952
8	0xbceef998	-0.02917175
9	0x3d6faf5d	0.05851685
10	0xbd55a4fb	-0.05215929
11	0xbcd65d1e	-0.026167449
12	0x3d188ffa	0.03724668
13	0xbd9069c6	-0.07051425
14	0x3c7f8e6c	0.015597921
15	0xbbf84bee	-0.007577411
16	0xbd196479	-0.037449334
17	0x3ca034cf	0.019556431
18	0x3b9daa8c	0.0048115905
19	0x3d234685	0.039862175
20	0xbd4059d0	-0.046960652
21	0xbb406789	-0.0029358587
22	0xbd2a8ef2	-0.04164023
23	0xbdcc7e38	-0.09985012
24	0xbc8ec6e7	-0.017428828
25	0x3cf4f8e6	0.02990384
26	0xbd2d3f09	-0.042296443
27	0x3db3a9d6	0.08772628
28	0x3c956541	0.018236758
29	0x3c088bc2	0.008334102
30	0x39a42cef	0.00031313996
31	0x3d1eb318	0.038745016
32	0xbd93886a	-0.07203753
33	0xbd84cb79	-0.06484122
34	0xbda5b3df	-0.08090948
35	0x3d72015d	0.05908333
36	0xbc06f8bc	-0.008238014
37	0x3d9fff0e	0.0781232
38	0x3cdf5034	0.027259924
39	0x3d10a01e	0.03530895
40	0x3d733e06	0.059385322
41	0x3d46f2db	0.04857145
42	0xbb1d571a	-0.0024008215
43	0xbd0f605c	-0.035004005
44	0x3d28203d	0.04104637
45	0x3d145684	0.03621532
46	0xbd5c9962	-0.053857215
47	0x3da57396	0.08078687
48	0x3d322a78	0.043497533
49	0x3c9b44d4	0.018953718
50	0x3d84df5a	0.064879134
51	0x3cff19cd	0.031140232
52	0x3d36b2fc	0.044604287
53	0xbd17fa08	-0.037103683
54	0x3d01d12c	0.031693622
55	0x3c6f50fc	0.0146067105
56	0xbdc1399b	-0.094348155
57	0xbd902da4	-0.07039955
58	0x3d1c427f	0.038149353
59	0xbc6161ea	-0.013756255
60	0x3d3242d7	0.043520775
61	0x3c81c465	0.015840719
62	0x3ca84840	0.020542264
63	0x3c16b572	0.009198533
64	0xbd7f4647	-0.06232288
65	0xbd49f9c3	-0.049310457
66	0xbd67223f	-0.056429144
67	0xbd95f24e	-0.073216066
68	0xbc8ac1c6	-0.016938102
69	0x3ce4ad5f	0.027914701
70	0xbbdad082	-0.006677688
71	0xbc0e1a73	-0.008673298
72	0x3ccccbee	0.024999585
73	0xbd024fe8	-0.031814486
74	0x3c7a11c5	0.015263026
75	0x3d8aa548	0.06769806
76	0xbcaa7673	-0.020808434
77	0xbd1ce50c	-0.038304374
78	0x3bcdd692	0.0062816823
79	0x3d5e560e	0.054281287
80	0x3d9879ae	0.074450836
81	0x3d9d41fd	0.07678602
82	0xbd324b42	-0.043528803
83	0x3d2ff490	0.042957842
84	0x3b8e179b	0.00433631
85	0x3d344e90	0.044020236
86	0xbceef997	-0.029171748
87	0xbdd9ce7c	-0.10635087
88	0x3d19025b	0.037355762
89	0xbd1631b2	-0.036668487
90	0xbd122ec2	-0.035689123
91	0xbc84bf47	-0.01620449
92	0xbccf7061	-0.025322141
93	0x3d1996ea	0.03749744
94	0xbd72f6ca	-0.059317388
95	0xbd057707	-0.032584216
96	0xbca9bb08	-0.020719066
97	0xbd38c1c8	-0.04510668
98	0x3d8f9c92	0.07012285
99	0xba3ebf9c	-0.0007276477
100	0xbc85caae	-0.016331997
101	0xbd4f6e58	-0.05064234
102	0xbc125bc9	-0.008933016
103	0xba8717db	-0.0010306792
104	0x3cbb213e	0.022843
105	0xbd59cf2c	-0.05317609
106	0xbd025849	-0.031822477
107	0x3c2adae9	0.010428169
108	0x3da3eeca	0.0800453
109	0x3da1de84	0.079037696
110	0xbb64ffcd	-0.0034942508
111	0xbd7ee5b4	-0.06223078
112	0x3da6b378	0.081397
113	0x3caaebc3	0.020864373
114	0xbd68f369	-0.05687276
115	0xbd8a2bf1	-0.067466624
116	0xbcb45b62	-0.022016231
117	0xbd0d715d	-0.03453194
118	0x3cadb342	0.02120364
119	0x3d31fab5	0.043451983
120	0xbd18479b	-0.037177663
121	0x3d314ebd	0.04328798
122	0xbd4c84cd	-0.049931336
123	0x3d715054	0.058914497
124	0x3d46ca8f	0.04853302
125	0x3d8d5732	0.06901397
126	0xbb783f40	-0.0037879497
127	0xbd8a19d3	-0.06743207
128	0x3c2f1f37	0.010688595
129	0x3d44fe9a	0.04809437
130	0xbd9499fd	-0.072559334
131	0xbcff1f55	-0.03114287
132	0x3d400659	0.046881054
133	0x3cfa3410	0.030542403
134	0x3d9f1aad	0.0776876
135	0x3cc83938	0.024441347
136	0x3d83fade	0.064443335
137	0xbc194c9a	-0.009356642
138	0x3c805be7	0.015668822
139	0x3dbaa3e8	0.09113294
140	0xbd08723a	-0.03331206
141	0x3c8ae4fb	0.01695489
142	0xbd5f2571	-0.054479066
143	0x3d21f0d6	0.03953632
144	0x3a46e204	0.00075867795
145	0xbd910f8c	-0.070830435
146	0x3ca888fc	0.020573132
147	0x3d4b3dd6	0.04961952
148	0xbd13ba59	-0.036066387
149	0xbd37175f	-0.044700023
150	0x3db75a09	0.0895272
151	0xbd4a54b7	-0.049397197
152	0xbd7f8ad5	-0.06238826
153	0x3d53462b	0.05158059
154	0xbdb92918	-0.09041041
155	0x3da41369	0.08011515
156	0xbcaa9a90	-0.020825654
157	0x3c90112e	0.017586317
158	0x3d0537ea	0.032524027
159	0xbd8fb1b3	-0.07016315
160	0x3d80d8ac	0.06291327
161	0xbce80357	-0.028321905
162	0xbda68114	-0.081300884
163	0xbdaaedc9	-0.08346135
164	0x3c3f4bd3	0.011675793
165	0xbc83a73a	-0.01607095
166	0xbda278fc	-0.07933232
167	0xbd44983c	-0.047996745
168	0x3d1db83b	0.038505774
169	0x3d4b8778	0.04968974
170	0xbc54b694	-0.012982983
171	0x3da7f6b9	0.082013555
172	0xbd0cb7e4	-0.03435506
173	0x3ba8d76f	0.005152635
174	0x3d391a01	0.045190815
175	0xbb18d00a	-0.002331736
176	0xbc363c06	-0.011122709
177	0x3c00880c	0.007844936
178	0x3d3b810d	0.04577737
179	0xbd7cdfd8	-0.06173691
180	0xbd4c19c5	-0.049829263
181	0xbddac048	-0.10681206
182	0x3c9c2168	0.019058898
183	0xbad41c78	-0.0016182801
184	0xbc7fa208	-0.015602596
185	0x3d0ccdc4	0.03437592
186	0xbcd5486a	-0.026035506
187	0x3bef9321	0.0073112403
188	0xbcfd34ec	-0.030909024
189	0xbc87b8d5	-0.016567627
190	0xbcc8dcd0	-0.024519354
191	0x3daccc47	0.084374
192	0xbb8d77b9	-0.0043172506
193	0xbd84f0ce	-0.06491242
194	0xbd597996	-0.05309447
195	0xbd07e501	-0.03317738
196	0xbd8aadf3	-0.067714594
197	0x3d98ea92	0.07466616
198	0x3d808d75	0.06276981
199	0xbd28f8e6	-0.041252993
200	0xbc81e42f	-0.015855877
201	0x3cc1814a	0.02362122
202	0xbd942a7f	-0.07234668
203	0xbd94a27e	-0.072575554
204	0x3c584a14	0.013201255
205	0x3ce329ce	0.027729895
206	0x3da3ce3c	0.079983205
207	0xbd4a6347	-0.049411085
208	0xbccbea7b	-0.024892082
209	0xbdab9d24	-0.083795816
210	0xbc462e30	-0.012095973
211	0xbd853475	-0.06504146
212	0xbda18865	-0.07887343
213	0xbd2bd635	-0.04195233
214	0x3ceb52f5	0.02872608
215	0xbd75d84f	-0.06002074
216	0x3aed35c2	0.0018097686
217	0xbc3e02e1	-0.011597366
218	0xbd21c284	-0.039492145
219	0xbc825bf0	-0.01591298
220	0x3c90632c	0.017625414
221	0x3c929fc0	0.01789844
222	0xbcacf104	-0.021111019
223	0x3cdad9f2	0.026715253
224	0xbcee6594	-0.02910117
225	0x3d7ee1cb	0.06222705
226	0x3cccda60	0.025006473
227	0x3d99c00c	0.07507333
228	0x3d60caa7	0.054880764
229	0xbd4b7877	-0.04967543
230	0x3ca642d8	0.020295545
231	0x3da81ade	0.082082495
232	0xbd2c4ef5	-0.042067487
233	0xbc808769	-0.015689569
234	0xbdb42651	-0.08796371
235	0xbd661880	-0.05617571
236	0x3d80d8a3	0.0629132
237	0xbd4d764c	-0.050161645
238	0xbcaeff96	-0.021362107
239	0x3c80ae7c	0.0157082
240	0xbd053cfe	-0.03252887
241	0x3cd674b8	0.026178703
242	0x3ccd7bfb	0.025083533
243	0xbc902378	-0.017595038
244	0xbd5f0906	-0.054451965
245	0x3d893b86	0.06700806
246	0x3d70a762	0.05875338
247	0xba744049	-0.00093174406
248	0x3d39f262	0.04539717
249	0xbc862d1f	-0.016378937
250	0xbdb57a87	-0.08861261
251	0xbd4e9122	-0.05043138
252	0xbbe0b96a	-0.0068580406
253	0xbd28a046	-0.041168474
254	0x3d3c4373	0.045962762
255	0xbbfec4ee	-0.0077749407

net_container.2.bias f4 [128]
0	0xbc8e25c3	-0.01735199
1	0xbdbaaaea	-0.091146305
2	0xbcdc20fb	-0.026871195
3	0xbdce9329	-0.10086662
4	0xbdc2ba20	-0.09508157
5	0x3d31dcf2	0.0434236
6	0x3d932c33	0.07186165
7	0xbcd716f0	-0.026256055
8	0x3d570896	0.052498423
9	0xbdaebac4	-0.085317165
10	0x3d9b4714	0.075819165
11	0xbcfea866	-0.031086158
12	0xbcc37515	-0.02385954
13	0x3c5bf2b1	0.013424561
14	0xbcb1a55f	-0.0216853
15	0x3d3fc5b0	0.04681939
16	0xbdc98a31	-0.09840811
17	0xbc65d309	-0.0140273655
18	0x3c9bc3ba	0.019014228
19	0x3c50515b	0.012714709
20	0x3da0fb0d	0.07860384
21	0x3ac01b5c	0.0014656591
22	0xbbe34f76	-0.0069369627
23	0xbc79c0be	-0.015243707
24	0x3ca3a4ba	0.019976009
25	0x3cc24878	0.023716196
26	0x3c4c8135	0.012481977
27	0xbe026e6e	-0.12737438
28	0xbdac72a9	-0.08420307
29	0xbd674a0f	-0.056467112
30	0xbdc7f5e1	-0.097636946
31	0xbd1578af	-0.036492046
32	0xbc22f920	-0.009947091
33	0xbb507aa4	-0.003181138
34	0x3d878a11	0.06618131
35	0x3d182586	0.03714516
36	0xbcfe7fcb	-0.031066796
37	0xbd9b78ed	-0.07591424
38	0xbc8e8951	-0.017399462
39	0x3c129bff	0.008948325
40	0xbdf47eea	-0.119382694
41	0xbca466b0	-0.020068496
42	0xbd876e18	-0.066127956
43	0x3d71848d	0.0589643
44	0x3d5ed3c5	0.054401178
45	0x3d1896f8	0.03725335
46	0x3d60e64b	0.054907124
47	0x3d9ad0cc	0.07559356
48	0x3d75f8b7	0.060051646
49	0x3d2b7055	0.041855175
50	0xbce86d40	-0.028372407
51	0xbdea56af	-0.11442315
52	0x3b901e4e	0.004398144
53	0x3da32c83	0.07967474
54	0xbdb18b70	-0.08669174
55	0xbd38bf6b	-0.045104425
56	0x3d93a086	0.07208352
57	0xbddd99a5	-0.10820321
58	0x3d966afa	0.07344623
59	0x3d5065d9	0.05087838
60	0xbde6afad	-0.11263976
61	0x3d7ea198	0.062165827
62	0xbcd885e9	-0.02643104
63	0xbd32c4e8	-0.043644816
64	0x3c92680f	0.017871885
65	0xbcf7d235	-0.030251602
66	0x3decf5b8	0.11570305
67	0xbd3f6b44	-0.046733156
68	0xbad78dce	-0.0016445459
69	0xbcfe1a86	-0.031018507
70	0xbdb18f95	-0.08669964
71	0xbd6e9e91	-0.05825669
72	0xbdd66568	-0.104685605
73	0x3ce5b59d	0.028040702
74	0xbce118c6	-0.027477633
75	0xbd37dfeb	-0.04489128
76	0xbb7d3a01	-0.003863931
77	0x3cf99bad	0.03046974
78	0xbd9b2176	-0.075747415
79	0x3b687ec9	0.003547596
80	0x3c6e26ec	0.014535647
81	0xbd7b5e53	-0.06136925
82	0x3db2cb5d	0.08730195
83	0xbb35213e	-0.0027638222
84	0xbd893590	-0.06699669
85	0xbbe2c574	-0.006920511
86	0x3dbf7612	0.09348692
87	0x3d55b342	0.052172907
88	0x3d22e795	0.039771635
89	0x3c920c60	0.017828166
90	0xbdffe11c	-0.12494108
91	0x3d31bc83	0.04339267
92	0xbdce4fbe	-0.10073803
93	0x3b47aa3a	0.0030466453
94	0xbd885016	-0.066559
95	0x3cf6ad68	0.030111983
96	0xba90bd5b	-0.001104276
97	0x3d3ac9be	0.045602553
98	0xbd856731	-0.06513823
99	0xbc739f5e	-0.014869539
100	0xbdcb9b0c	-0.09941682
101	0xbba19062	-0.004930542
102	0x3bf010d3	0.0073262244
103	0x3db06800	0.086135864
104	0xbcf49c12	-0.029859576
105	0xbcc2d8dc	-0.023785047
106	0xbc64819d	-0.013946918
107	0xbd3c9ef5	-0.04605003
108	0xbdc965c2	-0.09833862
109	0xbd1ca5f9	-0.03824422
110	0x3dc693c9	0.096961565
111	0x3d58ece7	0.052960303
112	0xbda91675	-0.082562365
113	0xbc822f12	-0.015891585
114	0x3c35dba7	0.0110997325
115	0x3d6231ed	0.055223394
116	0x3d2232ff	0.039599415
117	0xbd1be6c4	-0.038061872
118	0xbe0789b9	-0.13236131
119	0x3c4bd0aa	0.012439886
120	0x3d6bb072	0.05754132
121	0xbbdaa70e	-0.0066727465
122	0xbd6545d4	-0.055974796
123	0xbd047c29	-0.03234497
124	0x3da50cdc	0.08059093
125	0xbc4897ec	-0.012243252
126	0xbdb26f97	-0.0871269
127	0xbd606f67	-0.05479374

net_container.4.weight f4 [64, 128]
0	0x3c8fe18b	0.017563602
1	0x3d7f62b3	0.062349986
2	0xbd9c906d	-0.076447345
3	0xbd04dd69	-0.032437716
4	0xbac8ea0d	-0.0015328542
5	0xbd939b18	-0.07207316
6	0x3c66554e	0.014058424
7	0x3d703f12	0.0586539
8	0xbc6aa69e	-0.014321951
9	0xbd56dacb	-0.05245475
10	0xbd584c24	-0.05280699
11	0x3c576cd8	0.013148509
12	0x3d982895	0.074296154
13	0xbd51fb26	-0.051264904
14	0xbcad1fc6	-0.021133315
15	0xbcd88d80	-0.02643466
16	0xbcbf9719	-0.023387479
17	0xbd19f71a	-0.03758917
18	0x393a1fc3	0.00017750174
19	0x3d522ab0	0.05131024
20	0xbdc4159f	-0.095744364
21	0xbdc90038	-0.09814495
22	0x3dfe2ce8	0.12410909
23	0xbda9093b	-0.08253714
24	0xbb3b26cb	-0.0028557058
25	0x3da46687	0.08027368
26	0x3d03278d	0.03202014
27	0xbc4d0d3d	-0.012515363
28	0x3da1c431	0.07898749
29	0x3cfa2faf	0.030540315
30	0xbd0e351f	-0.03471863
31	0x3cf758db	0.030193737
32	0x3b8429cd	0.0040333034
33	0xbcd9a01e	-0.026565608
34	0xbde0e767	-0.109816365
35	0xbdc2d958	-0.09514111
36	0xbc612dce	-0.013743831
37	0xbc922547	-0.01784004
38	0x3caeff3d	0.021361941
39	0xbcbd37b6	-0.023097854
40	0xbca2fbb5	-0.019895414
41	0xbca6dbb4	-0.020368434
42	0x3d4bcb37	0.049754348
43	0xbcb01dc9	-0.021498578
44	0xbb6f0572	-0.0036471752
45	0x3c3adf7d	0.011405823
46	0xbdc626f2	-0.09675397
47	0x3d2cb2a2	0.042162545
48	0xbd4e9824	-0.05043806
49	0xbd820e19	-0.06350345
50	0x3d9826b5	0.07429258
51	0x3d818b83	0.06325438
52	0x3d945e38	0.07244533
53	0xbd56f31f	-0.052477952
54	0x3d3a8988	0.045541316
55	0xbc941b16	-0.018079322
56	0x3d7fb2fc	0.062426552
57	0xbc1076bf	-0.008817374
58	0x3cfa1499	0.0305274
59	0x3bb578cc	0.0055380818
60	0x3d829b8a	0.06377323
61	0xbc304d19	-0.010760569
62	0xbcfb6060	-0.030685604
63	0x3bb08f37	0.0053881663
64	0xbd6131d2	-0.054979153
65	0xbd43b6c0	-0.047781706
66	0xbd8b36cc	-0.06797561
67	0xbd92625a	-0.07147665
68	0x3cc0a4ba	0.023516048
69	0x3ddf0275	0.108891405
70	0xbcb7dc31	-0.022443863
71	0x3dc3f69e	0.09568523
72	0x3d88fae0	0.066884756
73	0xbc9df83e	-0.01928341
74	0xbdb043d7	-0.086066894
75	0xbd18fa06	-0.037347816
76	0xbc9c80c0	-0.019104362
77	0x3cb9b22c	0.022667967
78	0x3ddfdad5	0.10930411
79	0xbd70e47f	-0.05881166
80	0xbd4756d8	-0.048666805
81	0xbac5b540	-0.0015083924
82	0xbd5bb7c4	-0.05364205
83	0xbd979f42	-0.07403423
84	0x3c003af7	0.007826558
85	0x3da3aa67	0.07991486
86	0xbdd9ac99	-0.106286235
87	0x3d2bbf35	0.041930396
88	0x3d21a594	0.03946455
89	0x3ad978f4	0.0016591833
90	0x3d75b138	0.059983462
91	0xbdced854	-0.10099855
92	0x3d697c56	0.05700334
93	0xbd67eb8e	-0.056621127
94	0xbdbb9c36	-0.09160654
95	0xbde4ca34	-0.1117138
96	0xbd72ced4	-0.059279278
97	0x3d93c9e5	0.07216243
98	0x3ca93033	0.020652866
99	0x3dd10b35	0.10207216
100	0x3d56022b	0.05224816
101	0xbc547977	-0.012968413
102	0x3d16639f	0.0367161
103	0xbc9b30af	-0.018944113
104	0xbb9d797b	-0.0048057414
105	0x3c854ffd	0.016273493
106	0x3d9fb26b	0.077977024
107	0xbda3bd18	-0.07995051
108	0xbd49021d	-0.04907428
109	0xbd98aabc	-0.0745444
110	0xbbad1796	-0.0052823527
111	0x3d835ec7	0.06414562
112	0xbd0ca926	-0.034341
113	0x3c5a225b	0.013313855
114	0x3d1d7e8a	0.038450755
115	0x3cd22b95	0.025655547
116	0xbd14fe98	-0.036375612
117	0x3d5a4890	0.053291857
118	0xbce56ae9	-0.02800508
119	0xbd9b81cd	-0.07593117
120	0x3c9dffdc	0.019287042
121	0xbdc3085d	-0.095230795
122	0xbb980eea	-0.00464045
123	0x3d85258f	0.06501304
124	0xbd6076f8	-0.054800957
125	0x3cb7f3c3	0.022455102
126	0x3dd05b64	0.101736814
127	0xbcf18c11	-0.029485734
128	0x3dd7c1cf	0.10535013
129	0xbda34a1d	-0.0797312
130	0xbd7a68a3	-0.061134946
131	0x3d495b87	0.049159553
132	0x3d9f6a6b	0.077839695
133	0xbd574fb2	-0.052566238
134	0xbc9d5bcc	-0.019208811
135	0xbd925bf5	-0.07146446
136	0xbdaaf483	-0.08347418
137	0xbda63035	-0.081146635
138	0x3d664ff5	0.056228597
139	0xbd58853f	-0.05286145
140	0x39ab9699	0.00032727866
141	0x3cbbc66c	0.022921763
142	0x3dbe7171	0.09298981
143	0xbd947cea	-0.07250388
144	0xbc25ad91	-0.010112182
145	0xbd8e1271	-0.06937111
146	0xbd63a9c8	-0.055581838
147	0x3d5cf903	0.053948414
148	0xbc4e442c	-0.012589496
149	0xbbaaaa0a	-0.0052082585
150	0x3d98ba3c	0.074573964
151	0x3d4c7a4d	0.049921323
152	0x3c8a0be9	0.016851382
153	0xbc837927	-0.01604898
154	0x3c9686ac	0.018374763
155	0xbd17836f	-0.03699058
156	0x3d354480	0.04425478
157	0xbd98356d	-0.07432065
158	0x3d459ced	0.04824536
159	0x3d69793d	0.057000387
160	0x3d63dc03	0.05562974
161	0x3c7dba58	0.015486322
162	0xbceff633	-0.029292202
163	0x3ac2fe1e	0.0014876758
164	0xbd142f42	-0.03617788
165	0xbd077806	-0.033073448
166	0xbc63802d	-0.01388554
167	0xbd7cecd2	-0.061749287
168	0x3cc057ab	0.023479303
169	0xbd01b66a	-0.031668104
170	0xbdf6fc1a	-0.12059803
171	0x3c992821	0.018695893
172	0xbd0d955c	-0.03456627
173	0x3ce7579a	0.028240014
174	0xbd9d5c6b	-0.07683643
175	0x3ca513e5	0.020151088
176	0xbda5d08c	-0.08096418
177	0xbddb80ed	-0.1071795
178	0x3c99fd9a	0.018797684
179	0x3d8a43d0	0.067512155
180	0xbde75c82	-0.11296941
181	0x3cb0e661	0.021594228
182	0xbdab1bae	-0.08354889
183	0xbd854a19	-0.06508274
184	0x3c7060a1	0.014671476
185	0x3cd5fbac	0.026120983
186	0x3c9accb5	0.01889644
187	0xbd5cc482	-0.053898342
188	0x3d6635dd	0.05620371
189	0x3d67cefb	0.056593876
190	0x3d6e94d6	0.05824741
191	0xbdacf108	-0.084444106
192	0xbdeed8ce	-0.11662446
193	0xbdc09fca	-0.09405477
194	0x3d6496c2	0.055807836
195	0x3d57c8c5	0.052681703
196	0x3d1a20a1	0.037628774
197	0x3cd71e89	0.026259677
198	0xbd9ab9dc	-0.07554981
199	0xbd39e73d	-0.04538654
200	0x3db35961	0.08757282
201	0xbc056ace	-0.00814314
202	0x3d39906e	0.045303755
203	0x3d70d6fc	0.058798775
204	0xbd06c8f3	-0.032906484
205	0xbdaa69e0	-0.08320975
206	0xbd9ed9b1	-0.07756365
207	0xbcd686de	-0.026187357
208	0x3b586491	0.0033018927
209	0xbd95dfc2	-0.07318069
210	0xbd1190ee	-0.035538606
211	0xbca2000a	-0.01977541
212	0x399bf224	0.00029744313
213	0x3ce371c5	0.02776421
214	0xbdde4cba	-0.10854478
215	0xbd817e82	-0.063229576
216	0x3d840102	0.06445505
217	0xbde58c09	-0.1120835
218	0x3c7ad46c	0.015309434
219	0xbd527592	-0.051381655
220	0x3ca5741a	0.020196963
221	0x3b7b5410	0.0038349666
222	0x3d44e152	0.048066445
223	0x3cef41d5	0.029206196
224	0x3d3985f1	0.045293752
225	0xbd4aea1f	-0.04953968
226	0x3d1a94b4	0.03773947
227	0x3c3233f1	0.010876642
228	0x3da46bbb	0.080283605
229	0xbd32d2f3	-0.043658208
230	0x3d2f18e8	0.04274836
231	0x3d8ff9e7	0.07030087
232	0x3cda3b83	0.026639706
233	0xbd1b4f8a	-0.03791765
234	0xbd5266e5	-0.05136766
235	0x3bca2dd0	0.006170012
236	0x3ccdc4cb	0.025118252
237	0xbda735b7	-0.08164542
238	0xbd9ab465	-0.07553939
239	0xbde79624	-0.11307934
240	0xbbd1b9cb	-0.006400322
241	0x3deac35c	0.11463043
242	0x3d4b0626	0.04956641
243	0x3bec1b99	0.0072054383
244	0x3dee38c9	0.11631925
245	0xbd96d795	-0.07365338
246	0x3da4bc67	0.080437474
247	0x3ce898d3	0.028393185
248	0xbc208f03	-0.009799722
249	0xbcbe42e4	-0.023225255
250	0x3d2fc26c	0.042910025
251	0x3d5519f9	0.052026723
252	0x3d0d1b8d	0.034450103
253	0xbc9f0b09	-0.019414442
254	0x3cc2c216	0.023774188
255	0x3d8017e1	0.062545545

net_container.4.bias f4 [64]
0	0xbdec8664	-0.115490705
1	0xbd69b817	-0.057060327
2	0x3db6bcfd	0.089227654
3	0x3c1f9bbd	0.009741721
4	0xbda0a5fe	-0.078441605
5	0xbc4533bb	-0.012036259
6	0xbd1d8d00	-0.038464546
7	0xbe02ad44	-0.12761408
8	0xbe06e73a	-0.13174143
9	0x3daa3f15	0.08312813
10	0x3d9f9b9b	0.07793351
11	0xbc41accd	-0.011820984
12	0x3ccddd0a	0.025129814
13	0xbdb0e025	-0.08636502
14	0xbd08b87f	-0.033379074
15	0x3dcdfff3	0.10058584
16	0xbc12465a	-0.008927906
17	0x3d39ab16	0.045329176
18	0x3db86470	0.09003532
19	0x3de5fcd2	0.11229862
20	0xbda5318d	-0.08066092
21	0x3c8b3d22	0.016996924
22	0xbdd1da06	-0.10246663
23	0x3ca3ba9f	0.019986449
24	0x3d47541c	0.048664197
25	0xbda3c8c5	-0.07997278
26	0x3cca523c	0.024697416
27	0xbd012b83	-0.031535637
28	0xbd821eeb	-0.063535534
29	0x3a03fe56	0.00050351524
30	0xbb10950e	-0.00220615
31	0x3d9670cf	0.07345735
32	0xbd351f81	-0.044219498
33	0xbcce4676	-0.025180083
34	0x3d747c3d	0.059688795
35	0xbc8cb149	-0.01717438
36	0xbddf924b	-0.10916575
37	0x3d70935f	0.058734294
38	0x3cb30f52	0.021857891
39	0x3b3e2eeb	0.0029019665
40	0x3ca0623f	0.019578097
41	0x3d0de947	0.0346463
42	0x3bd1c48f	0.0064016054
43	0xbe257b17	-0.16160236
44	0xbd24c368	-0.040225416
45	0x3c0536e4	0.008130763
46	0xbd20c647	-0.039251592
47	0xbd94127e	-0.072300896
48	0x3d5497ae	0.051902466
49	0x3e155903	0.14584737
50	0x3dc3a0ea	0.09552176
51	0x3af82f8b	0.0018935067
52	0xbd2b99f9	-0.041894887
53	0xbdcd5de0	-0.10027671
54	0xbddd6a8d	-0.108113386
55	0xbc5ee8dc	-0.013605323
56	0x3b320935	0.0027166132
57	0x3d29fe9b	0.041502576
58	0xbd79c6b3	-0.06098051
59	0x3d3c229f	0.045931455
60	0x3d8367ca	0.064162806
61	0xbd1df925	-0.03856768
62	0xbddcae7d	-0.107754685
63	0xbdb75d4a	-0.0895334

policy_layer.weight f4 [8, 64]
0	0xbd2a511e	-0.041581266
1	0x3c197287	0.009365684
2	0xbc893acc	-0.01675167
3	0x3911f0cf	0.00013917986
4	0xbdfec203	-0.124393485
5	0x3e09989b	0.1343712
6	0x3ced1429	0.028940277
7	0xbe5b74d7	-0.2143129
8	0xbc9265ef	-0.017870871
9	0x3dccf965	0.10008506
10	0xbdb1f852	-0.086899415
11	0x3dabdfcd	0.08392296
12	0x3e0df42e	0.13862678
13	0x3d03e79f	0.032203313
14	0x3c5d4ebe	0.013507543
15	0x3e01abff	0.12663268
16	0xb928ae51	-0.00016086666
17	0xbc5da4fc	-0.013528105
18	0x3dfbdd99	0.12298126
19	0x3d117a81	0.03551722
20	0x3d81584d	0.0631567
21	0x3cc65d82	0.02421451
22	0x3dd0796c	0.101794094
23	0xbdea8a42	-0.11452152
24	0xbce31564	-0.02772016
25	0x3c4cf89e	0.012510447
26	0x3d3883a1	0.045047406
27	0x3d0c98d9	0.034325454
28	0x3e2ff774	0.1718424
29	0x3da67f87	0.08129793
30	0xbd46e006	-0.04855349
31	0x3dba4912	0.09095968
32	0xbdcaa505	-0.09894756
33	0xbb27bc9f	-0.0025594605
34	0x3d81f020	0.06344628
35	0xbdf9d3ed	-0.12198625
36	0x3e151753	0.14559679
37	0x3dc01766	0.09379463
38	0xbc42f43a	-0.011899048
39	0x3d8e864a	0.06959207
40	0xbc4bc27c	-0.012436505
41	0x3d521e75	0.051298577
42	0xbdd98a47	-0.106220774
43	0x3e0edf35	0.13952334
44	0xbdad9608	-0.08475882
45	0xbe17630d	-0.14783879
46	0x3d5ed56c	0.054402754
47	0x3d4826b0	0.04886502
48	0x3c822209	0.01588537
49	0x3d3b32a0	0.045702577
50	0xbdd6c215	-0.10486237
51	0x3bb4ca39	0.005517271
52	0x3bb2a650	0.005451955
53	0x3dddcd8e	0.10830222
54	0x3d67778c	0.056510493
55	0x3c89c5e9	0.016818004
56	0xbd9ada58	-0.07561177
57	0x3dba775f	0.091047995
58	0x3d1b8b55	0.037974674
59	0x3d9663da	0.07343264
60	0x3d0029fe	0.031290047
61	0x3dc9ee35	0.098598875
62	0x3d0bac60	0.034099936
63	0xbde55ef8	-0.111997545
64	0x3dd3dfce	0.10345422
65	0xbcd4c075	-0.025970677
66	0xbde9ceb7	-0.11416381
67	0x3c83b604	0.016078003
68	0xbbfc0b2d	-0.007691762
69	0xbca86a3c	-0.020558469
70	0xbdd02ebf	-0.10165166
71	0x3d8f2834	0.0699009
72	0x3dc15d6f	0.09441649
73	0xbdce2d2f	-0.10067212
74	0x3bff3d17	0.007789265
75	0x3b090f21	0.0020913559
76	0x3e0d6b19	0.13810386
77	0xbc670143	-0.014099422
78	0xba70cdce	-0.0009185941
79	0xbd1705cd	-0.036870766
80	0xbdb6b8d0	-0.08921969
81	0x3dda01e1	0.106448896
82	0x3de496e5	0.11161593
83	0xbde00311	-0.10938085
84	0x3e39df48	0.18151581
85	0xbd5668ab	-0.052345913
86	0x3dc87190	0.09787285
87	0x3db9ec40	0.09078264
88	0xbd27a019	-0.040924165
89	0x3e07f02b	0.1327521
90	0x3e17d914	0.14828902
91	0xbc197dbc	-0.009368356
92	0x3c99cbe2	0.018773977
93	0x3e249117	0.16070972
94	0xbdaf4e42	-0.08559848
95	0xbca00b31	-0.019536586
96	0x3e255be3	0.16148333
97	0x3df4828b	0.119389616
98	0xbd981756	-0.07426326
99	0xbdc12480	-0.0943079
100	0x3d07ec05	0.03318407
101	0xbc27d68d	-0.010244024
102	0x3cd79b03	0.026319033
103	0x3dd96a9f	0.106160395
104	0x3cd8de7c	0.026473276
105	0xbd848578	-0.0647077
106	0x3df6f562	0.12058522
107	0x3de632a6	0.11240129
108	0xbdcef773	-0.10105791
109	0xbd6b4d8f	-0.057447013
110	0x3dc71534	0.09720841
111	0x3e00fcdc	0.12596458
112	0x3d189a2b	0.0372564
113	0xbc0d5719	-0.008626723
114	0xbc61e4d0	-0.013787463
115	0x3d0dcf8a	0.034621753
116	0xbdf490a0	-0.119416475
117	0x3ddb9d4b	0.10723361
118	0xbc9d99be	-0.019238349
119	0x3d713acc	0.058893964
120	0xbc86b709	-0.0164447
121	0xbe0d0cad	-0.13774367
122	0xbc01a130	-0.007911965
123	0x3b0e2ccf	0.0021694188
124	0xbd3e01ac	-0.046388313
125	0xbdc6d589	-0.09708697
126	0x3d29f59b	0.041493993
127	0xbdd3e0c1	-0.10345603
128	0xbd167f4d	-0.036742497
129	0x3dd64025	0.10461453
130	0x3d8e1fcd	0.06939659
131	0xbde74038	-0.11291546
132	0xbdeaf619	-0.11472721
133	0x3e1c2983	0.1525021
134	0x3c01f6d2	0.007932382
135	0x3cc23834	0.02370844
136	0xbd466cbd	-0.048443545
137	0xbaab6a04	-0.001307786
138	0xbdf9bb7a	-0.121939614
139	0xbd75be4f	-0.059995946
140	0xbe04ebdf	-0.12980603
141	0xbe035310	-0.12824655
142	0xba74033c	-0.0009308343
143	0xbdcf9bd0	-0.10137141
144	0x3b5d2bdb	0.0033748064
145	0xbcb798f0	-0.022411793
146	0x3e0f15ff	0.13973235
147	0xbd6601de	-0.056154124
148	0x3db4156d	0.08793149
149	0x3d472419	0.04861841
150	0x3d805053	0.06265321
151	0x3df2e560	0.11860156
152	0xbc354755	-0.01106437
153	0x3e1ff647	0.15621291
154	0x3e176ce5	0.14787634
155	0x3d007dde	0.031370036
156	0x3d8bb2ec	0.06821236
157	0xbc3c546a	-0.011494735
158	0xbd3741a7	-0.044740345
159	0xbd9aae35	-0.075527586
160	0x3dbb80e1	0.09155441
161	0x3db32fe8	0.08749372
162	0xbd47ec07	-0.048809078
163	0xbd9565dd	-0.072948195
164	0x3e212db1	0.15740086
165	0xbdda438a	-0.10657413
166	0x3e1476df	0.1449847
167	0x3cf779fd	0.030209536
168	0xbd5f1c95	-0.054470617
169	0xbd9e651a	-0.07734127
170	0xbd870773	-0.06593218
171	0xba9ad0de	-0.0011811515
172	0x3c9641d3	0.018341934
173	0x3de52586	0.11188798
174	0xbce9d7a5	-0.02854521
175	0x3d871f44	0.0659776
176	0xbbb27f70	-0.0054473206
177	0x3cd67765	0.026179979
178	0xbdcd8d1f	-0.10036682
179	0xbdabd631	-0.08390463
180	0x3c9c5d69	0.01908751
181	0x3d5fdea5	0.05465569
182	0x3cca4367	0.024690343
183	0x3e17c8c6	0.14822683
184	0xbe0e5ccb	-0.13902585
185	0xbe036ffb	-0.12835686
186	0xbdc7579d	-0.09733508
187	0x3e191837	0.14950643
188	0xbdfc4b61	-0.12319065
189	0x3d5167bc	0.05112432
190	0xbd83f6ee	-0.064435825
191	0x3d225634	0.03963299
192	0x3cf3d8d6	0.029766481
193	0xbcff5fdd	-0.03117364
194	0x3ca29f2a	0.019851286
195	0xbd5898bf	-0.052880045
196	0x3db6e0f7	0.089296274
197	0x3e1f2073	0.15539722
198	0xbd812604	-0.06306079
199	0xbe2b0e1f	-0.16704606
200	0xbe053b4d	-0.13010903
201	0xbdd517b9	-0.10404915
202	0x3c98d36c	0.018655501
203	0x3ce3647d	0.027757877
204	0xbd9713fc	-0.073768586
205	0x3dac7a31	0.08421744
206	0x3c8b9873	0.017040467
207	0xbe11ee0f	-0.14250968
208	0xbdf0534e	-0.11734639
209	0x3df2ba69	0.11851961
210	0xbd0ed803	-0.034873974
211	0x3d9c9884	0.076462775
212	0x3dea3073	0.11435022
213	0x3d93921d	0.07205603
214	0x3dcde36a	0.100531414
215	0x3ce73018	0.028221175
216	0xbdd4f35f	-0.10397982
217	0xbc9081d3	-0.01764003
218	0x3d1898e7	0.037255194
219	0xbdce2e85	-0.10067467
220	0xbca83f99	-0.020538138
221	0xbda08684	-0.07838157
222	0xbcd55d60	-0.026045501
223	0x3daa4598	0.08314055
224	0x3df3b0a7	0.11898928
225	0x3d64d7b9	0.05586979
226	0xbd35e297	-0.044405546
227	0x3c5d05bd	0.013490138
228	0x3ca975c3	0.020686036
229	0x3d92eca7	0.07174044
230	0x3db53633	0.08848228
231	0x3e1acfdf	0.15118359
232	0x3c4ba9bd	0.0124306055
233	0x3d246406	0.040134452
234	0x3d36b855	0.044609386
235	0x3e04b1cf	0.12958454
236	0xbe11e937	-0.1424912
237	0x3c8d878e	0.017276552
238	0xbda6a1d4	-0.08136335
239	0x3cf38502	0.029726509
240	0xbe138d44	-0.14409357
241	0xbd91c52a	-0.07117684
242	0xbd42a3b5	-0.047519404
243	0xbd3a1ef5	-0.04543968
244	0x3e0f0871	0.13968064
245	0x3d41b282	0.04728938
246	0xbd30a3dc	-0.04312502
247	0xbcda7455	-0.0266668
248	0x3d1fe383	0.03903533
249	0x3cbca1c6	0.023026358
250	0x3d30fcc5	0.04320981
251	0x3e0fa29c	0.14026874
252	0x3c2e3939	0.01063376
253	0x3cead5ae	0.028666344
254	0xbcda7b78	-0.026670203
255	0x3dc7d04b	0.097565256

policy_layer.bias f4 [8]
0	0xbc5c2777	-0.0134371435
1	0xbdcfbec3	-0.10143807
2	0xbd89ed25	-0.06734685
3	0xbd3a79c3	-0.045526277
4	0xbb1d6ed5	-0.002402236
5	0xbdb5a54d	-0.08869419
6	0xbdfadb77	-0.12248891
7	0x3d185979	0.037194703

value_layer.weight f4 [1, 64]
0	0x3c1775fb	0.009244437
1	0x3d001cf2	0.031277604
2	0xbbb1aebb	-0.005422441
3	0xba664478	-0.00087840063
4	0xbd9b3c06	-0.07579808
5	0x3ce74510	0.028231174
6	0xbd148d7d	-0.036267746
7	0x3b74a355	0.0037328799
8	0xbcb2e308	-0.021836773
9	0x3cb069b5	0.02153478
10	0xbd9c2eee	-0.07626139
11	0xbd00c1fb	-0.031434994
12	0x3d267f29	0.040648613
13	0xbd04d874	-0.03243299
14	0xbd18e42e	-0.037326984
15	0xbd48770e	-0.048941664
16	0x3ba22048	0.004947696
17	0xbd721427	-0.05910125
18	0x3df0f993	0.117663525
19	0x3d0bd0b5	0.034134585
20	0xbd7e8601	-0.062139515
21	0x3d80cb7c	0.062888116
22	0x3d94065c	0.072277755
23	0x3e073ff3	0.13207988
24	0x3d72bb57	0.059260692
25	0x3dd76998	0.10518187
26	0xbd4ff7f3	-0.050773572
27	0xbdc23dc3	-0.09484436
28	0xbd07bf12	-0.033141203
29	0x3b70d266	0.00367465
30	0x3dccdf20	0.10003495
31	0x3d90e384	0.07074645
32	0x3d0f0656	0.03491815
33	0x3d2f37e8	0.042777926
34	0x3d77bd6a	0.060483374
35	0x3c6e920c	0.0145611875
36	0xbd95f8d7	-0.07322853
37	0x3c4a5b68	0.0123508945
38	0xbd35674f	-0.044287976
39	0xbcf9529d	-0.0304349
40	0xbb9ac7c9	-0.0047235233
41	0x3d83c8e9	0.06434805
42	0xbd0be2d6	-0.034151874
43	0xbcfe4283	-0.031037575
44	0x3db35cb4	0.08757916
45	0xbd790b3f	-0.06080174
46	0x3d972e94	0.07381931
47	0xbc9ecdd7	-0.019385261
48	0xbd9c67e7	-0.07637005
49	0x3cb72042	0.022354249
50	0x3d9857b3	0.07438602
51	0xbaa4b23d	-0.0012565326
52	0xbd4f6dff	-0.05064201
53	0xbd0388a4	-0.032112733
54	0xbdabaedc	-0.08382961
55	0xbd93da3a	-0.07219358
56	0xbd5d89c3	-0.054086458
57	0xbbf9c956	-0.007622878
58	0x3c953375	0.018213013
59	0x3bf7824a	0.0075533735
60	0x3d134c0f	0.035961207
61	0x3d7f69a8	0.06235662
62	0xbdc47218	-0.09592074
63	0xbd844c95	-0.06459919

log_std_parameter f4 [8]
0	0xc05abe2d	-3.4178574
1	0xc03fdb89	-2.9977744
2	0xc0551c10	-3.3298378
3	0xc05b6153	-3.4278152
4	0xc080fbff	-4.0307612
5	0xc06b2e3f	-3.6746976
6	0xc0861a2f	-4.1906962
7	0xc03c4802	-2.941895

net_container.0.weight f4 [256, 45]
0	0x3c8410fa	0.016121376
1	0xbe5bafdc	-0.21453804
2	0x3b863b19	0.0040964005
3	0xbd9fa06f	-0.07794272
4	0xbe0acee8	-0.13555491
5	0x3d34f472	0.044178434
6	0x3dcd905e	0.100373015
7	0xbc055610	-0.008138195
8	0x3ca3fa14	0.020016707
9	0xbdc626b0	-0.09675348
10	0xbd3fdaca	-0.046839513
11	0x3dc16379	0.09442801
12	0x3d7cc6c4	0.061712995
13	0xbe3222f8	-0.17396152
14	0xbd0d4d9c	-0.034497842
15	0xbda80661	-0.08204342
16	0x3dfb7ee8	0.12280065
17	0xbdbc5a97	-0.09196966
18	0xbbf8d3ea	-0.0075936215
19	0xbdcd8edb	-0.10037013
20	0xbe1c1246	-0.15241346
21	0x3df65aa5	0.12029008
22	0x3e11c2c8	0.1423446
23	0xbdbff43b	-0.09372755
24	0xbd986142	-0.074404255
25	0xbb9023d5	-0.0043988028
26	0xbdd92143	-0.10602047
27	0x3c32bf13	0.010909813
28	0x3e1fc40e	0.15602133
29	0xbdbabeaa	-0.091183975
30	0xbe3adcd9	-0.18248309
31	0x3c5c90cc	0.013462257
32	0x3d98e251	0.074650414
33	0xbdecb524	-0.11557987
34	0xbdc82fa8	-0.09774715
35	0x3e0b4423	0.13600211
36	0xbd710b9c	-0.058848962
37	0xbd7cfa46	-0.061762117
38	0xbe1669ee	-0.14688846
39	0x3dc186b4	0.09449521
40	0x3d6eba8f	0.058283385
41	0xbbeabf3e	-0.007163911
42	0x3dfca8a3	0.123368524
43	0x3d084948	0.03327301
44	0x3dac93b2	0.08426608
45	0x3d75b0b3	0.059982967
46	0xbdc78369	-0.097418614
47	0x3d5f17d6	0.05446609
48	0xbe1a1fe4	-0.15051228
49	0x3d5b0d6b	0.053479593
50	0xbdec418c	-0.115359396
51	0x3e2e0959	0.16995753
52	0x3e15c500	0.14625931
53	0x3de347c5	0.11097673
54	0xbd31d181	-0.04341269
55	0xbdd46ed0	-0.10372698
56	0x3dafa6e9	0.085767575
57	0xbd0dba03	-0.034601223
58	0xbdce0b4d	-0.10060749
59	0x3e48268e	0.19545957
60	0xbc827041	-0.015922667
61	0xbd9ce7ce	-0.07661401
62	0xbe183a71	-0.14866044
63	0xbda7b399	-0.081885524
64	0x395a2845	0.00020805102
65	0xbc3a64fa	-0.011376614
66	0xbc059607	-0.008153445
67	0xbd2956a1	-0.04134238
68	0x3d9ec188	0.07751757
69	0xbd8c3e71	-0.06847847
70	0x3c2165ac	0.009850901
71	0x3d809af7	0.06279557
72	0xbdd26ca4	-0.10274628
73	0xbdfbaa5d	-0.122883536
74	0x3e821692	0.25407845
75	0xbd636ce5	-0.05552377
76	0xbce9c025	-0.028534004
77	0xbc2c4fed	-0.010517103
78	0x3db0a4a3	0.08625152
79	0xbc6b0f96	-0.014346978
80	0x3dd68ac3	0.104756854
81	0xbb3ebe8f	-0.002910528
82	0x3d56936c	0.052386686
83	0x3d4d264c	0.05008535
84	0x3e003759	0.12521113
85	0xbd848d42	-0.06472255
86	0xbd981138	-0.07425159
87	0xbd8bacb3	-0.06820049
88	0x3dae43e0	0.0850904
89	0xbdbefc70	-0.093254924
90	0x3e20695f	0.15665196
91	0x3e12e985	0.14346893
92	0xbd4725d6	-0.048620068
93	0x3de62a38	0.11238521
94	0x3d375d75	0.044766862
95	0xbde09a0b	-0.10966881
96	0xbbff041d	-0.0077824728
97	0x3da9bbde	0.08287786
98	0xbe0c0285	-0.13672836
99	0x3d13359d	0.0359398
100	0xbdc527db	-0.096267425
101	0x3e27298a	0.1632444
102	0xbcf6e0e1	-0.030136527
103	0xbde28ca1	-0.11061979
104	0xbd5ab00c	-0.053390548
105	0xbda8dba5	-0.08245019
106	0x3c603ff5	0.013687124
107	0x3e1e3d93	0.15453176
108	0x3dd05b3f	0.10173654
109	0x3dc3bf75	0.09558002
110	0xbdd6e880	-0.104935646
111	0xbd9d979d	-0.076949336
112	0x3de68cc5	0.112573184
113	0x3d728dcc	0.05921726
114	0x3d9b685f	0.075882666
115	0x3dcb8671	0.09937752
116	0x3e1b0da5	0.15141924
117	0xbb3cce85	-0.0028809619
118	0x3dfe5ecf	0.12420427
119	0x3d0982c8	0.03357199
120	0xbd7bf91c	-0.061516866
121	0x3bebeb2c	0.0071996655
122	0x3de19d67	0.1101635
123	0x3c87f6d8	0.016597196
124	0xbdbe235d	-0.09284089
125	0xbd01ec5d	-0.031719554
126	0x3de803fc	0.11328885
127	0xbc444d8d	-0.01198138
128	0x3dbe4244	0.09289983
129	0xbd62b2a9	-0.055346165
130	0x3df47ade	0.119374976
131	0xbd936687	-0.0719729
132	0xbd989f5d	-0.07452271
133	0xbda3b6b2	-0.07993831
134	0xbdb61f05	-0.08892635
135	0xbe2ae7ae	-0.16689941
136	0xbcc33c14	-0.023832358
137	0x3d6cb8c6	0.0577934
138	0x3d1dd753	0.038535427
139	0x3e35d8ce	0.17758486
140	0xb9c6ded0	-0.0003793151
141	0x3c9365cc	0.017992876
142	0x3b1852a9	0.0023242629
143	0xbe6a5842	-0.2288523
144	0xbdbd16a8	-0.09232837
145	0xbe155b42	-0.14585593
146	0x3e0e8232	0.13916853
147	0x3e14c02b	0.14526431
148	0xbc1c306f	-0.009533032
149	0xbe378ade	-0.17924067
150	0x3d28e528	0.041234165
151	0x3d17c67a	0.037054516
152	0x3e223a69	0.15842594
153	0xbe18e779	-0.1493205
154	0xbd1923ab	-0.03738753
155	0x3d33eaf3	0.043925237
156	0x3dc42777	0.0957784
157	0xbc9e9edf	-0.019362865
158	0x3db9149e	0.090371355
159	0xbdeef012	-0.116668835
160	0x3c0e1b68	0.008673526
161	0x3bcd30d6	0.006261925
162	0xbd056e35	-0.032575805
163	0x3d4b5979	0.049645875
164	0x3d6f2a25	0.0583898
165	0x3dbee28c	0.09320554
166	0xbe09c2b2	-0.13453177
167	0xbd81f368	-0.06345254
168	0x3dc9c66c	0.09852299
169	0x3e006c10	0.12541223
170	0x3dd114b6	0.102090284
171	0x3ded5e59	0.11590261
172	0x3d4841a9	0.048890743
173	0xbda3cc60	-0.07997966
174	0xbb391f02	-0.0028247242
175	0x3e3d4fa2	0.18487409
176	0xbcc74ce5	-0.024328658
177	0x3c6881fe	0.014191149
178	0xbdd426cc	-0.103589624
179	0xbd8ca868	-0.068680584
180	0xbd60e753	-0.054908108
181	0x3d653645	0.05595996
182	0x3c3bed3c	0.011470135
183	0x3d8dbbb3	0.069205664
184	0xbe41303b	-0.18866055
185	0xbd2fd714	-0.042929724
186	0x3d489531	0.048970405
187	0xbd05dcdb	-0.032681327
188	0x3d32b813	0.043632578
189	0x3df2c12c	0.11853251
190	0x3cfd5e87	0.030928863
191	0xbdd8de54	-0.10589281
192	0x3cfe0e57	0.031012697
193	0x3e3cbd57	0.18431602
194	0xbd7b5ea2	-0.061369546
195	0xbbd91483	-0.0066247596
196	0x3decddb7	0.11565726
197	0x3cd5cdba	0.026099075
198	0x3d0baefa	0.034102418
199	0xbe013c11	-0.1262057
200	0x3e258042	0.16162208
201	0xba892bc8	-0.0010465318
202	0xbc9d5b58	-0.019208595
203	0x3b144a61	0.002262734
204	0xbddda0af	-0.108216636
205	0x3defb360	0.11704135
206	0xbd897adb	-0.06712886
207	0xbd480cb2	-0.048840232
208	0x3c03a521	0.008034975
209	0xbd01421b	-0.031557184
210	0xbdc298eb	-0.09501823
211	0x3cfa0c55	0.030523458
212	0xbd90a800	-0.070632935
213	0x3e2a6c8f	0.16642974
214	0xbd9c5014	-0.07632461
215	0x3ddbf2b2	0.1073965
216	0x3dbbedd7	0.09176224
217	0x3de4d160	0.111727476
218	0xbdf3e789	-0.11909396
219	0x3e151d17	0.14561878
220	0xbd12e5b4	-0.035863593
221	0x3d0c7618	0.03429231
222	0x3e26cab7	0.16288267
223	0xbe168cef	-0.147022
224	0xbbdaaacc	-0.0066731926
225	0xbdaaafd3	-0.08334317
226	0xbe0e5636	-0.13900074
227	0xbd39f6db	-0.045401435
228	0xbc2dd83a	-0.010610634
229	0xbdceaca2	-0.10091521
230	0x3d6e8294	0.058229998
231	0x3de4ed93	0.11178126
232	0x3e12a6b5	0.14321406
233	0x3cb93a3b	0.022610774
234	0xbd49fff9	-0.04931638
235	0xbd7d1a1c	-0.061792478
236	0xbdc87cd0	-0.09789431
237	0xbdf19ed0	-0.11797869
238	0x3d0efdf1	0.034910146
239	0xbd17bbac	-0.037044212
240	0xbda71ef1	-0.081601985
241	0x3d873d60	0.06603503
242	0xbcc43b6b	-0.023954114
243	0x3e26a414	0.16273528
244	0x3d2be76a	0.04196874
245	0x3cecacc1	0.02889097
246	0xbdba5b2d	-0.09099422
247	0xbaf502de	-0.0018692871
248	0xbbafc2f5	-0.005363817
249	0xbd9f8d70	-0.07790649
250	0x3dd8dc19	0.10588855
251	0x3e120d3e	0.14262864
252	0x3dff10c9	0.124543734
253	0x3d34cec8	0.044142514
254	0x3ccd95ee	0.025095906
255	0xbe280992	-0.16409901
