CubeStackTask/logs/skrl/object_red_stack/2025-10-09_17-18-16_ppo_torch/checkpoints/agent_21600.pt (torch, 660141 bytes, 46 tensors)

log_std_parameter f4 [8]
00000000: be48 37c0 7595 21c0 7d6f 2ec0 e10d 2cc0
00000010: 9949 50c0 b658 3cc0 221d 5ac0 e782 1cc0
-2.8638148 -2.5247471 -2.7255547 -2.688347 -3.254492 -2.9429145 -3.4080281 -2.4454896

net_container.0.weight f4 [256, 45]
00000000: 22d9 803c 7daa 5abe 29b8 8b3b 521d 9cbd
00000010: 3792 09be cbbe 363d c854 c83d 19d3 21bc
00000020: 2658 a33c 84e8 c4bd 687a 3fbd 0a08 c53d
00000030: 90d0 803d d2a2 32be a46a 15bd 067d a6bd
00000040: 2bfe fb3d 2330 b7bd 6624 88bb e670 cbbd
00000050: 4dfd 17be 3be9 f23d 56e9 103e 4f3d cabd
00000060: 2334 9abd d672 14bb 34e7 d1bd 6960 153c
00000070: 6202 213e ec91 c3bd d263 46be 0277 a33c
00000080: ef89 a13d 7485 f5bd fade c4bd cd3d 0c3e
00000090: 2372 79bd d929 90bd ccb2 16be 2e14 bb3d
000000a0: ad8b 6b3d fb55 b3bb 6e20 f33d 645b 0b3d
000000b0: 7014 ac3d 07cd 723d 643a c2bd 68bd 613d
000000c0: b1da 16be b8c0 6a3d e425 e6bd ccaf 213e
000000d0: 2a07 0d3e c9ce e03d 7e2c 2cbd d5b9 d4bd
000000e0: 39d7 b53d 33dd 00bd 9f54 c8bd 8250 3b3e
000000f0: cded 8bbc 5941 a4bd 0ada 1abe f7e0 a4bd
00000100: 63a9 a4ba ab0d d7bb 52f0 25bc bdad 16bd
00000110: db7e 8c3d 643f 8ebd b9af 053c f4d1 913d
00000120: 3bf2 c9bd 15b8 f8bd 8500 803e 1b4b 72bd
00000130: 10d6 57bc dc63 9dbb 99a0 973d dfce 89bc
00000140: a1c8 d93d 4af7 6abb 77be 313d ade0 4d3d
00000150: d063 f43d 9c7b 8abd 855e 8bbd 442d 7ebd
00000160: 80e4 ab3d e9a2 b7bd 0ea4 1e3e eb06 123e
00000170: 9266 47bd a4fa e43d 7995 313d f5ff e0bd
00000180: 0374 5bbb 6978 a83d 5a08 0dbe 6a98 183d
00000190: e8e4 c3bd c278 263e bb0e 02bd 122a e2bd
000001a0: acb5 49bd 179b 9fbd 37af 963c f097 213e
000001b0: 402a cb3d 91c4 d03d d18a e4bd ed41 b5bd
000001c0: cbc0 ea3d 7200 593d a3eb 933d 8a14 a83d
000001d0: f8dc 113e be58 d1bc 1641 ee3d 5be5 183d
000001e0: 3886 7ebd f67b 413b 1e0f d63d d224 973c
000001f0: 8a81 8fbd fedf 24bd f692 e73d 9f99 433c
00000200: 4614 c03d 6e35 59bd 552b f43d 7365 89bd
00000210: 883e 9fbd 2276 9abd c5c2 bfbd 6fe5 24be
00000220: 59a4 abbc bd9f 803d 10b5 2f3d 7e4f 373e
00000230: b0d7 c93a ee4e dc3c 29f5 f63b aa14 63be
00000240: d239 b6bd 97c9 0fbe 351f 113e 794e 153e
00000250: 0f7f 16bc 75d1 2ebe f3cd 393d bdec 2c3d
00000260: 8378 263e 1e34 14be 1343 11bd f2f8 133d
00000270: 4b3f b93d 1b38 9dbc 6760 ad3d 74f0 fabd
00000280: 98b5 ba3b 5f1b 233c fc4c e5bc 397a 443d
00000290: fbde 843d dac5 f83d 0e09 16be e083 79bd
000002a0: ea86 c53d c76a f53d 510c cd3d ace9 e33d
000002b0: 36e2 5c3d aea5 9fbd ef2f c0bb 7a3d 3d3e
000002c0: 4aad e1bc 4791 363b b4b2 cbbd 073b 97bd
000002d0: 022f 61bd b2ff 613d 1b61 353c 95af 8d3d
000002e0: 1bb7 40be 947c 35bd b169 4f3d 021a 10bd
000002f0: daf5 313d 01b3 f03d 02e9 f93c f673 d9bd
00000300: 8db2 033d b10e 3b3e d887 6ebd 4c12 03bc
00000310: a347 eb3d fbb8 ba3c acac 043d 649d 00be
00000320: b3d0 1e3e 8df9 01bb efb3 a4bc 6ea6 5a3c
00000330: ed50 ecbd b4ce e53d 3269 91bd 6fbb 66bd
00000340: 24f7 b23b ea07 07bd 1573 92bd c4c6 723c
00000350: 0c32 92bd 02d5 353e cdf7 8dbd acf6 d53d
00000360: e3b4 bc3d 9cc1 cf3d ac89 f2bd 69ac 103e
00000370: 79f7 11bd 9d25 013d e9bc 243e 61f5 17be
00000380: b44a c1bb 4c31 adbd 752d 10be 2d2d 3bbd
00000390: 5d84 1ebc 13d6 cdbd 33a1 653d c013 e33d
000003a0: bc22 0e3e e23b ab3c 9328 57bd c3f8 7bbd
000003b0: ef8a cebd cd60 eebd 9c36 093d acbe 17bd
000003c0: 5688 a9bd d7da 833d 9c02 debc 75fc 253e
000003d0: 59c3 153d 8ac9 b23c 0124 c8bd 2cff f4bb
000003e0: 622d 25bc 8448 8dbd a169 e13d 370d 183e
000003f0: c507 003e c427 3d3d 0510 983c 3cdc 36be
0.015728537 -0.21354099 0.004263897 -0.0762278 -0.13434683 0.044615548 0.09781796 -0.00987699
0.019939493 -0.09614661 -0.046747595 0.09620674 0.0628978 -0.17444924 -0.036478654 -0.08129315
0.12304338 -0.08944728 -0.0041547297 -0.09933643 -0.1484272 0.118608914 0.1415151 -0.09874975
-0.075294755 -0.0022651455 -0.102491766 0.009117224 0.15723565 -0.09549317 -0.19374016 0.019954208
0.07887637 -0.11988345 -0.09612842 0.1369545 -0.060899865 -0.07039232 -0.14716643 0.09134708
0.057506252 -0.005472896 0.1187142 0.034022704 0.08402336 0.05927756 -0.094837934 0.055112273
-0.14731862 0.057312697 -0.11237696 0.15789717 0.13772264 0.10976941 -0.04203462 -0.10387007
0.08878941 -0.031460952 -0.09781765 0.1829243 -0.017081166 -0.080202766 -0.15122238 -0.08050721
-0.0012562688 -0.0065629086 -0.010128098 -0.036786783 0.06860133 -0.069456846 0.008159571 0.071201235
-0.09860655 -0.12144486 0.25000396 -0.059153657 -0.013173595 -0.004803164 0.074036784 -0.016822277
0.1063397 -0.0035852962 0.043394532 0.050263096 0.119331 -0.06761858 -0.068051375 -0.062054887
0.08393192 -0.089666195 0.1549227 0.14260451 -0.048681803 0.111806184 0.04335544 -0.1098632
-0.0033485896 0.082260914 -0.13772717 0.03725473 -0.09565145 0.16257003 -0.03175233 -0.110431805
-0.04924552 -0.07793253 0.018394096 0.15780616 0.09920168 0.10193742 -0.1115929 -0.08850465
0.114625536 0.05297894 0.072226785 0.082070425 0.14244449 -0.02555501 0.11633508 0.037328105
-0.06213972 0.002952335 0.10452102 0.018450174 -0.070071295 -0.040252678 0.113073274 0.011938482
0.09378867 -0.05302947 0.119223274 -0.06708803 -0.07775599 -0.07542063 -0.09363321 -0.16103147
-0.02095239 0.06280468 0.042897284 0.17901418 0.0015399363 0.026893105 0.0075365496 -0.22175851
-0.08897747 -0.14041744 0.14172061 0.14580716 -0.009185567 -0.17072089 0.045362424 0.04221796
0.16256909 -0.14473006 -0.035464358 0.036126085 0.09045275 -0.019191792 0.08465653 -0.12252894
0.005697917 0.009955256 -0.02799081 0.047968123 0.06487843 0.12147112 -0.14651892 -0.06091678
0.096448734 0.11983257 0.10012115 0.11128554 0.05392667 -0.07795273 -0.005865089 0.18480483
-0.027548451 0.0027857588 -0.09946194 -0.073843054 -0.05497647 0.05517549 0.011070515 0.06918255
-0.18819849 -0.04430826 0.050637905 -0.035181053 0.043447353 0.11752892 0.030506615 -0.10617821
0.0321527 0.18267323 -0.05823502 -0.007999968 0.11488273 0.022793284 0.032391235 -0.1256004
0.155093 -0.0019832582 -0.02010533 0.013345344 -0.11538873 0.11221066 -0.071001425 -0.056331094
0.0054615904 -0.03296653 -0.071508564 0.014817897 -0.07138452 0.17757037 -0.0693203 0.104474396
0.09214189 0.1014435 -0.11842665 0.1412827 -0.0356364 0.03153001 0.16087689 -0.14839698
-0.005898798 -0.08456668 -0.1407984 -0.04569738 -0.009675113 -0.10050597 0.056061935 0.110877514
0.13880438 0.020902578 -0.05252893 -0.061516535 -0.10085093 -0.11639557 0.033499345 -0.037047073
-0.08277957 0.06438225 -0.027100854 0.16209586 0.03656325 0.021824617 -0.09772492 -0.007476708
-0.010081621 -0.06898597 0.11006475 0.14848791 0.12502964 0.0461805 0.018562326 -0.1785745

net_container.0.bias f4 [256]
00000000: 3b96 523e fa37 04be fb72 133d 0075 1f3c
00000010: 5ac9 1d3d e9c4 473d b492 173e aea9 033e
00000020: 5075 b93d 3cef fbbb 766b 223d d4c8 40bd
00000030: 064a 783d 4aa4 27bd 9f10 103e b4b4 d5bd
00000040: 0681 de3d 245c f2bd 86b5 ff3d efd3 683d
00000050: b7af cf3c d93f 503d 9c22 a3bd e045 303e
00000060: 7867 b83d 2953 413d b766 6ebd 1759 50be
00000070: 2e97 0bbe 1c3c c8bd 2dac acbd 42cc e9bc
00000080: 6714 033e 787f b83d 559d e13c 117b 3ebe
00000090: a418 d73d 40e9 e4bc 2bd9 ca3d 556d d2bd
000000a0: bf5b 2fbe abc0 203e ee1e b3bd 9465 59bd
000000b0: 7a62 873c fac7 88bd 2dca 3bbb 63e2 eebd
000000c0: 489f dd3d 1956 5f3d b131 79bd 30bc 43bd
000000d0: 5b09 02be 4cfd a2bd 7fdd 09be d8b0 7dbd
000000e0: 1690 163e 0f3c 683c d71a 0e3e ad1d 003e
000000f0: 8c15 99bd c15a c63d 4efd 203e aba5 bdbc
00000100: aa54 4b3c 7530 213e d2c8 be3d 7bc1 89bd
00000110: 4ec7 b13d 806a c23d 9210 ef3d 7423 e9bd
00000120: 099c 0d3e f9e9 0d3d 0069 02bd 3019 a33d
00000130: b990 093e 29bb c5bc c75f 1f3e 929b a83d
00000140: 134e 18be 9dda f3bd 1796 ad3d 23ad cd3d
00000150: 29f1 39bb 593b 003e d883 bd3d 3be9 0b3e
00000160: 2e8d 68bd 38e3 003e a8fa 9dbd 0c2e bebd
00000170: 593f 713d fc69 ecbd 7192 fcbc ca87 093d
00000180: 1d4d 773d 5fe7 3b3c 33c9 28be c28e 923b
00000190: 61bd c03d c05d 953d 8a33 36be 48e6 e9bb
000001a0: c831 cfbb db3c 823d a985 1ebc 9325 8abd
000001b0: a0da 1abd de99 4ebd 5188 b93c beb5 aa3d
000001c0: 35bd bbbd 43fa d6bd f2a2 d43d 0aa3 f23d
000001d0: ac73 23be 84a3 403d 8c20 58bd 3e66 663d
000001e0: ddfa 7cbd 099e 7dbd 165e 343e 8f4a 35be
000001f0: 27cd 8c3c 5628 a8bd 4422 aebd 42ef 093e
00000200: 84e8 cd3d e5ca 74be 6b6b 093e a6e3 56bd
00000210: b8c6 3bbe dfa8 35bd 5761 bbbd 948a 0f3a
00000220: d216 5c3e fd41 943d fe96 be3d 2c5a 373d
00000230: b005 013e a489 2ebe e4cc c5bc ad40 0cbe
00000240: b2bd 99bd 5c47 d13d c635 3cbd b601 05be
00000250: e556 d2bd 15a9 20be a2d0 4abd 7f80 8e3d
00000260: a502 3fbd 9865 c13c bc09 0a3e 1e89 94bd
00000270: 56ee 88bd cd85 e5bd 2e2f a8bd 831f e0bc
00000280: 2a5a b1bd ccb4 e43d 4ae6 e43d 3fae d03c
00000290: bb53 a73d 8c73 77bd c200 e7bd 8dd1 083d
000002a0: aa3f 17be 45d6 1dbe 8b4d dd3d 804e 7fbd
000002b0: 4f4b 2b3e 567d 29be f471 1e3e 21b2 243e
000002c0: e13e 77bd 58a4 0fbe 9b4f b5bd 185b 0a3e
000002d0: 4a82 fbbd 8c2a aa3d 9b42 a63d c5a7 81bd
000002e0: 5cea 00be 279a 5c3d 9508 503d 8a4e 483d
000002f0: 0b2b 82bd 5fa3 babd 7e0f 9f37 0b83 ccbd
00000300: 3e10 e0bc bbad 76bd b1d2 083e 334d 873d
00000310: 3499 00be c6c1 1a3d 04a3 f0bc b5d8 633d
00000320: cb98 933b de61 9c3d 7fd7 723d e9fb 193d
00000330: 55b6 ff3d 54f6 b6bc 0cf5 223d 6946 f2bd
00000340: aa25 0cbd 3d90 3b3e 58c1 d4bb 5606 ab3d
00000350: 3849 353e 59eb b73d 95ef fdbd 4d50 823d
00000360: 8af6 dc3d 1120 a03d d4f2 1a3e 9dc2 d53d
00000370: 6c6b 283c 080d 5f3d a278 b73c 42a7 0fbe
00000380: ed53 ee3d ff70 debd 202c 83bd 5a5b 633d
00000390: 5671 a2bd f150 9fbd caea 453e b9eb 963c
000003a0: 11c2 f3bd 279e 0b3e e1f6 ff3d 410c ca3d
000003b0: a1fe 8f3c a1ba 353e b63b 5b3d cb23 cb3d
000003c0: 788c 35bd 36f1 88bd 55f3 1b3e 0313 ad3c
000003d0: ba50 f73c bab4 b13d 5738 38be c66f d03b
000003e0: a59c 55ba f11b 04bc 9dfc 0c3e b7b7 313b
000003f0: 8cf6 f1bd 2f91 8c3c e868 5ebe 94e9 1d3d
0.20565121 -0.12911978 0.035998326 0.009732485 0.038522102 0.048771773 0.14802057 0.12857696
0.09055579 -0.007688431 0.039653264 -0.047066525 0.06061747 -0.040928163 0.1406884 -0.10434857
0.10864453 -0.11833981 0.12485795 0.05684274 0.025352342 0.05084214 -0.079655856 0.17214155
0.0900411 0.04719845 -0.058203425 -0.20346485 -0.13631889 -0.0977709 -0.084312774 -0.02853978
0.12800752 0.09008688 0.027540842 -0.18601634 0.10502747 -0.027943254 0.09904703 -0.1027476
-0.17124842 0.15698497 -0.08746134 -0.053075388 0.01652645 -0.066787675 -0.0028654442 -0.116642736
0.10821396 0.05452547 -0.060838405 -0.04778689 -0.12698881 -0.07958469 -0.134634 -0.06193623
0.14703402 0.014174475 0.13877426 0.1251132 -0.07474813 0.09685279 0.15721628 -0.023150286
0.012410322 0.15741141 0.09315647 -0.067263566 0.086805925 0.094929695 0.116730824 -0.11383715
0.13829054 0.03464696 -0.031838417 0.079637885 0.13434114 -0.024137096 0.1556388 0.08232798
-0.14873533 -0.119069315 0.08475893 0.10042789 -0.0028372502 0.1252264 0.09253663 0.13663189
-0.056775264 0.12586677 -0.077138245 -0.092861265 0.058898304 -0.115436524 -0.030831547 0.033576764
0.060376275 0.011468737 -0.16483001 0.0044725845 0.09411121 0.07293272 -0.17793098 -0.0071380474
-0.006323073 0.063592635 -0.009675422 -0.06745448 -0.037806153 -0.050439708 0.022648009 0.08335446
-0.09166948 -0.104969524 0.10382642 0.118475035 -0.15962094 0.04703094 -0.052765414 0.05624985
-0.06176268 -0.061918292 0.17614016 -0.17704223 0.017187668 -0.082108185 -0.085026294 0.13470176
0.100541145 -0.23905523 0.13419883 -0.052463196 -0.18337524 -0.0443505 -0.091494255 0.0005475667
0.2149308 0.07239149 0.09306143 0.04476373 0.12599826 -0.17044693 -0.024145551 -0.13696547
-0.07506885 0.10218689 -0.04594972 -0.12988934 -0.1027048 -0.156895 -0.049515374 0.069581024
-0.04663338 0.023608014 0.13480276 -0.072527155 -0.06686084 -0.11207161 -0.08212124 -0.027358776
-0.086597756 0.11167297 0.11176737 0.025473712 0.08170267 -0.06041293 -0.112794414 0.03340297
-0.1477038 -0.15413769 0.10805806 -0.062330723 0.16727947 -0.16551718 0.15473157 0.16083576
-0.0603627 -0.14027536 -0.08853074 0.13511312 -0.1228071 0.083088964 0.08118173 -0.063308276
-0.12589401 0.05385795 0.050789434 0.048903026 -0.06355866 -0.09113192 1.8961491e-05 -0.09985932
-0.027351495 -0.060224276 0.13361622 0.066065215 -0.12558442 0.037782453 -0.029374607 0.05562659
0.0045042983 0.07635854 0.059287544 0.037593756 0.12485949 -0.022334255 0.039784476 -0.11829836
-0.034215607 0.18316741 -0.006492775 0.08350818 0.17703712 0.08980436 -0.12399212 0.063629724
0.10789211 0.07818616 0.15131694 0.1043751 0.010279518 0.054455787 0.02239639 -0.14028648
0.11637101 -0.10861396 -0.064049006 0.05550704 -0.07931773 -0.0777911 0.19327846 0.018422948
-0.119022496 0.13634549 0.1249826 0.098656185 0.017577471 0.17746975 0.05352374 0.09918936
-0.044323415 -0.06686632 0.15229543 0.02112723 0.03018986 0.08677049 -0.17990242 0.0063609807
-0.0008148647 -0.008063302 0.1376824 0.002711756 -0.11814603 0.017159073 -0.21719706 0.038552836

net_container.2.weight f4 [128, 256]
00000000: 0022 6c3d 7a07 bebc 80ac 853b d6e5 a3bc
00000010: 21e2 cb3c 6cf7 e6bc 097b cc3c 81f5 71bd
00000020: e3d1 08bd 70b9 703d c492 43bd 50f3 d2bc
00000030: 7667 143d 8d00 93bd 41e2 943c 4e48 2fbc
00000040: 00d8 06bd 93d2 913c 8e36 953b 0b36 fd3c
00000050: ddd2 50bd 670a 4bbb 8947 21bd ab4c d2bd
00000060: 6062 9dbc f1ad 023d 5e3d 49bd a32c a53d
00000070: 2ff6 7e3c ec89 2a3c b5c7 ffba 186a 1d3d
00000080: 3a77 9dbd fdb2 87bd cdb2 a3bd 32f7 703d
00000090: d8f4 27bc 2562 913d 8893 d23c 1799 1b3d
000000a0: abb1 6d3d fc2f 593d 84e8 29bb 08d3 23bd
000000b0: 4854 293d 7480 2d3d fd34 5cbd 0fed a53d
000000c0: d95c 1a3d 3954 463c 4524 823d 8e24 f33c
000000d0: 505f 293d 47c2 1cbd d600 aa3c 5a59 5d3c
000000e0: a644 b7bd 4a41 93bd 39ec 0d3d d251 86bb
000000f0: eadd 4b3d 8bfb 753c 6972 b93c 899f 183c
00000100: e210 7bbd 9dc3 50bd 9427 47bd 65b7 93bd
00000110: 312f acbc d5c8 f03c 6b50 ebbb 1f72 48bc
00000120: 586b f53c 1f31 fcbc 6d8e 443c 0bbe 8f3d
00000130: d5b2 bdbc 62eb fdbc ddc0 f93b 6a34 653d
00000140: f780 9a3d 30ea a33d 14de 26bd 9ba9 213d
00000150: 2945 ee3b 968e 183d 3c9d e1bc ba7c dcbd
00000160: e3fe 203d ebcd 19bd 23a8 1abd 845e 94bc
00000170: 1eb8 e7bc 2d71 163d ca35 67bd 62b0 16bd
00000180: a0fd 80bc f0f2 46bd aede 8d3d 4838 2ebb
00000190: 3b03 54bc 5331 3dbd c7e8 1bbc da76 96bb
000001a0: 1752 de3c ed81 70bd 7712 e1bc 033c 783c
000001b0: 01eb a33d cb8f 9c3d fc3f 8cbb dced 7fbd
000001c0: bd49 9b3d e3c6 9c3c 21ac 61bd 316a 8cbd
000001d0: e8eb 8fbc 26c9 06bd fc3a 3f3c f62f 273d
000001e0: 9419 0ebd da19 1d3d 440b 42bd 9568 783d
000001f0: 9ef8 3a3d a4dd 833d 0130 0fbb 983f 8dbd
00000200: d643 503c 6383 303d c726 96bd 0c1a fcbc
00000210: 3795 313d 3699 ef3c 731c 903d efde d53c
00000220: 5ec8 833d f518 3ebc 39a6 823c ef9a b93d
00000230: e753 08bd c829 963c 9105 66bd 695f 193d
00000240: 71a4 693b 9868 7bbd 63c6 613c 6ad2 523d
00000250: 4ee2 23bd 78e2 29bd e9c4 ac3d d773 42bd
00000260: d8bf 75bd 9636 533d 51c7 bfbd c367 993d
00000270: 66e1 8bbc b3e9 9b3c 0024 0f3d 25e7 92bd
00000280: 004e 783d 7550 00bd c8c9 adbd 4acf a4bd
00000290: c27a 793c e284 78bc a893 a1bd ff5e 55bd
000002a0: 4767 323d d554 423d cfee 95bb d5bc 9b3d
000002b0: 3a05 cebc 1a5a ae3b ab8d 693d c6eb 9abb
000002c0: 39dc 1ebc 304d cb3b c5ee 483d ae69 88bd
000002d0: ffed 40bd 53e1 cebd 90cb ba3c 6063 edbb
000002e0: 8379 77bc bfaf 1f3d 0366 f2bc 2190 303c
000002f0: b13e 03bd 4e82 50bc 1ee3 d0bc 996b a63d
00000300: 801c 65bb e3a8 72bd d0e8 51bd 586e 06bd
00000310: 1eff 83bd 012d 753d a4d8 813d d7fd 3cbd
00000320: e71f 11bc f3b5 bd3c 641e 8cbd 849e 90bd
00000330: 9dad 3d3c 5b08 083d 056b a23d a303 3ebd
00000340: 7ace c5bc 02da a8bd 7d3f 37bc 5c64 77bd
00000350: ef10 9ebd f191 2bbd 3aa9 fd3c 1faa 5ebd
00000360: 8362 de3b 3be1 c1bb 67b3 1dbd 40a0 50bc
00000370: e173 a73c a89e b43c aaf2 9bbc 63e4 803c
00000380: 1032 08bd f27e 643d f007 013d 743d 893d
00000390: 7e4f 6b3d b882 42bd 33ea 9c3c 4619 a53d
000003a0: b44d 2ebd 5188 8bbc 91f0 adbd 06f7 7cbd
000003b0: fb6c 2e3d 9ea6 48bd 5986 b8bc 7657 6f3c
000003c0: 610e cfbc 4bd3 d03c f0d1 e53c c75e 53bc
000003d0: ff82 60bd b3b7 5f3d eb9e 773d d5ad 33bb
000003e0: f987 c93c b84d 4bbc 047d b7bd 5d8f 59bd
000003f0: c2ee 67bc 0f1e 16bd d961 4a3d fb04 f6bb
0.057649612 -0.023196924 0.0040794015 -0.020007055 0.0248881 -0.028194152 0.024961011 -0.05907202
-0.03340329 0.058770597 -0.04774739 -0.025750786 0.03623148 -0.071778394 0.018174293 -0.010698391
-0.032920837 0.017800605 0.0045536226 0.030909559 -0.050982345 -0.0030981542 -0.039374862 -0.102685295
-0.019211948 0.031904165 -0.04913079 0.080651544 0.015561624 0.01040886 -0.0019514473 0.038431257
-0.07688756 -0.06625936 -0.07993088 0.058829494 -0.010251246 0.07098798 0.025705114 0.037987795
0.058030766 0.053024277 -0.0025925944 -0.039996177 0.041340142 0.04235883 -0.05376147 0.08101856
0.037686203 0.012105041 0.06354574 0.029680517 0.041350663 -0.038271215 0.020752352 0.013510073
-0.089486405 -0.07190187 0.034649108 -0.004099109 0.04977218 0.015013586 0.022637563 0.00931538
-0.061295398 -0.0509678 -0.04862173 -0.07212714 -0.021018596 0.02939264 -0.0071812174 -0.01223424
0.029958412 -0.030785142 0.011996848 0.0701867 -0.023156563 -0.030996028 0.007621868 0.05595819
0.07544129 0.08003652 -0.040739134 0.03946839 0.007271428 0.037245356 -0.027540796 -0.10765977
0.03930558 -0.037549894 -0.037758004 -0.018111475 -0.028286036 0.036729027 -0.05644778 -0.036789306
-0.015745938 -0.048571527 0.069272384 -0.002658384 -0.012940223 -0.046189617 -0.009515948 -0.004591805
0.027138753 -0.058717657 -0.027474625 0.015151027 0.08003808 0.07644614 -0.0042800885 -0.0624827
0.07582424 0.019137805 -0.055095796 -0.06856192 -0.017568544 -0.032906674 0.011671778 0.040817223
-0.034692362 0.038354732 -0.047374025 0.060646612 0.045647256 0.06438759 -0.002184868 -0.06896895
0.012711486 0.04309405 -0.07331615 -0.030774139 0.043355193 0.029247861 0.07036676 0.02610728
0.064347014 -0.01160263 0.015948402 0.09062754 -0.03328314 0.01833047 -0.056157652 0.037444506
0.0035650993 -0.061379045 0.013780209 0.051470198 -0.040010743 -0.041475743 0.08435995 -0.047473755
-0.05999741 0.05156573 -0.093641885 0.07490494 -0.017075252 0.019032335 0.03494644 -0.071729936
0.06062126 -0.03132673 -0.08485752 -0.0804735 0.015227022 -0.0151684005 -0.07889491 -0.05209255
0.043555524 0.047444183 -0.0045755873 0.07604376 -0.025148977 0.0053207995 0.05701987 -0.0047278134
-0.00969606 0.00620427 0.049055833 -0.06660782 -0.04710197 -0.10101571 0.022802144 -0.0072445124
-0.015104654 0.038985964 -0.029589659 0.0107765505 -0.03204221 -0.01272638 -0.025498923 0.081259914
-0.0034959614 -0.059243094 -0.051247418 -0.032820076 -0.06445144 0.059857372 0.06340149 -0.046140518
-0.008857704 0.02315805 -0.06841734 -0.070614845 0.011577037 0.033211093 0.079305686 -0.046390187
-0.024146307 -0.08244707 -0.01118457 -0.060398445 -0.077180736 -0.041887227 0.030964483 -0.05436146
0.006786646 -0.005916742 -0.03850117 -0.012733519 0.020440998 0.02204831 -0.01903661 0.015733903
-0.03325087 0.055785127 0.03150171 0.067011744 0.057448857 -0.047487944 0.019154644 0.08061461
-0.042554572 -0.017032774 -0.0849315 -0.061759017 0.0425844 -0.048987024 -0.022525 0.014608255
-0.025275411 0.025491377 0.028054208 -0.012901015 -0.054812428 0.05461855 0.06045429 -0.0027416844
0.02460097 -0.012408666 -0.08959392 -0.053115238 -0.014156045 -0.03664976 0.04940972 -0.007507918

net_container.2.bias f4 [128]
00000000: 8883 52bc 42f3 c2bd 4fe3 b4bc 0050 c8bd
00000010: 1bcf c4bd 90a0 fa3c 19d4 873d b185 ecbc
00000020: 9375 323d c6eb a7bd f0a3 943d 1263 18bd
00000030: 9903 d9bc 9572 013c 9c0b f3bc 45b6 513d
00000040: 95db e0bd e099 6abc 1135 8a3c e960 a73c
00000050: 78a4 9a3d 2735 8fba c94e fbba 619d 02bd
00000060: 6472 713c 4015 c63c 663c 323c 17ca 07be
00000070: 3c12 b2bd 5217 8dbd f1a2 c7bd acb8 0fbd
00000080: 993b c1bc f0d1 27bc 1557 783d f986 103d
00000090: 519f cabc 83c4 b0bd 3f49 f0bc c247 ab3b
000000a0: e95e fcbd e892 dfbc b70d 92bd d0d9 573d
000000b0: d07b 4a3d 3984 163d 939e 613d 95f9 963d
000000c0: 502b a03d 9ba5 223d 17cc 08bd f171 eebd
000000d0: 2b78 163c f2fa 9f3d 2e62 b5bd 7787 41bd
000000e0: 28f9 893d 16dc c9bd 9266 aa3d 31fd 203d
000000f0: 4e04 ecbd ec2b 6d3d 731a 9fbc a8db 4bbd
00000100: 972c e63c 8191 e5bc cd77 e73d 6828 50bd
00000110: a14a 15bc 2a29 a8bc 188a b4bd efe1 83bd
00000120: f4d5 dabd 5267 133d 8fbe 25bd a717 48bd
00000130: 3044 1abc 1d50 e83c 530f 9abd 4822 bcba
00000140: 1bdc ffb5 40b8 78bd b759 b13d 4d3b 093c
00000150: 69ed 75bd 4277 caba ef9c c53d 9843 543d
00000160: 0b12 073d c2d8 9f3c 3251 03be 7dfd 143d
00000170: 37d3 c0bd 7326 b63b ffde 96bd 07ed 353d
00000180: 044a 7239 c8d5 433d 5971 93bd 8e93 b3bc
00000190: 8c14 cabd 776e 32bc 20fa 433c 6f55 b13d
000001a0: 9768 0cbd fc0d 75bc cd42 8bbc 3e2c 61bd
000001b0: 24a5 c3bd 8004 0abd 7e1a c03d e6da 3d3d
000001c0: 4dfa 95bd d80a d7bc 7025 623c 1143 613d
000001d0: 22d4 573d 917b 08bd eaf6 0cbe a969 8c3c
000001e0: 21ed 773d de04 55bc 38df 5ebd ce83 19bd
000001f0: 2272 913d afde 08bb f3c1 b9bd bf36 6fbd
-0.012848742 -0.09519054 -0.022081045 -0.09780884 -0.09609815 0.03059414 0.06632251 -0.028872343
0.04356916 -0.08199267 0.07257831 -0.037203856 -0.026490973 0.007900854 -0.029668622 0.051199216
-0.10979382 -0.014318913 0.016871007 0.020431953 0.07550901 -0.0010925875 -0.001917326 -0.03188837
0.0147367455 0.024180055 0.010878658 -0.13260685 -0.08694884 -0.068892136 -0.097478755 -0.035088226
-0.023587989 -0.010242924 0.060629923 0.03528497 -0.024734171 -0.08631232 -0.029331801 0.00522706
-0.1232279 -0.02729173 -0.07131522 0.052697957 0.049434483 0.03674719 0.05508287 0.07371823
0.07820761 0.039708715 -0.03339776 -0.11642826 0.009183924 0.07811536 -0.08856617 -0.04724833
0.06736976 -0.09856431 0.08320345 0.039303962 -0.115242586 0.057903215 -0.019421792 -0.049770027
0.028097434 -0.028023483 0.11302147 -0.050819784 -0.009112031 -0.020527441 -0.08815402 -0.06439578
-0.106853396 0.035987206 -0.040464934 -0.04885068 -0.009415671 0.028358513 -0.07522454 -0.0014353478
-1.906304e-06 -0.06072259 0.0865969 0.008375955 -0.060040865 -0.0015446919 0.09649073 0.051822275
0.03297619 0.019512538 -0.12823942 0.036374558 -0.09415286 0.0055587827 -0.07366752 0.0444155
0.00023106491 0.0478113 -0.07199354 -0.021920945 -0.098672 -0.010890595 0.01196149 0.08658873
-0.034279432 -0.014956947 -0.016999627 -0.054973833 -0.095529824 -0.033695698 0.09380053 0.046351336
-0.07323132 -0.026250288 0.013802871 0.0549956 0.05269254 -0.033320967 -0.13766065 0.017140226
0.060528878 -0.013001649 -0.054412097 -0.037479214 0.07101847 -0.0020884683 -0.09070196 -0.05840182

net_container.4.weight f4 [64, 128]
00000000: 55e2 fc3b ae24 7d3d 2cf1 93bd 3b1e f2bc
00000010: f2ca 643b 40ec 89bd 4de9 ba3c 4ed7 7c3d
00000020: 889d 3fbc 3a0e 46bd 80f4 5fbd 1b89 183c
00000030: 6aa9 a63d 6c3c 5bbd f885 7dbc 831a f9bc
00000040: 32ef b2bc 65f7 06bd 8faa b638 a152 563d
00000050: d290 bfbd 4624 ccbd 3d09 f83d ac52 a2bd
00000060: 0e8c 8ebb 1f97 9e3d de2c db3c 9320 56bc
00000070: 692b a53d 3b7f 093d e124 efbc 2d7b 0a3d
00000080: 85c2 1b3c bf62 b8bc 826b d6bd 1194 bfbd
00000090: df5c 8bbc b7d6 84bc 2da2 da3c 892b bcbc
000000a0: 3943 8cbc 5003 8bbc c383 363d 3598 5dbc
000000b0: f5ca bf3a 53cb 1e3c d35a b9bd f210 2c3d
000000c0: 820a 4abd b0f1 7fbd e56f 9a3d fc35 7f3d
000000d0: 6ef5 903d 6089 52bd 187f 433d 4906 47bc
000000e0: 158b 803d 48a0 77bc d58a 1c3d fcf4 193c
000000f0: 9178 883d 2880 e7bb c576 cfbc b987 fb3b
00000100: f523 76bd 07df 4dbd 94aa 83bd 1c37 8abd
00000110: fdc7 b43c 2022 da3d 2804 a6bc c390 c83d
00000120: 9f91 8b3d 9ea7 7bbc 4673 a8bd 3601 09bd
00000130: 2ab5 cdbc a258 a23c c3ee f13d e3e3 6ebd
00000140: dab4 33bd 6f31 5c3b c8fd 5ebd 0a68 9ebd
00000150: 0124 173c d95b a23d 06d0 d7bd 6288 373d
00000160: 760a 393d bc81 f13a 1d71 4f3d e894 bfbd
00000170: 499b 6c3d 1e9d 35bd 5d37 babd 02bd eabd
00000180: 2bd2 63bd f1af 983d 4bf4 7e3c 450b c43d
00000190: d375 723d d0f5 00bc 5fcc 1f3d 5c35 a3bb
000001a0: 7b89 3dbb 9a63 473c 2e0f 9e3d 4d96 a0bd
000001b0: 31d6 2abd e577 a1bd 7125 89bb 9189 843d
000001c0: e6bd 29bd 9f60 133b 472d 0d3d 552d 0c3d
000001d0: a6b7 03bd a931 733d b4f6 d7bc ca9a a0bd
000001e0: 1e20 aa3c 7d3c c0bd e90d af3a f6a5 6b3d
000001f0: 13bc 53bd 6343 933c 5a00 d73d 44ab bdbc
00000200: f964 eb3d 72d4 9abd 0fa0 75bd 6c02 513d
00000210: 3e0e a13d ecdb 5cbd 0196 d2bc 982f 90bd
00000220: b9f3 afbd 9698 a8bd a62b 673d c8f2 57bd
00000230: 9dd8 a139 ac01 b63c 3f05 c03d 53b3 97bd
00000240: efc7 0ebc 5264 8abd 805f 66bd 0653 4d3d
00000250: e286 62bc ea4d 0dbc f381 913d fee0 403d
00000260: 6033 893c 9a79 8abc 8dcf 943c 2d4c 17bd
00000270: 6505 393d d43e 98bd 54f7 473d 6b4d 593d
00000280: cb17 683d e352 6e3c c48c debc 9f8d 64bb
00000290: b291 26bd a155 03bd 427d 94bc a99f 71bd
000002a0: b25d c13c 0dc1 fabc f0c2 f1bd ba63 813c
000002b0: 3f1d 0ebd 91ae e23c e272 acbd 65c8 873c
000002c0: 5ee2 afbd 6bae ddbd fd19 9e3c fd06 8c3d
000002d0: 5874 e9bd ec4c aa3c 4342 a6bd 15cd 83bd
000002e0: 91cd 6e3c f7c2 f03c 2bbe 5a3c 97ec 5abd
000002f0: eff5 6c3d dbc7 503d 7a3d 5b3d b298 acbd
00000300: c273 eebd 39c9 bcbd c363 4a3d dc8e 5b3d
00000310: c06c 0c3d 7e6b d03c dba1 99bd 05b8 34bd
00000320: 424b b83d 93cd 55bc f7a6 393d 82a1 753d
00000330: 51f3 f5bc 947d aabd 7dd1 9ebd 7795 e9bc
00000340: 0a23 7a3a bd7d 94bd 3a6b 1bbd 3fed b5bc
00000350: 9f3f 51bb 30c7 cf3c cc7b e5bd e2ee 7cbd
00000360: 8ea1 863d 1bb5 eebd 2958 8f3c dc1e 70bd
00000370: a35a 8e3c cf4e a13a d913 403d b778 dc3c
00000380: d6d7 3a3d 2625 57bd f9d0 273d 84c1 6c3c
00000390: 5038 a53d 32cb 3ebd 0228 253d ff3f 803d
000003a0: ba0f b13c ff94 19bd 8344 58bd f0af 133c
000003b0: c16d c83c 9942 a2bd 0466 8bbd 0a74 e9bd
000003c0: 92fd 66bb 8025 ea3d b3fb 553d f290 883b
000003d0: cc6b e33d 50e1 96bd 1221 a63d b8d1 e73c
000003e0: 7c00 e9bb c097 c6bc 62be 353d 47d7 493d
000003f0: d96d 083d 9a65 a4bc a5fa c83c 6a09 813d
0.0077174106 0.06180256 -0.07223734 -0.02955543 0.0034911004 -0.06734514 0.022816325 0.061728768
-0.011695273 -0.04835341 -0.054676533 0.009310032 0.08137782 -0.05352442 -0.015473835 -0.03040815
-0.021842573 -0.032950778 8.710205e-05 0.052324895 -0.09353794 -0.09967856 0.12111137 -0.07925925
-0.004350192 0.07743668 0.026754793 -0.01306929 0.080649205 0.033568602 -0.02919239 0.033808876
0.009506826 -0.022508023 -0.10469724 -0.09354413 -0.017012058 -0.016215665 0.02668866 -0.022969978
-0.017121898 -0.016969353 0.04455925 -0.0135250585 0.001463263 0.009692031 -0.090505265 0.042008348
-0.049326427 -0.06248635 0.075408734 0.062307343 0.07078062 -0.051400542 0.047728628 -0.012147495
0.06276528 -0.015113898 0.038218338 0.009396788 0.06663621 -0.007064838 -0.025325188 0.0076760915
-0.060092885 -0.050261524 -0.064290196 -0.067487925 0.022068018 0.1065104 -0.020265654 0.09793236
0.068148844 -0.015359787 -0.08225112 -0.03344842 -0.0251108 0.019817654 0.11813118 -0.0583228
-0.043873645 0.00335988 -0.054441243 -0.077346876 0.009224893 0.07927675 -0.10537724 0.0448078
0.045175992 0.0018425505 0.050644983 -0.093545735 0.05776528 -0.04433929 -0.09092591 -0.11461832
-0.055620354 0.07455433 0.015561174 0.09572462 0.059194397 -0.007871106 0.039013263 -0.004980726
-0.0028921056 0.012169743 0.07717739 -0.078411676 -0.041708175 -0.07884196 -0.0041853716 0.06471551
-0.041440867 0.002248801 0.034467008 0.03422292 -0.032157563 0.05937353 -0.026362754 -0.07842024
0.020767268 -0.09386537 0.0013355586 0.05753132 -0.051693033 0.017976468 0.10498114 -0.023152955
0.114938684 -0.07560052 -0.059967097 0.0510277 0.078640446 -0.05392067 -0.025706293 -0.07040328
-0.08591408 -0.082322285 0.05643811 -0.05272177 0.00030869702 0.022217594 0.093760006 -0.0740725
-0.00871466 -0.06757416 -0.05624342 0.050128005 -0.013826104 -0.008624533 0.07104864 0.04708957
0.01674813 -0.016903687 0.018165374 -0.03693788 0.04517116 -0.074338585 0.048819855 0.053052347
0.056663316 0.014546129 -0.027166732 -0.0034874452 -0.04066629 -0.032064084 -0.018126134 -0.058990154
0.023604248 -0.030609632 -0.118047595 0.015794624 -0.03469586 0.02767113 -0.0842035 0.016575048
-0.08588098 -0.10824283 0.019299502 0.068372704 -0.11399144 0.020788632 -0.08118107 -0.06435601
0.014575378 0.029389841 0.013351004 -0.053448286 0.057851728 0.050971847 0.053525425 -0.08427562
-0.11643173 -0.09218068 0.049411546 0.05360304 0.0342834 0.025441881 -0.075015746 -0.044120807
0.08998729 -0.013049501 0.045325246 0.05996848 -0.030023249 -0.083247334 -0.077548005 -0.028513653
0.00095419644 -0.07250545 -0.037944056 -0.022207854 -0.003192879 0.025363535 -0.11205253 -0.061751254
0.06573783 -0.11655637 0.017498093 -0.05862318 0.017377203 0.0012306812 0.04689393 0.02691303
0.045615993 -0.052525662 0.040970776 0.014450435 0.080673814 -0.0465805 0.040321358 0.06262206
0.021613944 -0.03749561 -0.052799713 0.009014115 0.024466397 -0.07922859 -0.06806567 -0.11399086
-0.0035246355 0.11432934 0.052241992 0.0041676695 0.11104545 -0.07367194 0.081117764 0.028298244
-0.0071106534 -0.024242282 0.044371016 0.04927757 0.033307884 -0.020067979 0.02453358 0.06300624

net_container.4.bias f4 [64]
00000000: d980 d1bd 9bed 6ebd b7b8 a73d c2c5 2d3c
00000010: 751d 95bd 442b acbc 0d55 edbc 0baa debd
00000020: 802e fcbd 67ca a83d 82d0 8f3d d98f 3cbc
00000030: 65fa ed3c d3ce 9dbd a3df 43bd 55c7 c73d
00000040: 2bdf 1a3b f0f0 3f3d 791a ab3d 7e29 cb3d
00000050: c542 b2bd 8d79 2c3c d47b d4bd 2d4b a13c
00000060: d251 7f3d 4a7e 9fbd 89d6 b43c c36d 0bbd
00000070: 01d3 98bd 5e46 aabb df83 bb3b 5332 823d
00000080: dd48 2dbd 7ae3 f6bc e0e9 5b3d 6f53 c4bb
00000090: e783 e0bd c00c 463d 8ed3 063c 4248 94bb
000000a0: b980 963c 255f f53c a1fa 3ebb 172a 2fbe
000000b0: 833e 1bbd d58c 103b db80 2ebd 588b 9abd
000000c0: a2e6 473d 2d58 123e 3f76 c43d b640 0abc
000000d0: 301f 29bd 17d1 ddbd aba9 e0bd 31da dbbc
000000e0: 2614 ccb9 5862 073d 75a7 6fbd 9ac4 313d
000000f0: 151d 793d 4488 30bd 1265 e3bd 9383 8fbd
-0.10229654 -0.058332067 0.081895284 0.010606231 -0.07281009 -0.021016724 -0.02897122 -0.10872277
-0.12313557 0.0824173 0.070221916 -0.011508905 0.029050061 -0.07705464 -0.0478207 0.097548164
0.0023631554 0.046860635 0.08354659 0.099200234 -0.087041415 0.010527027 -0.10375181 0.019689167
0.06233389 -0.077877596 0.022074955 -0.034040224 -0.07462121 -0.0051963767 0.0057225074 0.06357255
-0.042305816 -0.030137766 0.053689837 -0.0059913914 -0.109626584 0.048352003 0.0082291495 -0.0045252154
0.018371927 0.029952595 -0.0029141086 -0.171059 -0.037901413 0.0022056599 -0.042603355 -0.07546109
0.048803933 0.14291449 0.09592866 -0.00843828 -0.04128951 -0.10830896 -0.109698616 -0.02683744
-0.00038924924 0.033052772 -0.05850931 0.043400384 0.06081875 -0.043098703 -0.11103262 -0.07007518

policy_layer.weight f4 [8, 64]
00000000: 1e3f 03bd 34e1 733c dd24 dabc 7d49 9bbb
00000010: 624f febd 4530 003e f49f 6a3b ab67 3abe
00000020: 175c c33b aff9 c13d e70a b6bd 1ead 763d
00000030: d3e2 e33d c783 c63c 3fea 953c 5706 f43d
00000040: 31dc c7bc 6514 89bc c132 f33d b3af c33c
00000050: a2f7 783d 5341 c23c 377a cf3d 35ba ebbd
00000060: b5b0 6ebc 1e63 0a3b 6029 2c3d 74b5 b23c
00000070: d44b 203e 7396 a03d e07b 70bd d76d ab3d
00000080: 3f85 c8bd d2e1 1abc 89eb 623d e0e7 cfbd
00000090: 054b 0c3e 1282 bd3d d843 7abc 95c5 863d
000000a0: 5017 a6bc d8ef 3c3d ac03 debd 55c2 0b3e
000000b0: 7add babd 8ba4 0bbe a9eb 5f3d 3c2c 423d
000000c0: bbf4 993c 9d77 d93c 33ef ddbd c044 8c3b
000000d0: f01e 113c 4739 d93d a22b 743d 4c24 693c
000000e0: 9a0f 9abd 21bb a73d bd6e 343d 3597 773d
000000f0: 06c3 d13c 3d5c c63d 1f99 2e3d 47ec f2bd
00000100: ed7e d43d 1b6e 98bc d3a1 f0bd 455d 3d3c
00000110: 8f9d 37bc b522 acbc deba cebd 0955 8e3d
00000120: f467 c13d dce4 ccbd a5fa 833b ca17 1a3a
00000130: d8e4 0a3e c8f6 03bc 6bd8 9fbb 0eaf 2bbd
00000140: 0875 b7bd 629d d83d 02d3 e03d 6ae0 e6bd
00000150: 290e 383e aec0 61bd dc65 c93d 48f1 b43d
00000160: 1670 36bd 6dbb 093e 145f 153e 1cb4 f6bb
00000170: 9cea 963c 1d02 233e 2f36 b5bd b00d b9bc
00000180: 2b2e 253e 3d1d fd3d 2a72 9fbd 8767 bcbd
00000190: eeaf 0d3d 6b00 6cbc 4414 ba3c f862 da3d
000001a0: 55c9 bd3c 5903 88bd 48dc f23d 16aa e43d
000001b0: f2d2 d2bd e863 76bd 087d bf3d bb6a 003e
000001c0: 0909 053d 3e68 41bc 829b 7ebc 23f6 e13c
000001d0: d0ac f9bd 21fc d73d 4f5c a7bc 5371 6b3d
000001e0: b079 9fbc ad62 13be d903 8dbb 0dd2 1b3b
000001f0: 544a 4cbd eba5 c5bd d1e8 393d 4d89 cebd
00000200: 4c9e 0ebd b88c d33d ad00 8b3d 2fdc e3bd
00000210: fb7e e5bd 4a8a 1b3e b6da e23a e9f3 4d3c
00000220: 5864 49bd 5c15 42bc e3f6 f9bd a004 73bd
00000230: a1c1 06be 3a55 04be 763e 8db9 b1b1 cabd
00000240: f216 44bb f158 b6bc 72e1 0f3e 805d 69bd
00000250: b76f b73d dbfb 483d 2a6b 823d 4a1c f73d
00000260: 0797 c6bc c208 1c3e b9f1 183e 8928 e53c
00000270: 43d7 873d 43a7 28bc 218d 2ebd 2b11 94bd
00000280: 55a1 be3d 681f ae3d 56e8 47bd 2d6f 9cbd
00000290: 2412 203e f11e dbbd 683a 163e f83a 003d
000002a0: 7074 58bd c3e1 9abd dfc0 82bd 4e9b d439
000002b0: 699c 5e3c 3c3b f23d d52c e5bc 6688 883d
000002c0: f488 8cbb 90bb cb3c 201e c6bd 3fe6 a8bd
000002d0: 5d9c 6b3c 4767 663d 79c9 ce3c b277 183e
000002e0: 3dcd 0bbe f972 01be c75d c2bd 6e02 183e
000002f0: 1aba f8bd f9bf 523d 6e9d 7bbd ad65 0d3d
00000300: 5041 083d 21e7 f5bc c16e 773c 259c 65bd
00000310: 8aaf af3d 7712 193e 548b 88bd fdcd 19be
00000320: e165 e6bd 3f16 cabd 34c1 813c f1b1 8c3c
00000330: 3f3e 97bd 3f69 b33d f54d 583c d66c 13be
00000340: b50f 01be a53a e83d 7ca3 26bd edfb 943d
00000350: d5b8 de3d ae0f 863d b3b3 c93d ab9c ce3c
00000360: ada6 cdbd 87e2 babc 3f1c 023d 2df3 bbbd
00000370: 95aa f4bc c275 adbd 4ea9 17bd 353b 913d
00000380: 2290 f03d 2e9d 683d e2cb 49bd e6f4 903c
00000390: 88c4 603c 43d9 7d3d 56bd a43d 8e17 173e
000003a0: 9271 d73b 4a91 0d3d 189c 213d 1886 fc3d
000003b0: 6866 15be 45a0 093c 9df2 b2bd e8e6 d33c
000003c0: d75c 1bbe b8bd a3bd 095e 5ebd 4109 67bd
000003d0: 32db 113e a464 293d 520b 48bd 8176 0fbd
000003e0: 6587 173d 2dbd c23c 1d65 503d afa7 083e
000003f0: 636a f43b a06b c03c e6cc 00bd ab2c c73d
-0.032042615 0.014885236 -0.026628906 -0.004738985 -0.12417485 0.12518413 0.0035800906 -0.18203609
0.0059619057 0.094714515 -0.08888798 0.06022369 0.11127248 0.024232758 0.018300174 0.11915272
-0.024396988 -0.016733358 0.11874915 0.02388749 0.060783036 0.02371279 0.101307325 -0.115101255
-0.014568497 0.0021116207 0.042031646 0.02181504 0.15653926 0.07841196 -0.058711886 0.0837056
-0.0979104 -0.009453254 0.055400405 -0.101516485 0.13700493 0.092533246 -0.015274964 0.065806545
-0.020274788 0.04612717 -0.10840544 0.1364835 -0.091242746 -0.13636987 0.054668102 0.047405466
0.018793454 0.026546294 -0.10836639 0.0042806566 0.008857474 0.10606628 0.059611924 0.014229845
-0.07522507 0.08189989 0.04405092 0.060446937 0.02560569 0.09685562 0.042626496 -0.118614726
0.10375772 -0.01860719 -0.117496155 0.011557882 -0.0112069985 -0.021012643 -0.10094236 0.06949813
0.094436556 -0.10004589 0.004027682 0.00058781786 0.1356386 -0.008054443 -0.004878094 -0.041914992
-0.08957869 0.105768934 0.109777465 -0.11273272 0.17974152 -0.055115394 0.09833881 0.08835083
-0.044540487 0.13450404 0.1458705 -0.007528795 0.018422417 0.15918775 -0.08848225 -0.022589535
0.16130893 0.123590924 -0.07785447 -0.09199434 0.034591608 -0.0144043965 0.022714742 0.10663408
0.023167292 -0.066412635 0.118584216 0.11165254 -0.10294141 -0.06015387 0.0935002 0.12540714
0.03247932 -0.011804638 -0.015540006 0.027583187 -0.121911645 0.10546137 -0.020429758 0.05748112
-0.019467205 -0.1439311 -0.004303437 0.0023776323 -0.049875572 -0.09650787 0.045388047 -0.10084782
-0.034818932 0.10329574 0.06787238 -0.11125981 -0.1120586 0.15189472 0.0017307613 0.01257036
-0.04916796 -0.011845913 -0.12205293 -0.059330583 -0.13159801 -0.12923136 -0.00026940153 -0.09897173
-0.0029920903 -0.022259207 0.14050844 -0.056973934 0.08956855 0.049068313 0.06368096 0.120659426
-0.024241937 0.15237716 0.1493596 0.02797343 0.06632855 -0.010293785 -0.04261506 -0.07229837
0.093081154 0.08502084 -0.048805557 -0.076383926 0.1563192 -0.10699261 0.14670718 0.031306237
-0.05284542 -0.07562592 -0.063844435 0.00040551502 0.013587096 0.11827704 -0.02797548 0.06666641
-0.004288787 0.02486971 -0.09673715 -0.08247041 0.014380542 0.056250837 0.025242554 0.1488941
-0.13652511 -0.12641515 -0.09490543 0.14844677 -0.12144871 0.05145261 -0.061429434 0.034520794
0.03326541 -0.030017437 0.015102089 -0.056057114 0.08578403 0.1494845 -0.066672 -0.15019985
-0.112499006 -0.09867524 0.015839197 0.017174693 -0.073849194 0.087603085 0.01320218 -0.14396986
-0.12603648 0.113393106 -0.040683255 0.072746135 0.10875098 0.065459594 0.09848728 0.02522119
-0.100415565 -0.022813095 0.03176522 -0.091772415 -0.029866496 -0.08469726 -0.037026696 0.07091371
0.11746241 0.056790523 -0.049266703 0.017694902 0.013718732 0.061974775 0.080439255 0.14755079
0.006574818 0.034562387 0.039455503 0.12330264 -0.14589846 0.008400028 -0.08737681 0.02586694
-0.15172134 -0.0799517 -0.054288898 -0.05640531 0.14243773 0.041355744 -0.04883892 -0.035025124
0.036994357 0.023771847 0.05087768 0.13345216 0.0074589713 0.02348882 -0.031445406 0.097253166

policy_layer.bias f4 [8]
00000000: 4353 07bd 3342 d6bd 5d36 8fbd d19f 69bd
00000010: e1a5 a8bb 45e9 aabd 6476 ebbd 5bcd 9c3d
-0.03303839 -0.10461845 -0.06992791 -0.05703718 -0.0051467274 -0.08345274 -0.114971906 0.07656356

value_layer.weight f4 [1, 64]
00000000: 4ef6 b33b d8ae 093d 5c7e 96bb 8c3e 32ba
00000010: 2446 acbd b0f8 153d 5eb5 e5bc 1d60 fabb
00000020: 08cb c4bc 0208 113d 2fb6 99bd 8611 01bd
00000030: e9b8 3e3d 69a4 01bd 7f59 e7bc 3865 46bd
00000040: e1e5 da3b aba2 71bd b51a f33d e7b5 153d
00000050: 5e73 88bd 3ca4 843d 12ef 4e3d f8ce f43d
00000060: b9a7 293d 9d03 eb3d 91db 5ebd 5e4e c1bd
00000070: 571e d2bc efa7 2b3b 3f97 c93d c49d 983d
00000080: 86a4 033c 397f cc3c 929d 7c3d 2b43 063c
00000090: fdbe 55bd 6321 933c dd08 30bd bc01 14bd
000000a0: 4477 b1bb 10c3 883d 575a 04bd 0c97 fdbc
000000b0: 9a12 983d 1432 70bd 7d3c 913d 9a1e b1bc
000000c0: 2003 a8bd 773a c23c b2a4 9a3d 39f3 8f3b
000000d0: 69c6 42bd 5632 13bd 9844 b7bd 8579 90bd
000000e0: be98 62bd 2372 d4bb 4f14 893c 09a9 473c
000000f0: c76a 193d d259 873d 9fd7 c8bd 85f0 85bd
0.0054920083 0.03361401 -0.0045927 -0.00067994813 -0.08411816 0.03661412 -0.028040584 -0.007640852
-0.024022594 0.035408027 -0.07505452 -0.031510852 0.046563063 -0.031650934 -0.028240917 -0.048436373
0.0066802357 -0.058993023 0.11870328 0.03655043 -0.066626295 0.06476638 0.050520964 0.11953539
0.04141972 0.114752986 -0.054408614 -0.094387755 -0.025649233 0.0026192626 0.09843301 0.074519664
0.008034831 0.024963008 0.06167371 0.008194725 -0.052184094 0.017960256 -0.042977203 -0.036134467
-0.005415829 0.0667783 -0.032312717 -0.030955814 0.07425423 -0.05864151 0.07091615 -0.021621037
-0.08203721 0.023709519 0.075509444 0.004393008 -0.0475525 -0.035936676 -0.0894863 -0.07054428
-0.055321448 -0.0064833327 0.016733317 0.012186297 0.037455346 0.06608929 -0.098067515 -0.06540016

log_std_parameter f4 [8]
00000000: be48 37c0 7595 21c0 7d6f 2ec0 e10d 2cc0
00000010: 9949 50c0 b658 3cc0 221d 5ac0 e782 1cc0
-2.8638148 -2.5247471 -2.7255547 -2.688347 -3.254492 -2.9429145 -3.4080281 -2.4454896

net_container.0.weight f4 [256, 45]
00000000: 22d9 803c 7daa 5abe 29b8 8b3b 521d 9cbd
00000010: 3792 09be cbbe 363d c854 c83d 19d3 21bc
00000020: 2658 a33c 84e8 c4bd 687a 3fbd 0a08 c53d
00000030: 90d0 803d d2a2 32be a46a 15bd 067d a6bd
00000040: 2bfe fb3d 2330 b7bd 6624 88bb e670 cbbd
00000050: 4dfd 17be 3be9 f23d 56e9 103e 4f3d cabd
00000060: 2334 9abd d672 14bb 34e7 d1bd 6960 153c
00000070: 6202 213e ec91 c3bd d263 46be 0277 a33c
00000080: ef89 a13d 7485 f5bd fade c4bd cd3d 0c3e
00000090: 2372 79bd d929 90bd ccb2 16be 2e14 bb3d
000000a0: ad8b 6b3d fb55 b3bb 6e20 f33d 645b 0b3d
000000b0: 7014 ac3d 07cd 723d 643a c2bd 68bd 613d
000000c0: b1da 16be b8c0 6a3d e425 e6bd ccaf 213e
000000d0: 2a07 0d3e c9ce e03d 7e2c 2cbd d5b9 d4bd
000000e0: 39d7 b53d 33dd 00bd 9f54 c8bd 8250 3b3e
000000f0: cded 8bbc 5941 a4bd 0ada 1abe f7e0 a4bd
00000100: 63a9 a4ba ab0d d7bb 52f0 25bc bdad 16bd
00000110: db7e 8c3d 643f 8ebd b9af 053c f4d1 913d
00000120: 3bf2 c9bd 15b8 f8bd 8500 803e 1b4b 72bd
00000130: 10d6 57bc dc63 9dbb 99a0 973d dfce 89bc
00000140: a1c8 d93d 4af7 6abb 77be 313d ade0 4d3d
00000150: d063 f43d 9c7b 8abd 855e 8bbd 442d 7ebd
00000160: 80e4 ab3d e9a2 b7bd 0ea4 1e3e eb06 123e
00000170: 9266 47bd a4fa e43d 7995 313d f5ff e0bd
00000180: 0374 5bbb 6978 a83d 5a08 0dbe 6a98 183d
00000190: e8e4 c3bd c278 263e bb0e 02bd 122a e2bd
000001a0: acb5 49bd 179b 9fbd 37af 963c f097 213e
000001b0: 402a cb3d 91c4 d03d d18a e4bd ed41 b5bd
000001c0: cbc0 ea3d 7200 593d a3eb 933d 8a14 a83d
000001d0: f8dc 113e be58 d1bc 1641 ee3d 5be5 183d
000001e0: 3886 7ebd f67b 413b 1e0f d63d d224 973c
000001f0: 8a81 8fbd fedf 24bd f692 e73d 9f99 433c
00000200: 4614 c03d 6e35 59bd 552b f43d 7365 89bd
00000210: 883e 9fbd 2276 9abd c5c2 bfbd 6fe5 24be
00000220: 59a4 abbc bd9f 803d 10b5 2f3d 7e4f 373e
00000230: b0d7 c93a ee4e dc3c 29f5 f63b aa14 63be
00000240: d239 b6bd 97c9 0fbe 351f 113e 794e 153e
00000250: 0f7f 16bc 75d1 2ebe f3cd 393d bdec 2c3d
00000260: 8378 263e 1e34 14be 1343 11bd f2f8 133d
00000270: 4b3f b93d 1b38 9dbc 6760 ad3d 74f0 fabd
00000280: 98b5 ba3b 5f1b 233c fc4c e5bc 397a 443d
00000290: fbde 843d dac5 f83d 0e09 16be e083 79bd
000002a0: ea86 c53d c76a f53d 510c cd3d ace9 e33d
000002b0: 36e2 5c3d aea5 9fbd ef2f c0bb 7a3d 3d3e
000002c0: 4aad e1bc 4791 363b b4b2 cbbd 073b 97bd
000002d0: 022f 61bd b2ff 613d 1b61 353c 95af 8d3d
000002e0: 1bb7 40be 947c 35bd b169 4f3d 021a 10bd
000002f0: daf5 313d 01b3 f03d 02e9 f93c f673 d9bd
00000300: 8db2 033d b10e 3b3e d887 6ebd 4c12 03bc
00000310: a347 eb3d fbb8 ba3c acac 043d 649d 00be
00000320: b3d0 1e3e 8df9 01bb efb3 a4bc 6ea6 5a3c
00000330: ed50 ecbd b4ce e53d 3269 91bd 6fbb 66bd
00000340: 24f7 b23b ea07 07bd 1573 92bd c4c6 723c
00000350: 0c32 92bd 02d5 353e cdf7 8dbd acf6 d53d
00000360: e3b4 bc3d 9cc1 cf3d ac89 f2bd 69ac 103e
00000370: 79f7 11bd 9d25 013d e9bc 243e 61f5 17be
00000380: b44a c1bb 4c31 adbd 752d 10be 2d2d 3bbd
00000390: 5d84 1ebc 13d6 cdbd 33a1 653d c013 e33d
000003a0: bc22 0e3e e23b ab3c 9328 57bd c3f8 7bbd
000003b0: ef8a cebd cd60 eebd 9c36 093d acbe 17bd
000003c0: 5688 a9bd d7da 833d 9c02 debc 75fc 253e
000003d0: 59c3 153d 8ac9 b23c 0124 c8bd 2cff f4bb
000003e0: 622d 25bc 8448 8dbd a169 e13d 370d 183e
000003f0: c507 003e c427 3d3d 0510 983c 3cdc 36be
0.015728537 -0.21354099 0.004263897 -0.0762278 -0.13434683 0.044615548 0.09781796 -0.00987699
0.019939493 -0.09614661 -0.046747595 0.09620674 0.0628978 -0.17444924 -0.036478654 -0.08129315
0.12304338 -0.08944728 -0.0041547297 -0.09933643 -0.1484272 0.118608914 0.1415151 -0.09874975
-0.075294755 -0.0022651455 -0.102491766 0.009117224 0.15723565 -0.09549317 -0.19374016 0.019954208
0.07887637 -0.11988345 -0.09612842 0.1369545 -0.060899865 -0.07039232 -0.14716643 0.09134708
0.057506252 -0.005472896 0.1187142 0.034022704 0.08402336 0.05927756 -0.094837934 0.055112273
-0.14731862 0.057312697 -0.11237696 0.15789717 0.13772264 0.10976941 -0.04203462 -0.10387007
0.08878941 -0.031460952 -0.09781765 0.1829243 -0.017081166 -0.080202766 -0.15122238 -0.08050721
-0.0012562688 -0.0065629086 -0.010128098 -0.036786783 0.06860133 -0.069456846 0.008159571 0.071201235
-0.09860655 -0.12144486 0.25000396 -0.059153657 -0.013173595 -0.004803164 0.074036784 -0.016822277
0.1063397 -0.0035852962 0.043394532 0.050263096 0.119331 -0.06761858 -0.068051375 -0.062054887
0.08393192 -0.089666195 0.1549227 0.14260451 -0.048681803 0.111806184 0.04335544 -0.1098632
-0.0033485896 0.082260914 -0.13772717 0.03725473 -0.09565145 0.16257003 -0.03175233 -0.110431805
-0.04924552 -0.07793253 0.018394096 0.15780616 0.09920168 0.10193742 -0.1115929 -0.08850465
0.114625536 0.05297894 0.072226785 0.082070425 0.14244449 -0.02555501 0.11633508 0.037328105
-0.06213972 0.002952335 0.10452102 0.018450174 -0.070071295 -0.040252678 0.113073274 0.011938482
0.09378867 -0.05302947 0.119223274 -0.06708803 -0.07775599 -0.07542063 -0.09363321 -0.16103147
-0.02095239 0.06280468 0.042897284 0.17901418 0.0015399363 0.026893105 0.0075365496 -0.22175851
-0.08897747 -0.14041744 0.14172061 0.14580716 -0.009185567 -0.17072089 0.045362424 0.04221796
0.16256909 -0.14473006 -0.035464358 0.036126085 0.09045275 -0.019191792 0.08465653 -0.12252894
0.005697917 0.009955256 -0.02799081 0.047968123 0.06487843 0.12147112 -0.14651892 -0.06091678
0.096448734 0.11983257 0.10012115 0.11128554 0.05392667 -0.07795273 -0.005865089 0.18480483
-0.027548451 0.0027857588 -0.09946194 -0.073843054 -0.05497647 0.05517549 0.011070515 0.06918255
-0.18819849 -0.04430826 0.050637905 -0.035181053 0.043447353 0.11752892 0.030506615 -0.10617821
0.0321527 0.18267323 -0.05823502 -0.007999968 0.11488273 0.022793284 0.032391235 -0.1256004
0.155093 -0.0019832582 -0.02010533 0.013345344 -0.11538873 0.11221066 -0.071001425 -0.056331094
0.0054615904 -0.03296653 -0.071508564 0.014817897 -0.07138452 0.17757037 -0.0693203 0.104474396
0.09214189 0.1014435 -0.11842665 0.1412827 -0.0356364 0.03153001 0.16087689 -0.14839698
-0.005898798 -0.08456668 -0.1407984 -0.04569738 -0.009675113 -0.10050597 0.056061935 0.110877514
0.13880438 0.020902578 -0.05252893 -0.061516535 -0.10085093 -0.11639557 0.033499345 -0.037047073
-0.08277957 0.06438225 -0.027100854 0.16209586 0.03656325 0.021824617 -0.09772492 -0.007476708
-0.010081621 -0.06898597 0.11006475 0.14848791 0.12502964 0.0461805 0.018562326 -0.1785745
