CubeStackTask/logs/skrl/object_red_stack/2025-10-09_17-18-16_ppo_torch/checkpoints/agent_28800.pt (torch, 660141 bytes, 46 tensors)

log_std_parameter f4 [8]
00000000: 468e 42c0 e761 2cc0 125c 3cc0 bc50 3dc0
00000010: a8ed 62c0 45a9 4bc0 9da0 6bc0 9d92 27c0
-3.0399337 -2.6934755 -2.9431195 -2.9580526 -3.5457554 -3.1822064 -3.681678 -2.6183236

net_container.0.weight f4 [256, 45]
00000000: 9140 813c 2bb4 5abe b0b8 963b 53ed 9cbd
00000010: c7bc 09be 517d 383d 54cf ca3d 28bf 1abc
00000020: d7ce a33c 1b82 c4bd faa5 3ebd 8332 c53d
00000030: ccfc 803d 79b4 31be 0153 11bd 82fa a4bd
00000040: 18b5 fd3d 4b77 bbbd 36d0 a8bb f481 ccbd
00000050: c1f0 1abe fe5e f43d 194d 0f3e 292a c3bd
00000060: 3692 9abd 2df2 60bb 050d d2bd 6314 1b3c
00000070: 4340 213e 33c8 c3bd 4942 3dbe fb20 ae3c
00000080: 4611 a23d 09d4 f5bd f72b c5bd c4c6 0c3e
00000090: dfa7 77bd 91bb 8abd 5873 16be f759 c13d
000000a0: e52a 683d e54c d0bb f0f2 f43d 3760 0e3d
000000b0: 835d aa3d bcef 713d 339c c3bd 848e 613d
000000c0: 7d05 18be b81e 673d aafa e6bd d3d8 263e
000000d0: 0c5d 123e eeb1 e03d 8f7d 2dbd 2322 d4bd
000000e0: 4d62 b43d 4836 04bd 1f50 c9bd 0a45 403e
000000f0: 4245 6fbc 1100 9dbd fbb8 19be 08cf a4bd
00000100: 2832 2d3a f719 0fbc 9964 03bc 437f 2bbd
00000110: 51f9 923d 11e1 8dbd 92ed 323c dc0f 8a3d
00000120: 70fc cebd 159f fcbd 8900 803e 5e5f 72bd
00000130: 0a5b 9abc 7672 b1bb ac05 9f3d d950 7fbc
00000140: 82cf d53d 4031 70bb ccf2 393d 4593 4e3d
00000150: 5a4d f93d ec6b 89bd 92a6 95bd 025c 82bd
00000160: 5cf7 b03d 30e4 bebd 4ae1 1e3e ec12 123e
00000170: 1bb6 47bd a55c e43d 57f5 2f3d 5f78 e0bd
00000180: 7f20 82bb 6a3e af3d 13ef 0cbe 0279 173d
00000190: 9888 c4bd 2752 263e 1cb2 03bd cc30 e1bd
000001a0: 0473 4cbd 9ef1 9fbd a1c7 963c e883 213e
000001b0: bd5d cd3d 369b d13d 1d90 e0bd 647a aebd
000001c0: 15fc ea3d de4b 613d 9965 943d 7a11 b53d
000001d0: 9135 173e 494b 72bc bf09 f33d fcef 233d
000001e0: d9dc 80bd fb30 193c 2fcc dd3d 6eb8 263c
000001f0: 4f65 a7bd 1b41 1cbd 136f e73d 6192 083c
00000200: 82cb bf3d 3955 4abd e1c8 f43d 6586 8cbd
00000210: 05cb 9ebd a9cc 9abd d6c8 bfbd fd9f 26be
00000220: 515c b5bc 2003 7b3d 191e 2a3d 6319 363e
00000230: b419 873a 7fcc c73c bf24 c73b a641 65be
00000240: 70e4 b8bd 4cb7 11be 6172 0f3e 58ce 143e
00000250: 810d 04bc cfed 30be 095a 343d 3523 263d
00000260: 78df 243e 1ffc 17be 7e57 23bd 1819 213d
00000270: b19c c03d 4c04 73bc d612 b43d 19d9 fcbd
00000280: 3dcf 283c 93be 143c 9f61 e8bc bfe1 493d
00000290: a0cf 823d 1927 ec3d a8a2 0fbe 61de 73bd
000002a0: 7f08 c73d 7d64 f63d 471e d03d f6be e93d
000002b0: 10f7 513d 55c7 a0bd cabe fc3a 7710 3f3e
000002c0: cf73 d9bc 1bc7 dd3b 676c cebd 5ad6 93bd
000002d0: 96d3 5ebd fdc4 653d ba4d 413c 0817 8f3d
000002e0: 2509 40be a80a 31bd 0378 483d a848 0cbd
000002f0: ecce 333d 368f f23d 82d3 fe3c 45ba d7bd
00000300: bedf 053d 0e22 3c3e 52d0 76bd e116 e7bb
00000310: 140e ec3d 7dd9 c33c 05cc f93c 9bdb 03be
00000320: 5533 203e 6f45 2aba a298 abbc 4765 203c
00000330: 3d9e e6bd f4e1 ea3d 9db0 87bd 4515 5cbd
00000340: 5d2d bd3b 5988 13bd a970 a1bd 9908 b93c
00000350: 307f 90bd fadd 2e3e 1b6f 91bd 4989 d63d
00000360: 2b02 bb3d cacb ce3d 4b71 f1bd 0c60 123e
00000370: 823d 15bd f15f fc3c 2672 263e 1ffd 16be
00000380: f6b1 cdbb 2cd8 acbd 2aee 0fbe 234f 3abd
00000390: cf7d 42bc 8e00 cebd 1567 673d 12d8 e33d
000003a0: 3d7c 0f3e 7e52 ae3c 60cb 53bd efb8 7cbd
000003b0: dedf cbbd d036 efbd 16c5 083d bc3a 17bd
000003c0: 61a2 a6bd b7cf 863d 20c9 bcbc 56bf 293e
000003d0: 9298 223d 865e e03c 4dbf bebd a3b6 bfbb
000003e0: 4a6d eebb e5e2 91bd dccc e33d 998e 153e
000003f0: 66cd fe3d 83a1 3d3d 2d54 bb3c bd6f 2dbe
0.015777858 -0.21357791 0.004599653 -0.076624535 -0.13450919 0.045041386 0.09902826 -0.009444989
0.01999609 -0.09595128 -0.046545006 0.09628775 0.06298217 -0.17354001 -0.03547955 -0.08055593
0.123880565 -0.09153613 -0.005151774 -0.09985724 -0.15130903 0.11932181 0.13994254 -0.09529526
-0.07547419 -0.0034324036 -0.102563895 0.00946531 0.1574717 -0.09559669 -0.18482317 0.02125596
0.07913451 -0.12003333 -0.09627526 0.13747698 -0.06046283 -0.06774057 -0.14692438 0.094409876
0.056681532 -0.006356823 0.11960399 0.034759726 0.08318617 0.05906652 -0.09551277 0.055067554
-0.14845844 0.05642578 -0.11278279 0.1629365 0.14293307 0.109714374 -0.04235607 -0.103580736
0.08807812 -0.03227833 -0.09829735 0.18776336 -0.014603915 -0.07666028 -0.1501197 -0.080473006
0.00066069 -0.008734218 -0.00801959 -0.041869413 0.071764596 -0.06927694 0.010920899 0.06741306
-0.101067424 -0.1233503 0.25000408 -0.05917298 -0.018842239 -0.005415256 0.07764754 -0.01558324
0.104399696 -0.003665045 0.045397565 0.050433416 0.12172957 -0.067100376 -0.073071614 -0.06365205
0.0864093 -0.09320867 0.15515628 0.1426503 -0.048757654 0.11150483 0.042958584 -0.10960459
-0.003971159 0.085568264 -0.13763075 0.036980636 -0.09596366 0.16242276 -0.03215228 -0.109956354
-0.049914375 -0.07809757 0.018405737 0.15772974 0.10027645 0.10234682 -0.109649874 -0.08519438
0.11473862 0.055003993 0.07245941 0.08841224 0.14766528 -0.014788457 0.11867093 0.04002379
-0.06292123 0.009350057 0.108299606 0.010175807 -0.0817362 -0.038148027 0.113004826 0.008335681
0.09364988 -0.04939768 0.11952377 -0.06861571 -0.07753567 -0.07558567 -0.09364478 -0.16271968
-0.022138746 0.061282277 0.04153261 0.17783122 0.0010307343 0.024389504 0.0060773785 -0.22388324
-0.09027946 -0.14230078 0.14008476 0.14531839 -0.00805986 -0.17278217 0.044031177 0.04056092
0.16100872 -0.1484227 -0.03987836 0.039330572 0.094048865 -0.014832567 0.08792655 -0.123460956
0.010303316 0.00907864 -0.028366862 0.049287554 0.063872576 0.11530895 -0.14026892 -0.05953825
0.097184174 0.12030885 0.10162025 0.11413376 0.051261008 -0.078505196 0.0019282934 0.18658625
-0.02654448 0.00676812 -0.1007927 -0.07218619 -0.054401003 0.056096066 0.011798317 0.06986815
-0.18753488 -0.043223053 0.048942577 -0.034248978 0.043898508 0.118437216 0.031106714 -0.10533575
0.03268408 0.18372366 -0.060257263 -0.007052288 0.11526123 0.023907417 0.030492792 -0.12876742
0.15644582 -0.0006495332 -0.020946804 0.009789771 -0.1126065 0.114688784 -0.06625483 -0.05373122
0.00577323 -0.036018703 -0.07882816 0.022587107 -0.07055509 0.17076865 -0.0710127 0.10475404
0.09131273 0.100974634 -0.11789187 0.14294451 -0.03643561 0.030807467 0.16254482 -0.14744996
-0.006277318 -0.08439669 -0.14055696 -0.045485627 -0.011870815 -0.100586995 0.05649479 0.111251965
0.14012237 0.02127957 -0.051707625 -0.061699804 -0.09954809 -0.116803765 0.03339108 -0.036921248
-0.0813644 0.06582587 -0.023045123 0.16576895 0.039696284 0.027388822 -0.093138315 -0.0058506294
-0.007276212 -0.07123355 0.11123058 0.14605178 0.124415204 0.046296608 0.022867287 -0.16937156

net_container.0.bias f4 [256]
00000000: bd33 523e 92f6 05be 8430 153d b0a2 313c
00000010: ebf8 233d 959d 403d f016 193e 6ad5 063e
00000020: 7dfa b63d 4beb 61bb 02b0 193d b287 3fbd
00000030: 7904 7d3d f87b 2abd 7fe8 0e3e c053 d1bd
00000040: 9204 df3d 2428 f0bd 43ee fc3d c5a1 6e3d
00000050: 516c af3c fb89 4e3d ec58 9cbd 0f43 323e
00000060: 9cef b63d ae02 473d 799e 64bd d1e6 50be
00000070: 7b5b 08be bb64 cdbd df28 abbd 765d f5bc
00000080: f249 043e 4e2c b93d 39a4 dd3c dfbd 3fbe
00000090: abb8 d73d 4c15 b6bc b774 c53d 573d d3bd
000000a0: 548f 30be 25d2 1c3e 06ad b8bd db45 56bd
000000b0: 4a7c 923c db42 85bd ce40 8dbb b201 edbd
000000c0: 4a68 e63d 9faa 5a3d 4dc9 80bd 406e 53bd
000000d0: b383 fdbd ced8 9ebd 621c 07be 9f77 7fbd
000000e0: 346b 173e a826 843c 76fc 0e3e a93d fa3d
000000f0: 4193 96bd 094d ca3d 7cdf 1f3e f911 a2bc
00000100: 9b13 303c 9cb1 233e d8bf c13d 109a 8abd
00000110: 38ef b13d 67d0 c53d 2dd8 ef3d 2356 e8bd
00000120: c6c6 0a3e b84a 213d 66d1 05bd b7b4 9d3d
00000130: c799 083e 69ab d4bc 35a0 1d3e ee5a af3d
00000140: bd77 16be f5a9 f1bd f998 ab3d 1304 d43d
00000150: 5b25 7138 ba47 fe3d eed8 c23d 596d 103e
00000160: e332 6dbd 429c 023e 1e1f 9bbd 8c53 c1bd
00000170: 8742 713d bc07 e9bd 6431 0abd 5fa0 0d3d
00000180: 12b4 773d aa60 283c 0484 2cbe 8a2b 9a3b
00000190: 319e b83d 945f 923d 3936 34be f414 d7bb
000001a0: c305 21bc 4264 773d 5f1f 5cbc c784 90bd
000001b0: d67a 14bd 3ebd 53bd c3f1 a23c 95bd a93d
000001c0: d291 bdbd 777f e0bd 3e42 d43d b6fa f63d
000001d0: 3732 27be 10e7 393d cf5b 3bbd 160d 663d
000001e0: 3cb9 7ebd f4d3 74bd 9e9f 333e 2673 34be
000001f0: fa57 8f3c 425b aebd 4aa6 b2bd 6417 093e
00000200: 5a44 c53d 4e2c 75be 8c65 093e 825a 58bd
00000210: be9a 39be 13ab 3fbd f221 b9bd b712 2b3b
00000220: e20d 5d3e e9fc 983d 14de bf3d 7943 4a3d
00000230: 84fd 023e c396 2ebe 0ee6 dfbc c9a4 10be
00000240: 5b8b 99bd 9937 cd3d 9333 32bd 1966 07be
00000250: 4d38 cabd 1214 21be 951e 31bd 59b1 893d
00000260: 7d68 3abd 19bf bd3c 2a55 0a3e a078 8bbd
00000270: 9a40 89bd 4cd1 e3bd a7a7 b0bd 7cbb e4bc
00000280: c511 acbd 315b e83d 226f e53d 2a80 b63c
00000290: e3c4 a33d 138f 82bd a467 e9bd 7e6f 063d
000002a0: 9b50 18be d65f 20be 1c7f dc3d 9ea6 81bd
000002b0: 9e42 2a3e ec6e 26be e4f3 1d3e fae8 213e
000002c0: 2c13 6fbd 204f 0abe f3cf b7bd 1702 0a3e
000002d0: a99b fcbd 5ed2 a53d 5d6e 9e3d 34e5 73bd
000002e0: a269 00be 318d 533d ef0b 4d3d d6b6 423d
000002f0: b572 7bbd 5dd6 c1bd 340e 433b 3e06 d0bd
00000300: 083f dfbc bfe3 7fbd ebb6 093e 8c3a 7b3d
00000310: 0b15 00be 66be 203d 6f66 fbbc d37a 573d
00000320: 3550 033c 53ae 9c3d 4185 693d 975d 1c3d
00000330: da15 fd3d 332d acbc 3d7f 1d3d 0c01 edbd
00000340: a1d9 09bd 4d34 3d3e 8a13 1ebc 1070 a63d
00000350: 877c 353e b4f4 c23d 7eab 02be 230f 783d
00000360: 3eb7 d73d d155 943d 0b36 1a3e 33ab d43d
00000370: de91 293c a8bb 583d 37c6 b73c 5c7b 10be
00000380: 81f5 f23d cc41 e4bd 9acd 84bd 8364 693d
00000390: d39e 9ebd 0134 9dbd 67f5 463e c289 a13c
000003a0: 7ddd eebd a095 0d3e b5ec ff3d 8593 cb3d
000003b0: 04d5 a53c 5c6d 353e 96f2 573d 1a24 ce3d
000003c0: 1d62 24bd 1e1b 88bd 0770 1b3e 866f c73c
000003d0: b37e f93c 55ef b23d 9c12 3abe 8f6a c83b
000003e0: 125c 003a 6ca0 15bc b93a 0f3e a3c2 083b
000003f0: e87b e4bd 38c8 893c b91c 5fbe 9446 2a3d
0.20527549 -0.1308234 0.03642322 0.01084201 0.04003231 0.047025282 0.14950156 0.13167349
0.089344956 -0.003447252 0.03752137 -0.04676027 0.061771844 -0.041622132 0.13955878 -0.10221052
0.108895436 -0.11726406 0.12350132 0.058259744 0.021413954 0.050424557 -0.07634148 0.17408393
0.089324206 0.04858654 -0.055815194 -0.2040055 -0.13316147 -0.100289784 -0.08357405 -0.029951792
0.12918833 0.090416536 0.027055847 -0.18724774 0.105332695 -0.022226952 0.09641402 -0.10314434
-0.17242175 0.15314539 -0.090173766 -0.052312713 0.017881531 -0.06506892 -0.004310704 -0.11572589
0.1125036 0.053385373 -0.06288395 -0.051618814 -0.12378635 -0.07756196 -0.13194421 -0.06236994
0.14786988 0.016131714 0.13963494 0.12218792 -0.07352305 0.098779745 0.15612596 -0.01978396
0.010746862 0.15985721 0.094604194 -0.06767666 0.086882055 0.0965889 0.11711154 -0.11344554
0.13552389 0.039377898 -0.0326704 0.07700484 0.13339911 -0.025960641 0.15393145 0.08562265
-0.14694114 -0.11799995 0.083787866 0.103523396 5.7493668e-05 0.124160245 0.09514032 0.14104213
-0.057909857 0.1275492 -0.075742945 -0.094397634 0.058901336 -0.11378428 -0.03373851 0.03457677
0.060474463 0.010276953 -0.16847235 0.0047048973 0.090145476 0.07147136 -0.1759881 -0.006563777
-0.009828034 0.060398348 -0.013435214 -0.07056575 -0.036249958 -0.051694147 0.019890672 0.08288113
-0.09256329 -0.10961812 0.10364197 0.12059538 -0.16327749 0.045386374 -0.045741852 0.056164823
-0.062188372 -0.059772447 0.17541358 -0.1762205 0.017498005 -0.085135 -0.08723123 0.13387829
0.09632178 -0.23942682 0.13417643 -0.05282069 -0.18125436 -0.04679401 -0.09039678 0.0026103684
0.21587327 0.07470114 0.0936853 0.049380753 0.12792021 -0.17049699 -0.027331378 -0.1412536
-0.07497283 0.1002037 -0.043506216 -0.13222541 -0.0987402 -0.15730312 -0.043242056 0.067232795
-0.045509804 0.023162412 0.1350905 -0.06810117 -0.06701775 -0.111239046 -0.08625727 -0.02792143
-0.08401827 0.113455184 0.112028375 0.02227791 0.079965375 -0.063749455 -0.11396721 0.03282117
-0.14874499 -0.15661559 0.10766432 -0.06330608 0.16626975 -0.16253251 0.15425068 0.1581153
-0.058367893 -0.13506746 -0.0897521 0.1347736 -0.12334377 0.08096765 0.07735894 -0.059544757
-0.12540296 0.051648322 0.05006021 0.047537647 -0.06138869 -0.09464715 0.0029763104 -0.101574406
-0.027251735 -0.062473055 0.13448684 0.06133513 -0.12508027 0.039244078 -0.030688493 0.05260737
0.008014728 0.07650437 0.057011846 0.03817519 0.123576835 -0.021017646 0.038451422 -0.11572465
-0.033654813 0.18476982 -0.009648213 0.08126843 0.17723285 0.0951933 -0.12760732 0.06056131
0.105329975 0.07242931 0.15059678 0.10384216 0.010349719 0.052913338 0.022433383 -0.14109558
0.118632324 -0.11145362 -0.06484528 0.05698062 -0.07745137 -0.076759346 0.19429551 0.019719008
-0.11663339 0.13826609 0.1249632 0.099402465 0.020243175 0.17717499 0.052721582 0.100654796
-0.04013263 -0.06645797 0.15179454 0.02434517 0.030455923 0.08737055 -0.18171161 0.0061162184
0.0004896532 -0.009132486 0.13987245 0.0020867966 -0.11156446 0.016819105 -0.217883 0.041571215

net_container.2.weight f4 [128, 256]
00000000: 223f 6a3d b7a2 c1bc fdd7 623a bc87 98bc
00000010: c33f d03c e618 eabc af8c d63c bb29 66bd
00000020: 0a17 fdbc 3d3a 6d3d f043 47bd 74c6 d1bc
00000030: 468f 133d a2ed 90bd d1d8 913c 9a50 14bc
00000040: 8319 07bd 0cd5 923c 603c 9e3b 7517 0a3d
00000050: 8971 47bd 416a 8abb 13ca 25bd 6d34 cfbd
00000060: 3c24 9ebc 94e5 033d dea5 35bd 504f a83d
00000070: f62a 823c edab 283c 170b 1bba bca1 1f3d
00000080: cae7 9cbd 3559 87bd e271 a5bd 4810 6f3d
00000090: 1e70 35bc 1413 933d bb54 dd3c cf5e 1a3d
000000a0: 7945 6d3d 4847 533d 2923 32bb 0ff0 1ebd
000000b0: ba55 2b3d 74e5 223d b67e 58bd c0aa a73d
000000c0: b994 233d 0b79 583c ac8c 823d 1caf fb3c
000000d0: fa35 2b3d 6b2b 19bd b661 cd3c 4cf8 7e3c
000000e0: ccf1 babd 1eb9 91bd 5a61 103d 3b8b cfbb
000000f0: 712f 443d 658b 763c 5c01 b13c f32b 153c
00000100: cef5 78bd c075 55bd 0f19 58bd 5b4a 94bd
00000110: 7927 9fbc c894 e53c 3291 f7bb 0ba5 40bc
00000120: 2f87 eb3c e738 f5bc 735f 623c 6583 933d
00000130: 1ffe b8bc b16c 05bd 4ef1 083c a4a5 663d
00000140: e543 9b3d 9681 9b3d 904f 28bd fdd6 233d
00000150: 4a6f d23b b326 1f3d 95f1 e3bc 3415 dcbd
00000160: 80b1 203d c793 18bd 71b3 19bd 63be 88bc
00000170: d980 e2bc 5d25 173d a984 6abd 07f7 16bd
00000180: 747e 81bc 6973 47bd d276 8d3d 60fb 2ebb
00000190: d54d 66bc dc06 40bd d88a 1cbc 8a8f 82bb
000001a0: 148b d73c 1cb5 68bd 5981 f4bc f367 4c3c
000001b0: fea6 a43d 6bf2 9d3d 7279 b4bb df63 7fbd
000001c0: eb04 a23d 18c4 a43c 7ddc 6abd 15c0 8cbd
000001d0: b22b 9fbc c014 09bd 550a 5b3c 371a 2f3d
000001e0: 4bf9 0bbd b2ab 1d3d e163 44bd d2a8 773d
000001f0: a76c 3d3d 55e1 863d 3ec2 64bb 9fe6 8bbd
00000200: 53ea 493c 3a80 363d 0946 95bd 6d1e 01bd
00000210: d3c1 383d 0592 ef3c 1700 953d 78b5 cb3c
00000220: 7add 803d 6a08 11bc 14da 7e3c dcba b83d
00000230: 1d64 09bd d698 933c 743c 64bd 7402 1e3d
00000240: 5237 2f3b 5140 83bd 52a5 663c e2ce 4a3d
00000250: 7d5c 20bd 320e 2dbd 9eb5 af3d cb0a 3ebd
00000260: 88dc 74bd 5f80 513d 9869 bfbd 1774 993d
00000270: 0b87 9dbc a825 9c3c bf19 143d 9743 92bd
00000280: af66 7e3d 703b efbc c332 acbd ded3 a4bd
00000290: 5e00 713c 4aba 7fbc 631b a3bd e982 4fbd
000002a0: 85e8 293d 5af4 423d 1623 b6bb c675 9e3d
000002b0: 279e fabc 910f d23b 937f 513d b702 a1bb
000002c0: 4251 2cbc a69e c63b b41d 4b3d e124 86bd
000002d0: cb7b 42bd 48ae d0bd 7fee bc3c d134 bebb
000002e0: ea74 8dbc 93a2 1d3d 0d3b f2bc 57a4 283c
000002f0: 5e6d 02bd 4324 82bc 0938 ccbc 604c a43d
00000300: 014f 30bb c635 7cbd 5f8e 58bd aa4c 0cbd
00000310: 2692 84bd 301b 873d ab38 823d 5273 37bd
00000320: 9227 20bc c57f c13c aee9 8dbd b75d 90bd
00000330: ea7c 4b3c 3f75 f43c 43c6 a13d bce3 3bbd
00000340: 972c cfbc 6ec8 a6bd 6229 2ebc db8b 77bd
00000350: 3bf6 9cbd 4776 2dbd 4873 ff3c d23f 62bd
00000360: 59c9 d23b 3580 12bc c2fd 1abd baa3 61bc
00000370: c0ec a53c 1ee9 a33c 3ff7 a3bc e894 b13c
00000380: 1ee8 0cbd 8081 673d 6fda f23c 12ea 8d3d
00000390: 3367 683d 01b8 43bd 8cb8 a63c 6114 a73d
000003a0: eab1 28bd 72d2 97bc ce94 adbd 2be9 81bd
000003b0: 2ed5 663d 6029 4abd 96f6 b2bc 24cb 7c3c
000003c0: 3b18 cfbc 1943 d33c d7b8 e23c 61de 67bc
000003d0: ad6e 61bd 0549 733d 41da 773d 4120 f3ba
000003e0: 363f 193d a70b 54bc 5620 b9bd 11e0 56bd
000003f0: e2ac 5cbc 773b 20bd b9fc 473d 931e e1bb
0.057189114 -0.023637159 0.00086534006 -0.01861941 0.025421029 -0.028576326 0.02619013 -0.05619214
-0.030894775 0.05791687 -0.048648775 -0.025607325 0.036025308 -0.07076575 0.017803581 -0.00905242
-0.032983314 0.017923854 0.0048289746 0.033713777 -0.04869226 -0.0042240922 -0.040475916 -0.10117421
-0.019304387 0.032201365 -0.044347636 0.08218253 0.015889626 0.010294897 -0.0005914433 0.0389726
-0.07661398 -0.06608812 -0.08078362 0.058365136 -0.011074094 0.07181373 0.027017942 0.037688073
0.057927582 0.05158165 -0.0027181602 -0.038803156 0.041829802 0.039769605 -0.052855216 0.08186865
0.039936755 0.013212453 0.06374487 0.030723147 0.041799523 -0.037394922 0.025071006 0.015562128
-0.0912815 -0.071153864 0.03524909 -0.0063337362 0.047896806 0.015047883 0.021607094 0.009104717
-0.060781293 -0.05211425 -0.052758273 -0.07240745 -0.019428002 0.028025046 -0.0075551504 -0.011758099
0.028750984 -0.02993436 0.013816702 0.07202796 -0.022582112 -0.03257436 0.008358313 0.05631031
0.07581309 0.07593076 -0.0410915 0.03999995 0.006421958 0.038855266 -0.027825156 -0.10746232
0.039231777 -0.037250306 -0.037524644 -0.016692346 -0.02764933 0.036900867 -0.05725542 -0.036856677
-0.015807368 -0.048694048 0.06907429 -0.0026700124 -0.014056643 -0.04688154 -0.009554587 -0.0039843963
0.026311435 -0.056813344 -0.029846834 0.012475955 0.08039664 0.07712253 -0.0055076415 -0.062351104
0.07911094 0.020113036 -0.05733918 -0.06872574 -0.019430015 -0.033467054 0.013369163 0.04274961
-0.03417329 0.03849382 -0.047946814 0.060463734 0.046246197 0.065859474 -0.0034905816 -0.06831097
0.012323934 0.04455588 -0.07288749 -0.031523157 0.04510672 0.029244432 0.07275408 0.024866804
0.06292243 -0.008852104 0.015554924 0.090200156 -0.03354274 0.018017214 -0.055721715 0.03857656
0.0026735854 -0.06408752 0.014077501 0.049513705 -0.039150704 -0.042249866 0.085795626 -0.04639701
-0.059780627 0.051147815 -0.09346312 0.074928455 -0.019229433 0.019060925 0.036157366 -0.07141798
0.062109645 -0.029203147 -0.084081195 -0.08048223 0.01470956 -0.01560838 -0.07964208 -0.050661955
0.041481514 0.047596313 -0.005558382 0.07737307 -0.030592991 0.006410547 0.051147055 -0.0049136537
-0.01051742 0.006061393 0.049588874 -0.06550003 -0.04748134 -0.101894915 0.023062943 -0.005804636
-0.017267663 0.03848512 -0.029569173 0.010293088 -0.031842582 -0.015886432 -0.024929063 0.0802238
-0.0026902559 -0.06157472 -0.05287015 -0.0342528 -0.06473188 0.065969825 0.06358465 -0.044787712
-0.009775059 0.023620496 -0.069293365 -0.07049125 0.012419919 0.029841064 0.078991435 -0.04587148
-0.025289817 -0.08143698 -0.010629984 -0.06043611 -0.07664152 -0.042349126 0.0311829 -0.055236645
0.006432694 -0.0089417 -0.03783966 -0.013771946 0.020254493 0.02000862 -0.020015357 0.02167745
-0.03440105 0.056519985 0.029645173 0.06929411 0.056739043 -0.0477829 0.02035167 0.08158184
-0.041185297 -0.018532965 -0.08475648 -0.063433014 0.056355648 -0.049355865 -0.021846097 0.015429292
-0.025280109 0.02578883 0.02767603 -0.01415214 -0.05503719 0.05939581 0.060510878 -0.0018549041
0.0374138 -0.012942231 -0.09039371 -0.05245978 -0.013468953 -0.03911921 0.048825 -0.0068701

net_container.2.bias f4 [128]
00000000: e342 62bc 1e8f bebd fdbf c3bc 4d40 cbbd
00000010: 3656 c3bd 84fa 0e3d e696 8a3d e4be e5bc
00000020: 0cba 3c3d 2660 aabd fda3 973d 5222 0bbd
00000030: f815 d6bc 9dfa 223c f864 ddbc 854f 483d
00000040: ecb2 d7bd a844 6ebc 5ca8 963c aa08 913c
00000050: bf20 9e3d 87ae 933a fe07 a9bb 07c6 d5bc
00000060: 9905 8d3c 8ebd c13c a857 3a3c 00ec 05be
00000070: 0bf7 afbd 399c 83bd e75c c6bd 451f 14bd
00000080: 8754 99bc 28c3 01bc 9485 803d f588 0f3d
00000090: 58a5 d3bc 1238 a9bd 92af c5bc a8b1 e13b
000000a0: 194d f9bd f667 c9bc 7965 8dbd 4fa4 5b3d
000000b0: b30f 523d 832e 193d a404 5d3d 6f36 983d
000000c0: 4443 933d 1b68 293d 5d76 01bd fb94 ecbd
000000d0: f897 ff3b 9f89 a13d 538e b4bd 5586 40bd
000000e0: 9f0b 8f3d 2456 d1bd 1471 a33d e1d5 313d
000000f0: be05 eabd a9fe 6e3d a323 b2bc 2a24 46bd
00000100: c450 ce3c 19ce e3bc 9404 ea3d eb18 4bbd
00000110: 07f3 babb 7beb c4bc c3ce b3bd 00fe 7dbd
00000120: fc43 d9bd 5fb3 043d 67ee 13bd ff82 43bd
00000130: 8032 c3bb 1012 ee3c b3cd 9abd 1f13 743a
00000140: 9f9f 883b 4ec8 7abd 1eee b13d 362f 843b
00000150: e697 79bd 7c58 2abc bb09 c33d e62f 553d
00000160: fb3d 0e3d eb70 953c fff8 01be 2f12 153d
00000170: 312d c7bd 668b 703b 5f35 93bd 0bd4 263d
00000180: 67b0 8838 8ca8 403d 2f67 8ebd 3465 9cbc
00000190: 0e04 cbbd e26c 10bc d9c2 343c e8b4 af3d
000001a0: 7629 06bd 606f 98bc 42b0 86bc ab8c 50bd
000001b0: 56a8 c6bd 9c32 10bd 0279 c33d 6656 453d
000001c0: 80e0 9abd 4b14 c3bc 3178 4e3c 7eb4 5d3d
000001d0: 7be6 483d f95b 12bd 50e7 0abe 49e4 793c
000001e0: d18b 723d 3083 29bc 99b8 60bd 9cfd 11bd
000001f0: c4d4 963d 4bb0 a5bb cd43 b7bd fd92 6abd
-0.013809892 -0.09304641 -0.023895258 -0.09924374 -0.09537928 0.03490688 0.06767063 -0.028045125
0.046075866 -0.0831912 0.07404325 -0.033968277 -0.026133522 0.009947446 -0.027025685 0.04890396
-0.105321735 -0.014542736 0.018390827 0.017704327 0.077210896 0.0011267223 -0.0051584234 -0.026095403
0.017214583 0.023649957 0.011373438 -0.13078308 -0.085920416 -0.064262815 -0.096856885 -0.036162633
-0.018717064 -0.007920064 0.06275478 0.03504272 -0.025835678 -0.08262648 -0.02413157 0.0068876334
-0.12172908 -0.024585705 -0.0690412 0.053623494 0.051284503 0.037397873 0.053959504 0.074322574
0.07190564 0.04135905 -0.03160702 -0.11551853 0.0078000985 0.07887577 -0.08816209 -0.04700311
0.069846384 -0.10221508 0.07980552 0.04341686 -0.114268765 0.05834833 -0.021745509 -0.048374332
0.025184996 -0.027808236 0.114266545 -0.04958431 -0.0057052406 -0.024038067 -0.08779671 -0.06200981
-0.1060867 0.032397624 -0.03611603 -0.04773235 -0.005956948 0.029061347 -0.07558765 0.00093107106
0.004169419 -0.06122618 0.086879954 0.0040339483 -0.060935877 -0.010397073 0.0952334 0.052047633
0.034727078 0.01824232 -0.1269264 0.036394294 -0.097254165 0.0036704182 -0.07187914 0.040729564
6.517843e-05 0.04703574 -0.069532745 -0.019091226 -0.09912883 -0.008815022 0.011032783 0.08579427
-0.032754384 -0.018607795 -0.016441468 -0.0509154 -0.09700076 -0.035204515 0.09544565 0.0481781
-0.07562351 -0.023813387 0.012601898 0.05412721 0.04904793 -0.035732243 -0.13564801 0.015252181
0.05921537 -0.010346219 -0.054863546 -0.03564225 0.073648006 -0.005056416 -0.08948479 -0.057269085

net_container.4.weight f4 [64, 128]
00000000: 294a 693c 1bab 803d b00b 95bd 6a19 0dbd
00000010: 4582 0b3a 27a4 8ebd 00ce 8a3c 8b38 793d
00000020: 8328 72bc 9283 4dbd f858 5dbd eef0 223c
00000030: 77b5 a23d 47cf 58bd 001e 97bc b034 e8bc
00000040: 2f09 c7bc 6a82 0cbd 564f 303a bbcb 4f3d
00000050: 03f9 c0bd 2755 d0bd 59b0 fa3d 85ed afbd
00000060: b6c1 69bb 54a4 a23d dd2d eb3c 130f 6dbc
00000070: da5b a23d b714 013d 88e2 05bd 9a2d 063d
00000080: fd1a 623b 27a4 d0bc 66e5 d4bd a1ae bfbd
00000090: 1a7d 69bc 6101 8fbc 518e 9c3c a3e7 89bc
000000a0: 9e23 9ebc ad82 99bc 193d 373d 810d 97bc
000000b0: a3a3 6a3b e4e7 2c3c a706 bdbd b03f 0f3d
000000c0: 4c68 4fbd dccb 80bd 6e60 983d 18b8 7c3d
000000d0: a222 923d 68c2 54bd ae09 413d adc4 6bbc
000000e0: fd99 823d 46b8 8ebc 2ff2 163d 691d d23b
000000f0: a0be 853d 3e15 d5bb 112b fbbc e5f5 c73b
00000100: 62dd 6bbd 43d8 41bd b8f9 79bd c24f 8dbd
00000110: 33c8 a23c 2152 dc3d 7f4a b1bc 430e c63d
00000120: 1bab 893d c78d 8ebc ec11 adbd 80c8 0dbd
00000130: 5c0e cbbc 7737 ad3c cea0 ec3d f969 70bd
00000140: c69f 3bbd 61be b13a 05f3 5dbd d35a 99bd
00000150: 1dcc 3b3c ce93 a83d 8501 d8bd 30e6 333d
00000160: 259c 303d b83f 273b 6cd9 593d e1d9 c0bd
00000170: b8c6 663d fb95 46bd 3204 b9bd 931c e7bd
00000180: 5935 69bd fcfe 973d 4771 953c bc02 cd3d
00000190: c7ee 663d bd9c 2dbc 92e6 193d adbb 42bc
000001a0: d2cf 9abb 28d8 683c 2f38 9c3d a7eb a7bd
000001b0: cd4a 37bd 740d 9bbd 979e 2d3b c2b4 833d
000001c0: 39d9 0fbd 8b81 9b3a 8447 2f3d 6624 043d
000001d0: 75dd f0bc c112 6b3d 63eb e2bc c576 9fbd
000001e0: f86c a43c 0dfc c1bd 22c4 ecb9 a3cb 653d
000001f0: 22b8 50bd 596e 9f3c 9890 d33d 086f d4bc
00000200: 2a0f e13d 3ce3 9fbd 71e7 72bd a5c7 483d
00000210: e2a0 9f3d 7142 5dbd 1f2b b8bc 5918 91bd
00000220: 91f7 afbd e11b a9bd 931e 663d 4a71 5bbd
00000230: 10f6 be3a 2235 b63c f2f0 bf3d 19b7 98bd
00000240: 451f 30bc 5a4a 8bbd 31e2 66bd 94e9 583d
00000250: f953 58bc 0e9f 04bc 4069 983d 668e 3f3d
00000260: dad4 873c ff77 8bbc 476b 963c 1491 1cbd
00000270: 182a 353d 237f 99bd de56 463d 331a 653d
00000280: 6be4 5b3d d2bb 733c 2463 dfbc 4510 9eb9
00000290: d297 21bd 7a63 07bd e40a 91bc 37e4 7abd
000002a0: 4808 bd3c 1e5b 00bd a6ac f5bd cd0a 923c
000002b0: e2c0 11bd 3642 e33c e0a3 a1bd 9293 8c3c
000002c0: 2ceb a9bd 2eea ddbd 193c 963c 053f 893d
000002d0: c093 e8bd 96c9 a93c d2da a7bd f32e 83bd
000002e0: 2c3f 6a3c da89 e63c 1c38 963c 1c44 5ebd
000002f0: e01a 693d 05b4 5a3d 0fed 6c3d 8699 adbd
00000300: 6968 ecbd ad66 bfbd 6ab3 493d 0554 5a3d
00000310: 1413 103d cf53 da3c 23f7 9abd 3dfc 37bd
00000320: 7fcd b53d 6251 19bc 409e 373d adab 733d
00000330: 4c1e 0abd 1fbc aabd a66b 9dbd 056e e7bc
00000340: c5d8 bb3a 5c56 94bd 947f 18bd f6c1 acbc
00000350: f778 97ba e269 ca3c 0fd6 e0bd 4afa 7fbd
00000360: dbd6 853d c5d0 e7bd 68ed 803c f9ea 59bd
00000370: bf43 a83c 174e 713b ab7a 3d3d 57bb e43c
00000380: 1ae9 393d c183 4fbd f24c 213d 8bce 523c
00000390: 7591 a53d 9ecc 30bd 1216 2a3d a209 8b3d
000003a0: a548 c63c 448a 1abd d4a0 57bd ace1 d73b
000003b0: 03f9 d03c 5597 a4bd a0e3 90bd d0fa e8bd
000003c0: 7ed8 87bb a18d e83d a326 493d 9cd9 d63b
000003d0: d1b0 eb3d 02a2 95bd 9c88 a43d ccad ed3c
000003e0: 9ed4 10bc 6d09 c6bc 7181 383d 79cc 4b3d
000003f0: a48e 093d 4b40 9bbc 67df c33c 5c0c 813d
0.014238873 0.06282636 -0.0727762 -0.034448065 0.0005321841 -0.06964903 0.016943932 0.06084494
-0.014780167 -0.050174303 -0.054039925 0.009945137 0.07944768 -0.05293205 -0.018446922 -0.028345436
-0.024296371 -0.03430406 0.0006725689 0.050731402 -0.09422495 -0.101724915 0.12240667 -0.08590225
-0.003566844 0.07941499 0.028708393 -0.014468926 0.079276755 0.031513896 -0.03268674 0.032758333
0.003450095 -0.025468899 -0.10395317 -0.0935948 -0.014251018 -0.017456712 0.01911083 -0.016834086
-0.019304093 -0.018739069 0.044736 -0.018439056 0.0035803101 0.010553334 -0.092297845 0.034972847
-0.050636575 -0.06288883 0.074402675 0.061699003 0.07135512 -0.051943213 0.047128372 -0.014390153
0.06377027 -0.017421853 0.036852058 0.0064121974 0.065304995 -0.0065027764 -0.030660184 0.006102311
-0.057584174 -0.047325384 -0.061029166 -0.06899978 0.019870853 0.10757852 -0.021641968 0.09670689
0.06722089 -0.01740159 -0.08450684 -0.03461504 -0.02478712 0.021144612 0.115541086 -0.058694813
-0.04580667 0.0013560766 -0.05418684 -0.074880265 0.011462239 0.082313165 -0.10547165 0.043920696
0.04311766 0.0025520157 0.053185865 -0.09416557 0.056341857 -0.048482876 -0.09034003 -0.11284747
-0.056935642 0.07421681 0.018242491 0.10010287 0.05638006 -0.010596451 0.037573405 -0.011885566
-0.004724481 0.014211692 0.07627904 -0.08199244 -0.04474907 -0.07570925 0.0026492232 0.06430961
-0.03511927 0.0011864168 0.042792812 0.032261275 -0.029402474 0.057390932 -0.027700132 -0.07786325
0.020071492 -0.09471903 -0.00045159558 0.056102406 -0.050956853 0.019461798 0.103303134 -0.02593185
0.109892204 -0.078070134 -0.05930275 0.04901852 0.07794358 -0.05401844 -0.0224815 -0.07084722
-0.085921414 -0.082572706 0.0561815 -0.053574838 0.0014569182 0.022242133 0.093721285 -0.07456798
-0.010749643 -0.06801291 -0.056368057 0.052957132 -0.013203614 -0.008094562 0.0744195 0.04676666
0.016580988 -0.017024992 0.0183617 -0.038224295 0.044229597 -0.074949525 0.048422687 0.05593319
0.053684633 0.014876323 -0.027268954 -0.0003014823 -0.039451428 -0.033053853 -0.017705388 -0.0612528
0.023075238 -0.031336896 -0.11995821 0.017827416 -0.035584338 0.027741533 -0.07892585 0.01716021
-0.082968086 -0.10835682 0.018339204 0.06701473 -0.11356306 0.020726006 -0.081960335 -0.06405439
0.014297288 0.028141905 0.018337302 -0.054264173 0.056910396 0.053394336 0.057843264 -0.08476548
-0.11543352 -0.09345756 0.04924337 0.053302784 0.035174444 0.026651291 -0.07566669 -0.044918288
0.08877086 -0.009357782 0.044828653 0.059489895 -0.0337203 -0.083366625 -0.07686548 -0.028250704
0.001433157 -0.07243034 -0.037231043 -0.021088582 -0.0011556436 0.024708692 -0.109783284 -0.062494554
0.06535121 -0.113191165 0.015738204 -0.053202603 0.020540116 0.0036820227 0.046259563 0.027921362
0.04538832 -0.05066276 0.03938002 0.0128666265 0.08084384 -0.04316389 0.041524954 0.06788947
0.024204561 -0.037729517 -0.052643612 0.0065881815 0.025509363 -0.08036677 -0.07074666 -0.11375964
-0.004145681 0.113551386 0.049109112 0.006556703 0.115083344 -0.07306291 0.08033869 0.029013537
-0.008839754 -0.024174416 0.04504532 0.049755547 0.0335833 -0.018951556 0.023910237 0.063011855

net_container.4.bias f4 [64]
00000000: 80ea dabd ba31 6bbd 9f7f ad3d c783 3a3c
00000010: 6631 9abd c23a 93bc c055 09bd f056 eabd
00000020: 2f35 febd aa23 a73d 78fb 963d f1d3 53bc
00000030: 5af7 de3c 5103 a9bd 7757 29bd 93dc cb3d
00000040: 6e55 6bba 71f3 393d 4658 ae3d 7248 d23d
00000050: ebad adbd 5e60 5a3c 4659 d2bd 9622 a83c
00000060: 7e4d 6a3d 313a a0bd f146 bd3c 23a9 03bd
00000070: 457b 91bd 4b61 52bb dc06 283b c478 8a3d
00000080: 509b 31bd 1ff1 e4bc f3c9 663d a3fa febb
00000090: 9768 e0bd f799 5a3d 3b32 593c 6806 66bb
000000a0: 6f1a 9a3c 71ca 003d a4a2 613a 96f4 2cbe
000000b0: 7e72 1bbd 751b 813b 570d 27bd 9fb7 96bd
000000c0: 4a5e 4e3d 63d0 123e 3326 c43d d766 20bb
000000d0: eee3 2cbd 8e47 d7bd 29b3 ddbd a0d1 bcbc
000000e0: a91d 283a 798f 0f3d d783 76bd 08ed 303d
000000f0: b61c 803d 3fdd 2abd 6d5a e1bd a926 a0bd
-0.106892586 -0.05742047 0.084716074 0.011383957 -0.07528953 -0.017972354 -0.033529043 -0.11442363
-0.12412488 0.08161099 0.073721826 -0.012928949 0.027217556 -0.08252586 -0.04134318 0.099541806
-0.00089772686 0.04539818 0.085129306 0.10267724 -0.08480438 0.01332864 -0.10270934 0.020524304
0.05720281 -0.07823599 0.023105117 -0.032143723 -0.0710359 -0.0032101448 0.0025638854 0.067613155
-0.04336101 -0.027947007 0.056344938 -0.007781343 -0.10957449 0.05336949 0.013256605 -0.0035099033
0.018811433 0.031443063 0.0008607304 -0.16890177 -0.037950985 0.0039400407 -0.040784206 -0.07359242
0.05038289 0.14337306 0.095775984 -0.002447536 -0.04220956 -0.10511695 -0.10825188 -0.023049176
0.0006413111 0.035048936 -0.060184326 0.0431948 0.06255476 -0.041714903 -0.110035755 -0.07819874

policy_layer.weight f4 [8, 64]
00000000: 2e59 0abd 2d96 433c 93b0 babc 847e afba
00000010: db9e fbbd 53b8 023e e96d cb3b 6ff8 42be
00000020: 735a c0b9 3dad c33d 8d9a afbd cba3 853d
00000030: 9b45 ef3d 52d8 ab3c 1e27 ab3c 913e f93d
00000040: b446 9cbc 43b4 6dbc bd69 f73d 16f5 e53c
00000050: 37f5 7f3d cee6 d03c 71eb ce3d b976 e9bd
00000060: f940 b2bc a3db 8d3b 5eed 343d f957 9e3c
00000070: 76d7 233e d7c4 a43d 1ed7 60bd e77c b53d
00000080: 51f3 c8bd 2730 35bc e867 713d dd13 e0bd
00000090: 8868 0e3e 840f c93d 42fd 3fbc 978a 873d
000000a0: 0954 92bc 90c5 4a3d 4595 d8bd 8b11 0d3e
000000b0: 19d1 b9bd 9c5f 0cbe c70f 683d fc9d 453d
000000c0: 3eb2 ab3c 3733 003d 4e40 d8bd e78b 193c
000000d0: 7cce 053c 59bf dc3d 7f7e 773d b513 843c
000000e0: 3d8d 95bd f7fd ad3d 29d0 1e3d 65b3 803d
000000f0: f86b ec3c 994d c83d ad65 253d 14ca f4bd
00000100: 3c36 d33d bcd4 a8bc 2f22 ecbd 7b8f 5d3c
00000110: 7bf5 2abc d5e2 a7bc adb7 d0bd 9678 903d
00000120: e25e c03d c0bb ccbd e2eb be3b 0c93 d23a
00000130: e5fc 0b3e cf39 3bbc 2d5e 49bb 4ef8 22bd
00000140: f9d5 b5bd 4cbb d93d 3de2 e13d a9fd e2bd
00000150: ef93 383e d675 5dbd 6dbe c93d dfc3 b63d
00000160: 6c6b 30bd 38ea 093e 190e 163e ab18 28bc
00000170: 7c8d 933c 886d 233e a6db b1bd f2b2 aabc
00000180: 1f69 253e 4249 fc3d b70e 9bbd e11e bebd
00000190: cfe7 0a3d 71be 41bc c519 c83c 517b da3d
000001a0: 41b2 c83c aeae 85bd c3a0 f43d 56ec e43d
000001b0: 2e17 d1bd 12ac 74bd f094 c13d 07a4 003e
000001c0: 40d5 0a3d ea81 21bc 1b01 72bc 06f3 f63c
000001d0: 78cd f5bd 7502 d93d 59e9 adbc 5fe9 6a3d
000001e0: d212 98bc e214 11be 9086 e8bb 87bb 1f3b
000001f0: 4fda 45bd f3a5 c7bd 1b7e 303d beb2 d1bd
00000200: e2be 10bd da9c d43d 8959 8a3d 3e2c e7bd
00000210: 298a e8bd b01a 1c3e 0b11 c23b 8f99 273c
00000220: 3bc0 54bd 4497 14bc 42d8 fabd 556a 74bd
00000230: a62c 07be 4b68 02be ef27 e4b9 3c0d cfbd
00000240: e576 a4ba a7ba b5bc b29f 0f3e 7079 69bd
00000250: 6f53 b63d 7dd7 483d 8fe1 813d 9944 f63d
00000260: 055d dbbc dc5d 1d3e db6a 183e b00a ee3c
00000270: 6d33 8b3d ba8e 30bc 055c 32bd 8703 95bd
00000280: 5239 bd3d 6548 ad3d b500 4cbd 1525 a3bd
00000290: de1e 213e bdd7 dabd 63b7 153e 635e fd3c
000002a0: a02c 5dbd 9d94 9bbd 0f0b 84bd dc42 15b8
000002b0: 8a78 693c c956 ef3d fb0b e8bc 690d 883d
000002c0: 24e7 acbb a736 ca3c bc0d c8bd 4fa5 a9bd
000002d0: 33e5 7a3c e52c 643d 0fa2 cc3c 6af4 173e
000002e0: 7c3d 0dbe 879d 02be 5424 c2bd 24e7 183e
000002f0: 5ebf fabd 06a4 543d 4884 7fbd 6b5b 193d
00000300: 0497 073d c248 f5bc 203c 7d3c 8f74 62bd
00000310: f141 b33d 7e79 1a3e ceb4 8dbd b466 1abe
00000320: 4ebc ebbd ba37 c8bd 3752 7c3c a5f2 8e3c
00000330: 4be9 98bd b5db b53d a245 483c df30 14be
00000340: 2152 00be 4007 ec3d f8d0 21bd eaba 933d
00000350: 24ee e03d 4755 893d 5dff ca3d a412 d83c
00000360: 7cd1 bdbd d2a9 b6bc 335b 053d 0497 c3bd
00000370: 0fee e8bc 6311 abbd 01fb 10bd 432c 953d
00000380: b39e f23d 411b 6c3d 5080 48bd 87a4 c83c
00000390: 483f 6e3c 4eb4 813d 3bed a63d b6e8 173e
000003a0: 7698 fa3b a491 0e3d 4d61 233d 6e32 ff3d
000003b0: 4b9e 16be 6fd8 303c 5346 b0bd 39ef da3c
000003c0: 4e15 19be e1a2 a4bd 3f2e 5fbd f648 61bd
000003d0: c8ae 183e 0641 2e3d 4a92 42bd 9291 0abd
000003e0: cd70 153d f3be b63c f4b2 4c3d a0c9 093e
000003f0: 8ea5 f03b 6b3e c63c 6fdf f3bc 29b8 c53d
-0.033776455 0.01193766 -0.022789275 -0.0013389145 -0.12286159 0.12765627 0.0062081707 -0.19040082
-0.00036688484 0.09554527 -0.085744 0.06525382 0.11683198 0.020977173 0.020892676 0.12170137
-0.019076683 -0.01450831 0.12080715 0.028070968 0.062489714 0.025500681 0.10103501 -0.11399598
-0.021759497 0.0043291613 0.044171683 0.019329058 0.1600016 0.08045357 -0.05489265 0.08861714
-0.09812034 -0.011058844 0.058936983 -0.109412886 0.13907063 0.098174125 -0.011718096 0.06618231
-0.017862337 0.049504817 -0.10575346 0.13776223 -0.09073085 -0.13708347 0.05665567 0.04824637
0.020959016 0.031298842 -0.1055914 0.009371734 0.0081669055 0.10778684 0.06042337 0.016122678
-0.0730233 0.084957056 0.038772736 0.06284217 0.028860077 0.097804256 0.04038017 -0.11952606
0.10313079 -0.020609252 -0.115299575 0.013522978 -0.010434504 -0.020493904 -0.101912834 0.0705425
0.093930975 -0.09996748 0.0058264593 0.0016065552 0.1367069 -0.011427357 -0.00307263 -0.039787583
-0.08878703 0.10631427 0.1102948 -0.11083538 0.18025182 -0.054067455 0.09850774 0.08924078
-0.043071195 0.13468254 0.14653815 -0.010259788 0.018011801 0.15959752 -0.08684473 -0.02083728
0.16153382 0.1231866 -0.07571166 -0.092832334 0.033912476 -0.01182519 0.02442635 0.10668052
0.02449906 -0.06527458 0.11944725 0.1117789 -0.10209499 -0.05973441 0.09452236 0.12562571
0.033894777 -0.009857634 -0.014770771 0.03014518 -0.12002081 0.10596172 -0.021229433 0.057351466
-0.018563662 -0.14168122 -0.007096119 0.002437325 -0.0483039 -0.09748449 0.043089014 -0.102391705
-0.03533829 0.103814796 0.06755359 -0.112877354 -0.11354477 0.15244555 0.005922442 0.010229482
-0.051941138 -0.009069268 -0.12248279 -0.05967172 -0.13200626 -0.12735097 -0.00043517302 -0.10109946
-0.001254764 -0.02218373 0.14025763 -0.057000577 0.089026324 0.04903363 0.0634185 0.12024803
-0.026777754 0.15367836 0.14884512 0.02905783 0.06796918 -0.010776216 -0.043544788 -0.072760634
0.092394486 0.08461074 -0.04980536 -0.07966057 0.15734431 -0.1068568 0.14620738 0.030928796
-0.053997636 -0.07596705 -0.06447422 -3.5586636e-05 0.01424993 0.11686475 -0.028326025 0.06643183
-0.0052765775 0.024684263 -0.097682446 -0.08283483 0.015313434 0.055706877 0.02497962 0.1483933
-0.13792986 -0.12755404 -0.09479585 0.14931923 -0.12243532 0.051914237 -0.062382013 0.0374407
0.033103004 -0.02994192 0.015456229 -0.05528694 0.08752812 0.15085408 -0.069192514 -0.1507824
-0.11510526 -0.09776254 0.015400461 0.017449686 -0.07466372 0.088797964 0.012223633 -0.14471768
-0.1253133 0.1152482 -0.03950593 0.072133854 0.10982922 0.067057185 0.09911988 0.026376076
-0.092684716 -0.022297774 0.032557677 -0.09550288 -0.028433828 -0.08352926 -0.035395626 0.07283833
0.11846676 0.05764318 -0.048950493 0.024492515 0.014541455 0.063332185 0.08150717 0.14834866
0.0076475693 0.034806862 0.039887715 0.124607906 -0.14708821 0.010793789 -0.08607163 0.026725398
-0.14949533 -0.08038879 -0.054487463 -0.05500122 0.14910424 0.04254248 -0.047502793 -0.033830233
0.03648453 0.022307849 0.04997535 0.1345582 0.0073439544 0.024199685 -0.029769627 0.096542664

policy_layer.bias f4 [8]
00000000: 7750 dbbc a87e d1bd 67ec 8dbd d0ba 64bd
00000010: 12ee 98bb 3316 acbd 4cee f2bd 37cc 813d
-0.026771767 -0.10229236 -0.06929856 -0.05584222 -0.004667052 -0.08402672 -0.11861858 0.06337779

value_layer.weight f4 [1, 64]
00000000: bacf 083c a003 0e3d 5691 cbbb dc7e 31bb
00000010: c7f1 adbd 16a5 093d 87bd d3bc 241d bbba
00000020: b826 b6bc a1f0 0c3d 9212 9ebd b10e 09bd
00000030: a3a6 233d 93f1 03bd 2762 04bd 0c86 4ebd
00000040: 31eb 803b ea2a 79bd d361 ef3d acff 0a3d
00000050: a60b 89bd 7832 843d b6d5 673d b580 f73d
00000060: e462 453d 1076 e53d 0f01 5fbd 42f9 bfbd
00000070: 885b e0bc aba0 da3a 6656 c73d 9e16 943d
00000080: cea9 943c 33b7 d33c 5d03 743d 6769 3b3c
00000090: 122d 6bbd a419 6f3c 9692 34bd 9635 e3bc
000000a0: 9dfb eabb f520 843d 3d58 0cbd eaae 07bd
000000b0: 6358 ae3d 4954 63bd 75cc 8f3d 93f2 adbc
000000c0: 8b31 a5bd 3402 b53c 46cc 973d 6f54 a43a
000000d0: ff78 4cbd e25a 14bd 8c72 afbd 59d9 92bd
000000e0: b166 69bd 9c15 12bc 7d8d 943c 0826 363c
000000f0: fed6 0f3d 501e 883d 7d3d c6bd f7bf 81bd
0.008350307 0.034671426 -0.0062123938 -0.002708367 -0.08493381 0.033604704 -0.02584721 -0.0014275652
-0.02223526 0.03440917 -0.07718386 -0.033461276 0.03995384 -0.032212805 -0.032320168 -0.050420806
0.003934287 -0.06083194 0.1168858 0.033935234 -0.06691675 0.06454939 0.056600295 0.12085096
0.048190013 0.11204159 -0.05444437 -0.09373714 -0.027387396 0.0016679963 0.09733276 0.072308764
0.018147375 0.025844192 0.05957352 0.011438704 -0.05741603 0.014593516 -0.044085108 -0.027735513
-0.007171108 0.064515986 -0.034263838 -0.033125795 0.08512952 -0.055500302 0.07021419 -0.021233832
-0.0806609 0.022095777 0.07412009 0.001253737 -0.04992008 -0.036219485 -0.0856677 -0.07170362
-0.0569827 -0.008916285 0.018133873 0.011117466 0.035117142 0.06646407 -0.09679697 -0.063354425

log_std_parameter f4 [8]
00000000: 468e 42c0 e761 2cc0 125c 3cc0 bc50 3dc0
00000010: a8ed 62c0 45a9 4bc0 9da0 6bc0 9d92 27c0
-3.0399337 -2.6934755 -2.9431195 -2.9580526 -3.5457554 -3.1822064 -3.681678 -2.6183236

net_container.0.weight f4 [256, 45]
00000000: 9140 813c 2bb4 5abe b0b8 963b 53ed 9cbd
00000010: c7bc 09be 517d 383d 54cf ca3d 28bf 1abc
00000020: d7ce a33c 1b82 c4bd faa5 3ebd 8332 c53d
00000030: ccfc 803d 79b4 31be 0153 11bd 82fa a4bd
00000040: 18b5 fd3d 4b77 bbbd 36d0 a8bb f481 ccbd
00000050: c1f0 1abe fe5e f43d 194d 0f3e 292a c3bd
00000060: 3692 9abd 2df2 60bb 050d d2bd 6314 1b3c
00000070: 4340 213e 33c8 c3bd 4942 3dbe fb20 ae3c
00000080: 4611 a23d 09d4 f5bd f72b c5bd c4c6 0c3e
00000090: dfa7 77bd 91bb 8abd 5873 16be f759 c13d
000000a0: e52a 683d e54c d0bb f0f2 f43d 3760 0e3d
000000b0: 835d aa3d bcef 713d 339c c3bd 848e 613d
000000c0: 7d05 18be b81e 673d aafa e6bd d3d8 263e
000000d0: 0c5d 123e eeb1 e03d 8f7d 2dbd 2322 d4bd
000000e0: 4d62 b43d 4836 04bd 1f50 c9bd 0a45 403e
000000f0: 4245 6fbc 1100 9dbd fbb8 19be 08cf a4bd
00000100: 2832 2d3a f719 0fbc 9964 03bc 437f 2bbd
00000110: 51f9 923d 11e1 8dbd 92ed 323c dc0f 8a3d
00000120: 70fc cebd 159f fcbd 8900 803e 5e5f 72bd
00000130: 0a5b 9abc 7672 b1bb ac05 9f3d d950 7fbc
00000140: 82cf d53d 4031 70bb ccf2 393d 4593 4e3d
00000150: 5a4d f93d ec6b 89bd 92a6 95bd 025c 82bd
00000160: 5cf7 b03d 30e4 bebd 4ae1 1e3e ec12 123e
00000170: 1bb6 47bd a55c e43d 57f5 2f3d 5f78 e0bd
00000180: 7f20 82bb 6a3e af3d 13ef 0cbe 0279 173d
00000190: 9888 c4bd 2752 263e 1cb2 03bd cc30 e1bd
000001a0: 0473 4cbd 9ef1 9fbd a1c7 963c e883 213e
000001b0: bd5d cd3d 369b d13d 1d90 e0bd 647a aebd
000001c0: 15fc ea3d de4b 613d 9965 943d 7a11 b53d
000001d0: 9135 173e 494b 72bc bf09 f33d fcef 233d
000001e0: d9dc 80bd fb30 193c 2fcc dd3d 6eb8 263c
000001f0: 4f65 a7bd 1b41 1cbd 136f e73d 6192 083c
00000200: 82cb bf3d 3955 4abd e1c8 f43d 6586 8cbd
00000210: 05cb 9ebd a9cc 9abd d6c8 bfbd fd9f 26be
00000220: 515c b5bc 2003 7b3d 191e 2a3d 6319 363e
00000230: b419 873a 7fcc c73c bf24 c73b a641 65be
00000240: 70e4 b8bd 4cb7 11be 6172 0f3e 58ce 143e
00000250: 810d 04bc cfed 30be 095a 343d 3523 263d
00000260: 78df 243e 1ffc 17be 7e57 23bd 1819 213d
00000270: b19c c03d 4c04 73bc d612 b43d 19d9 fcbd
00000280: 3dcf 283c 93be 143c 9f61 e8bc bfe1 493d
00000290: a0cf 823d 1927 ec3d a8a2 0fbe 61de 73bd
000002a0: 7f08 c73d 7d64 f63d 471e d03d f6be e93d
000002b0: 10f7 513d 55c7 a0bd cabe fc3a 7710 3f3e
000002c0: cf73 d9bc 1bc7 dd3b 676c cebd 5ad6 93bd
000002d0: 96d3 5ebd fdc4 653d ba4d 413c 0817 8f3d
000002e0: 2509 40be a80a 31bd 0378 483d a848 0cbd
000002f0: ecce 333d 368f f23d 82d3 fe3c 45ba d7bd
00000300: bedf 053d 0e22 3c3e 52d0 76bd e116 e7bb
00000310: 140e ec3d 7dd9 c33c 05cc f93c 9bdb 03be
00000320: 5533 203e 6f45 2aba a298 abbc 4765 203c
00000330: 3d9e e6bd f4e1 ea3d 9db0 87bd 4515 5cbd
00000340: 5d2d bd3b 5988 13bd a970 a1bd 9908 b93c
00000350: 307f 90bd fadd 2e3e 1b6f 91bd 4989 d63d
00000360: 2b02 bb3d cacb ce3d 4b71 f1bd 0c60 123e
00000370: 823d 15bd f15f fc3c 2672 263e 1ffd 16be
00000380: f6b1 cdbb 2cd8 acbd 2aee 0fbe 234f 3abd
00000390: cf7d 42bc 8e00 cebd 1567 673d 12d8 e33d
000003a0: 3d7c 0f3e 7e52 ae3c 60cb 53bd efb8 7cbd
000003b0: dedf cbbd d036 efbd 16c5 083d bc3a 17bd
000003c0: 61a2 a6bd b7cf 863d 20c9 bcbc 56bf 293e
000003d0: 9298 223d 865e e03c 4dbf bebd a3b6 bfbb
000003e0: 4a6d eebb e5e2 91bd dccc e33d 998e 153e
000003f0: 66cd fe3d 83a1 3d3d 2d54 bb3c bd6f 2dbe
0.015777858 -0.21357791 0.004599653 -0.076624535 -0.13450919 0.045041386 0.09902826 -0.009444989
0.01999609 -0.09595128 -0.046545006 0.09628775 0.06298217 -0.17354001 -0.03547955 -0.08055593
0.123880565 -0.09153613 -0.005151774 -0.09985724 -0.15130903 0.11932181 0.13994254 -0.09529526
-0.07547419 -0.0034324036 -0.102563895 0.00946531 0.1574717 -0.09559669 -0.18482317 0.02125596
0.07913451 -0.12003333 -0.09627526 0.13747698 -0.06046283 -0.06774057 -0.14692438 0.094409876
0.056681532 -0.006356823 0.11960399 0.034759726 0.08318617 0.05906652 -0.09551277 0.055067554
-0.14845844 0.05642578 -0.11278279 0.1629365 0.14293307 0.109714374 -0.04235607 -0.103580736
0.08807812 -0.03227833 -0.09829735 0.18776336 -0.014603915 -0.07666028 -0.1501197 -0.080473006
0.00066069 -0.008734218 -0.00801959 -0.041869413 0.071764596 -0.06927694 0.010920899 0.06741306
-0.101067424 -0.1233503 0.25000408 -0.05917298 -0.018842239 -0.005415256 0.07764754 -0.01558324
0.104399696 -0.003665045 0.045397565 0.050433416 0.12172957 -0.067100376 -0.073071614 -0.06365205
0.0864093 -0.09320867 0.15515628 0.1426503 -0.048757654 0.11150483 0.042958584 -0.10960459
-0.003971159 0.085568264 -0.13763075 0.036980636 -0.09596366 0.16242276 -0.03215228 -0.109956354
-0.049914375 -0.07809757 0.018405737 0.15772974 0.10027645 0.10234682 -0.109649874 -0.08519438
0.11473862 0.055003993 0.07245941 0.08841224 0.14766528 -0.014788457 0.11867093 0.04002379
-0.06292123 0.009350057 0.108299606 0.010175807 -0.0817362 -0.038148027 0.113004826 0.008335681
0.09364988 -0.04939768 0.11952377 -0.06861571 -0.07753567 -0.07558567 -0.09364478 -0.16271968
-0.022138746 0.061282277 0.04153261 0.17783122 0.0010307343 0.024389504 0.0060773785 -0.22388324
-0.09027946 -0.14230078 0.14008476 0.14531839 -0.00805986 -0.17278217 0.044031177 0.04056092
0.16100872 -0.1484227 -0.03987836 0.039330572 0.094048865 -0.014832567 0.08792655 -0.123460956
0.010303316 0.00907864 -0.028366862 0.049287554 0.063872576 0.11530895 -0.14026892 -0.05953825
0.097184174 0.12030885 0.10162025 0.11413376 0.051261008 -0.078505196 0.0019282934 0.18658625
-0.02654448 0.00676812 -0.1007927 -0.07218619 -0.054401003 0.056096066 0.011798317 0.06986815
-0.18753488 -0.043223053 0.048942577 -0.034248978 0.043898508 0.118437216 0.031106714 -0.10533575
0.03268408 0.18372366 -0.060257263 -0.007052288 0.11526123 0.023907417 0.030492792 -0.12876742
0.15644582 -0.0006495332 -0.020946804 0.009789771 -0.1126065 0.114688784 -0.06625483 -0.05373122
0.00577323 -0.036018703 -0.07882816 0.022587107 -0.07055509 0.17076865 -0.0710127 0.10475404
0.09131273 0.100974634 -0.11789187 0.14294451 -0.03643561 0.030807467 0.16254482 -0.14744996
-0.006277318 -0.08439669 -0.14055696 -0.045485627 -0.011870815 -0.100586995 0.05649479 0.111251965
0.14012237 0.02127957 -0.051707625 -0.061699804 -0.09954809 -0.116803765 0.03339108 -0.036921248
-0.0813644 0.06582587 -0.023045123 0.16576895 0.039696284 0.027388822 -0.093138315 -0.0058506294
-0.007276212 -0.07123355 0.11123058 0.14605178 0.124415204 0.046296608 0.022867287 -0.16937156
