CubeStackTask/logs/skrl/object_red_stack/2025-10-09_17-18-16_ppo_torch/checkpoints/best_agent.pt (torch, 876405 bytes, 46 tensors)

log_std_parameter f4 [8]
-3.3406074 -2.9480903 -3.2581089 -3.3482482 -3.9606285 -3.5704927 -4.1167064 -2.884846
00000000: 83cc 55c0 83ad 3cc0 db84 50c0 b349 56c0
00000010: f07a 7dc0 f482 64c0 0fbc 83c0 51a1 38c0

net_container.0.weight f4 [256, 45]
0.01586933 -0.21439984 0.0041455254 -0.07780075 -0.13534744 0.044418342 0.09998989 -0.008553635
0.019813878 -0.09672565 -0.046822697 0.09502464 0.062007133 -0.17379749 -0.034788784 -0.08191513
0.1228769 -0.09204655 -0.0055397176 -0.098647304 -0.15232451 0.12002619 0.14132787 -0.0952624
-0.07545838 -0.0032076195 -0.10634552 0.010419209 0.15628481 -0.092253074 -0.18129978 0.01678156
0.0765921 -0.116471946 -0.09719968 0.1362766 -0.059070546 -0.06201424 -0.14722778 0.09470758
0.057765577 -0.00686275 0.12311106 0.033401147 0.08418983 0.05933718 -0.09715403 0.05434361
-0.15018272 0.05367873 -0.11490772 0.16875118 0.14607537 0.1103354 -0.043406893 -0.1038991
0.08632259 -0.034656033 -0.10032125 0.19417657 -0.015122785 -0.07594057 -0.14930704 -0.08333851
-0.00029817378 -0.009878848 -0.008131208 -0.040471476 0.07699467 -0.070952624 0.008499674 0.062771365
-0.10062318 -0.122653104 0.25209066 -0.05527243 -0.027884722 -0.0109551195 0.084927425 -0.01573319
0.10499566 -0.0028938185 0.050619062 0.049606487 0.125147 -0.065106414 -0.07487086 -0.068319485
0.08589004 -0.093928374 0.15596583 0.14313543 -0.048934147 0.11172335 0.04415988 -0.10972612
-0.0072038504 0.08381862 -0.13735195 0.036122236 -0.096422285 0.16255416 -0.030875027 -0.1103613
-0.05291858 -0.08227502 0.0141481785 0.15727076 0.09702405 0.099317476 -0.10582103 -0.07721242
0.11149884 0.05675694 0.076088786 0.09795021 0.15117483 -0.007453369 0.12174361 0.034302298
-0.06400217 0.008795914 0.10663995 0.015417401 -0.08877754 -0.033724356 0.11332834 -0.0111260945
0.093673736 -0.055661984 0.119801104 -0.07054806 -0.07593286 -0.07976314 -0.08938746 -0.16646643
-0.02378558 0.058389604 0.038144723 0.17758882 -0.00011803597 0.019665945 0.0031990148 -0.22840858
-0.09209974 -0.14517716 0.13864253 0.14563671 -0.008971727 -0.17762858 0.041798163 0.037838418
0.15807213 -0.14890638 -0.03653324 0.04391119 0.095584296 -0.020149628 0.090753675 -0.114970736
0.008054239 0.0064003533 -0.032084268 0.04937115 0.05702638 0.09567717 -0.1347702 -0.061267633
0.098232746 0.124342255 0.101842694 0.11580033 0.050427582 -0.079134695 -0.00197484 0.18534274
-0.024564339 0.014609331 -0.10302567 -0.06946391 -0.054813966 0.056014545 0.011585966 0.0694274
-0.18834287 -0.04297915 0.04823176 -0.033518367 0.043693583 0.11841344 0.030872053 -0.10567839
0.03145845 0.18411234 -0.0619619 -0.007764421 0.11444861 0.025884416 0.03761947 -0.12646052
0.16045733 -0.0004763716 -0.017120356 0.0046330374 -0.11011295 0.11781526 -0.068203904 -0.047381993
0.0077505913 -0.030153098 -0.09219944 0.031376645 -0.06906502 0.16569597 -0.078027196 0.107078075
0.091887 0.11066126 -0.119018145 0.14670199 -0.036044866 0.033493053 0.1638827 -0.1481615
-0.0054644425 -0.08391513 -0.13954154 -0.045574572 -0.01069334 -0.10107325 0.057823133 0.111547805
0.14255495 0.022017593 -0.04987942 -0.061879802 -0.09803027 -0.11783318 0.034508403 -0.037134003
-0.08140966 0.06614586 -0.025401313 0.16244592 0.041745443 0.02862508 -0.09181167 -0.0025078398
-0.0062688948 -0.07803678 0.10719837 0.14261092 0.12436241 0.0442782 0.024571186 -0.16359463
00000000: 6600 823c a28b 5bbe 30d7 873b 0056 9fbd
00000010: 8598 0abe 02f0 353d 80c7 cc3d 8c24 0cbc
00000020: b750 a23c 1918 c6bd 28c9 3fbd 479c c23d
00000030: 31fb 7d3d f8f7 31be af7e 0ebd 1fc3 a7bd
00000040: e2a6 fb3d e782 bcbd 8586 b5bb 9907 cabd
00000050: f5fa 1bbe 4bd0 f53d 41b8 103e ef18 c3bd
00000060: ec89 9abd ed36 52bb aecb d9bd 54b5 2a3c
00000070: 2009 203e 2eef bcbd a6a6 39be 7b79 893c
00000080: 52dc 9c3d d888 eebd a010 c7bd 188c 0b3e
00000090: f5f3 71bd a502 7ebd e1c2 16be 0cf6 c13d
000000a0: 999b 6c3d ebe0 e0bb a721 fc3d a4cf 083d
000000b0: b86b ac3d 8b0b 733d b1f8 c6bd 6897 5e3d
000000c0: 80c9 19be 3ade 5b3d bd54 ebbd 1ccd 2c3e
000000d0: c894 153e 87f7 e13d 6dcb 31bd 0dc9 d4bd
000000e0: e6c9 b03d 7cf3 0dbd 3a75 cdbd 39d6 463e
000000f0: 8fc5 77bc bb86 9bbd f2e3 18be 61ad aabd
00000100: 3554 9cb9 e4da 21bc c238 05bc 6bc5 25bd
00000110: 62af 9d3d 9c4f 91bd 3742 0b3c 468e 803d
00000120: 8713 cebd 8d31 fbbd 0712 813e 5865 62bd
00000130: 806e e4bc 1a7d 33bc 6eee ad3d e4e2 80bc
00000140: f707 d73d 38a6 3dbb ef55 4f3d 2c30 4b3d
00000150: 8926 003e 8356 85bd e555 99bd 16eb 8bbd
00000160: 1ee7 af3d 855d c0bd 82b5 1f3e 1892 123e
00000170: 2c6f 48bd 36cf e43d fee0 343d 17b8 e0bd
00000180: 470e ecbb 19a9 ab3d fda5 0cbe e9f4 133d
00000190: 0c79 c5bd 9974 263e a0ed fcbc 1b05 e2bd
000001a0: 27c1 58bd ce7f a8bd c3cd 673c 960b 213e
000001b0: 8cb4 c63d f666 cb3d b2b8 d8bd 8c21 9ebd
000001c0: 8159 e43d f779 683d 70d4 9b3d 1f9a c83d
000001d0: 93cd 1a3e 643b f4bb b754 f93d 9180 0c3d
000001e0: 9213 83bd bd1c 103c 0c66 da3d 4499 7c3c
000001f0: 00d1 b5bd 8d22 0abd b018 e83d 394a 36bc
00000200: 04d8 bf3d d2fd 63bd 485a f53d 807b 90bd
00000210: b082 9bbd db5a a3bd c610 b7bd 2d76 2abe
00000220: fad9 c2bc f029 6f3d a43d 1c3d d8d9 353e
00000230: 148a f7b8 7a1a a13c 90a6 513b f0e3 69be
00000240: ca9e bcbd 52a9 14be 4ff8 0d3e ca21 153e
00000250: 27fe 12bc 44e4 35be 8d34 2b3d 75fc 1a3d
00000260: a9dd 213e ea7a 18be e1a3 15bd 38dc 333d
00000270: b3c1 c33d d510 a5bc 10dd b93d c775 ebbd
00000280: edf5 033c 0eba d13b cb6a 03bd 6739 4a3d
00000290: 7e94 693d 64f2 c33d 3301 0abe c5f3 7abd
000002a0: 402e c93d 27a7 fe3d e792 d03d b928 ed3d
000002b0: 278d 4e3d 5f11 a2bd 516c 01bb 7dca 3d3e
000002c0: 273b c9bc fa5b 6f3c 1fff d2bd 1843 8ebd
000002d0: 9c84 60bd 826f 653d 10d3 3d3c f42f 8e3d
000002e0: f4dc 40be e80a 30bd aa8e 453d 8e4a 09bd
000002f0: 0bf8 323d bf82 f23d 63e7 fc3c e96d d8bd
00000300: 93da 003d f287 3c3e c3cb 7dbd af6c febb
00000310: 0864 ea3d 8e0b d43c e016 1a3d de7e 01be
00000320: ed4e 243e 84c1 f9b9 fd3f 8cbc bcd0 973b
00000330: e682 e1bd 2149 f13d 7dae 8bbd 9f13 42bd
00000340: acf8 fd3b a103 f7bc 0fd3 bcbd cc84 003d
00000350: f671 8dbd 34ac 293e b9cc 9fbd c04b db3d
00000360: 402f bc3d 5fa2 e23d c9bf f3bd 0c39 163e
00000370: c8a3 13bd 0330 093d ded0 273e a6b7 17be
00000380: 110f b3bb b2db abbd fae3 0ebe 67ac 3abd
00000390: 1e33 2fbc 7eff cebd f3d7 6c3d 2d73 e43d
000003a0: edf9 113e 3d5e b43c 5d4e 4cbd ad75 7dbd
000003b0: 18c4 c8bd 8652 f1bd af58 0d3d d319 18bd
000003c0: 1cba a6bd 7b77 873d 6a16 d0bc 3958 263e
000003d0: 45fd 2a3d 257f ea3c c207 bcbd 925a 24bb
000003e0: 4d6b cdbb bfd1 9fbd d28a db3d 9908 123e
000003f0: b8b1 fe3d 0f5d 353d 8349 c93c 5a85 27be

net_container.0.bias f4 [256]
0.20544517 -0.13540305 0.038783245 0.012215961 0.04433424 0.044566467 0.1530668 0.13585404
0.088143915 0.0029617217 0.035654634 -0.0471895 0.06361437 -0.04137714 0.13941169 -0.09779786
0.10903298 -0.116015986 0.121027574 0.06117079 0.016110033 0.05009007 -0.07133324 0.17731735
0.08841579 0.051766224 -0.050886273 -0.2058801 -0.12759623 -0.101955906 -0.08343131 -0.03382523
0.13124211 0.09051665 0.027133282 -0.19130877 0.1058863 -0.015366814 0.091480516 -0.10409457
-0.17573832 0.1475255 -0.096482135 -0.05147511 0.020150753 -0.0595355 -0.0067521017 -0.114874415
0.122770995 0.05070672 -0.07239183 -0.059746202 -0.12134373 -0.07703602 -0.12882525 -0.06613571
0.15137249 0.019218897 0.14069913 0.11670164 -0.071130864 0.10157499 0.15360607 -0.016199121
0.008977415 0.16529612 0.097974576 -0.0667321 0.088464 0.10016918 0.12063508 -0.113056034
0.1260632 0.04765476 -0.035725944 0.07296703 0.13148381 -0.021810692 0.15041669 0.09134794
-0.14485581 -0.11602374 0.082993075 0.109405816 0.003778224 0.12392235 0.09899198 0.1489233
-0.060210563 0.13193819 -0.07753394 -0.097593084 0.05888544 -0.11143193 -0.03679582 0.034478385
0.061319634 0.009814806 -0.17762583 0.003666773 0.083677195 0.0694322 -0.1736883 -0.008413046
-0.01651084 0.054357383 -0.020295821 -0.07411664 -0.03375848 -0.05553165 0.01529347 0.0828762
-0.096068226 -0.1184614 0.104224 0.12408948 -0.17003149 0.045947086 -0.03590452 0.055329114
-0.06243242 -0.057771713 0.17612776 -0.17566639 0.014674936 -0.09529301 -0.09231253 0.13197325
0.09064555 -0.24026537 0.13306646 -0.055330444 -0.17786528 -0.051548425 -0.08956966 0.004585476
0.21693999 0.07720018 0.09432734 0.05668189 0.1297256 -0.17027493 -0.025277562 -0.14833765
-0.07249696 0.09990734 -0.039215017 -0.13721068 -0.09094364 -0.158215 -0.03619179 0.062810786
-0.048117995 0.022538891 0.13626096 -0.061546512 -0.06661264 -0.10879724 -0.094528586 -0.028939063
-0.07914349 0.117437474 0.1119972 0.017647948 0.080021545 -0.067858435 -0.117955804 0.030943504
-0.14813252 -0.16317147 0.10662799 -0.06603352 0.16320261 -0.15772077 0.15275642 0.15367189
-0.05829422 -0.12953651 -0.09047719 0.13509345 -0.12343378 0.075721696 0.0749909 -0.053446416
-0.1237175 0.046157654 0.04700627 0.04271126 -0.05877772 -0.09921624 0.006678755 -0.105764784
-0.02865731 -0.06548283 0.1366627 0.05575093 -0.123498 0.04139896 -0.032907587 0.050745092
0.01588386 0.078047134 0.052542277 0.038208492 0.12168339 -0.020362467 0.037037082 -0.11039056
-0.031669125 0.18735456 -0.014819971 0.074135825 0.17738907 0.10380018 -0.13327228 0.057120733
0.100991964 0.06349135 0.14932656 0.10288799 0.011080075 0.050787855 0.021072423 -0.14121683
0.11579844 -0.116790466 -0.06642773 0.057839535 -0.0748173 -0.07412353 0.1963611 0.020813264
-0.11253439 0.14091729 0.12961358 0.09844869 0.021524515 0.1768363 0.049137816 0.101921886
-0.034868456 -0.06584936 0.15013966 0.032319166 0.031057138 0.088272884 -0.18414664 0.0055549084
0.00014484902 -0.01249201 0.14509803 0.00013267649 -0.099039175 0.01896727 -0.21737832 0.047600627
00000000: 3860 523e 19a7 0abe 2edb 1e3d 7425 483c
00000010: d297 353d 548b 363d 8bbd 1c3e 521d 0b3e
00000020: cc84 b43d 7219 423b 980a 123d c749 41bd
00000030: 4048 823d 137b 29bd f0c1 0e3e 3f4a c8bd
00000040: af4c df3d ca99 edbd 4edd f73d 398e 7a3d
00000050: 30f9 833c 3f2b 4d3d 2917 92bd ae92 353e
00000060: 5613 b53d d208 543d 206e 50bd 3cd2 52be
00000070: 96a8 02be 42ce d0bd 09de aabd 538c 0abd
00000080: 5564 063e cb60 b93d 9e46 de3c 72e6 43be
00000090: ebda d83d 17c5 7bbc 235a bb3d 892f d5bd
000000a0: bff4 33be ed10 173e 6d98 c5bd 91d7 52bd
000000b0: 3113 a53c 7fdb 73bd bc40 ddbb 4743 ebbd
000000c0: 5c6f fb3d dab1 4f3d 2b42 94bd 6fb8 74bd
000000d0: 1083 f8bd 10c5 9dbd c4ea 03be 2972 87bd
000000e0: 6401 1b3e f370 9d3c 6f13 103e 4501 ef3d
000000f0: 0fad 91bd 8c06 d03d e94a 1d3e 05b4 84bc
00000100: 0216 133c 6343 293e e5a6 c83d d7aa 88bd
00000110: 9d2c b53d 8025 cd3d 860f f73d ec89 e7bd
00000120: b616 013e a331 433d 5e55 12bd bd6f 953d
00000130: b1a3 063e 56ac b2bc d506 1a3e a114 bb3d
00000140: 1555 14be db9d edbd 46f8 a93d 2810 e03d
00000150: 159c 773b 00cb fd3d 4fbc ca3d 597f 183e
00000160: 5a9f 76bd ce1a 073e 1dca 9ebd e2de c7bd
00000170: dc31 713d 6c36 e4bd 37b7 16bd 3539 0d3d
00000180: 4c2a 7b3d 48ce 203c 8ce3 35be 3e4e 703b
00000190: f35e ab3d 7832 8e3d 59db 31be dfd6 09bc
000001a0: be41 87bc d9a5 5e3d 6c43 a6bc 77ca 97bd
000001b0: 5546 0abd 2875 63bd 7691 7a3c ffba a93d
000001c0: 6bbf c4bd e49b f2bd 6473 d53d a022 fe3d
000001d0: bc1c 2ebe 0333 3c3d 9e10 13bd c8a0 623d
000001e0: 23b9 7fbd 08a2 6cbd d65a 343e e4e1 33be
000001f0: 256f 703c fb28 c3bd 5a0e bdbd ff23 073e
00000200: 60a4 b93d 2008 76be 9342 083e 2da2 62bd
00000210: 5122 36be 7124 53bd 4c70 b7bd c341 963b
00000220: 8425 5e3e 211b 9e3d b12e c13d 452b 683d
00000230: cad6 043e 8d5c 2ebe e412 cfbc d3e5 17be
00000240: 4979 94bd 389c cc3d ed9f 20bd f580 0cbe
00000250: a940 babd 1d03 22be d83d 14bd f1a2 803d
00000260: 6017 45bd 7ba3 b83c fe87 0b3e 3218 7cbd
00000270: 356c 88bd 16d1 debd 3498 c1bd 9d11 edbc
00000280: fb15 a2bd 0f83 f03d ca5e e53d 6e92 903c
00000290: 56e2 a33d 5df9 8abd d092 f1bd 3b7d fd3c
000002a0: 0db0 17be 6c16 27be c75f da3d 953c 87bd
000002b0: 961e 273e 8e81 21be 2e6c 1c3e 2a5c 1d3e
000002c0: ecc5 6ebd 38a5 04be 1b4c b9bd f055 0a3e
000002d0: daca fcbd fa13 9b3d d494 993d a1ea 5abd
000002e0: 9a5f fdbd cf0f 3d3d a689 403d 01f2 2e3d
000002f0: e8c0 70bd e231 cbbd 75d9 da3b 359b d8bd
00000300: bcc2 eabc dd1b 86bd 4ff1 0b3e 165b 643d
00000310: 85ec fcbd f591 293d 1bca 06bd 16da 4f3d
00000320: de1e 823c 2dd7 9f3d 9236 573d 8280 1c3d
00000330: 2435 f93d 30cf a6bc 32b4 173d 7214 e2bd
00000340: 7cb7 01bd e0d9 3f3e 77cf 72bc 86d4 973d
00000350: 7ba5 353e 3095 d43d 8778 08be 6ef7 693d
00000360: e0d4 ce3d c107 823d 10e9 183e f0b6 d23d
00000370: 3489 353c ed06 503d 13a0 ac3c 259b 10be
00000380: bc27 ed3d d72f efbd 430b 88bd 26e9 6c3d
00000390: d039 99bd 14ce 97bd e212 493e 9480 aa3c
000003a0: 6e78 e6bd 9f4c 103e 6cb9 043e 779f c93d
000003b0: 2e54 b03c 9314 353e bc44 493d 6cbc d03d
000003c0: 3ad2 0ebd 07dc 86bd 36be 193e 1a61 043d
000003d0: 8a6b fe3c 6ac8 b43d f090 3cbe f305 b63b
000003e0: 9de2 1739 4aab 4cbc 9494 143e 131f 0b39
000003f0: 0dd5 cabd 4061 9b3c 6c98 5ebe e0f8 423d

net_container.2.weight f4 [128, 256]
0.056918062 -0.026465017 -0.0006508186 -0.013834876 0.02371633 -0.029190816 0.02781683 -0.05685085
-0.029530043 0.058138557 -0.05133436 -0.026638256 0.03693733 -0.07074203 0.015887227 -0.0073779314
-0.03650345 0.018877048 0.0047872434 0.03805991 -0.047380634 -0.0030600978 -0.041972633 -0.10022802
-0.017555814 0.029341679 -0.04272739 0.086495474 0.017581793 0.008548318 -0.00030346404 0.038746484
-0.07385396 -0.06512298 -0.0816671 0.058877267 -0.00925631 0.07513015 0.026343027 0.036000963
0.05969074 0.05055842 -0.0028708323 -0.035774857 0.04086611 0.03811105 -0.053430445 0.0815173
0.043232705 0.018310277 0.06532253 0.030647498 0.04360009 -0.03623281 0.030738957 0.01580168
-0.09310158 -0.07108016 0.036801573 -0.011929735 0.044158366 0.015534849 0.02033587 0.008664629
-0.061922558 -0.05177248 -0.05429063 -0.07072325 -0.017758176 0.028229082 -0.007816503 -0.009200047
0.025700573 -0.031156613 0.015289351 0.06944358 -0.021573626 -0.037231304 0.0068318667 0.055088036
0.07467278 0.07600802 -0.043439806 0.042408362 0.004954358 0.04358606 -0.028342959 -0.106676765
0.037407033 -0.036466446 -0.03610158 -0.016039884 -0.025382396 0.037152402 -0.058761306 -0.033518363
-0.01928028 -0.045878995 0.07020513 -0.0011761546 -0.016654478 -0.04945163 -0.00880522 -0.0021558928
0.023967424 -0.053816296 -0.031087657 0.009502269 0.08011153 0.078589045 -0.002721529 -0.062096287
0.0806499 0.022504948 -0.05741641 -0.067869775 -0.021519775 -0.03404312 0.019613972 0.0448516
-0.03641259 0.042146385 -0.05056481 0.059009787 0.048446804 0.06746219 -0.0038849174 -0.06793273
0.010877649 0.046549868 -0.072152 -0.032493234 0.04580995 0.029448306 0.076223016 0.02384143
0.06416056 -0.010243291 0.015269142 0.090589575 -0.03333909 0.017014334 -0.054026466 0.03989407
0.0013393919 -0.07017173 0.017692894 0.050936066 -0.03620228 -0.045059454 0.08717016 -0.047962777
-0.062193427 0.051641256 -0.0913576 0.07863777 -0.02136972 0.017499361 0.033642787 -0.06972766
0.06204035 -0.028105095 -0.08191208 -0.08302838 0.011667555 -0.015941821 -0.07934386 -0.047884922
0.038538422 0.04962245 -0.011154192 0.08063865 -0.031218616 0.0054932483 0.046393257 -0.0028682067
-0.011073505 0.00728914 0.047055192 -0.0627535 -0.04919096 -0.1044039 0.020022877 -0.0028974698
-0.016821709 0.03480304 -0.027094645 0.0073572258 -0.030370453 -0.016933575 -0.025056278 0.08257739
-0.003383482 -0.06481153 -0.054085266 -0.034229934 -0.06684206 0.07371968 0.063572496 -0.040906154
-0.014033557 0.023940178 -0.07248915 -0.072452165 0.012180473 0.030439114 0.079520434 -0.047654282
-0.025027446 -0.08191178 -0.011307328 -0.06432075 -0.07819755 -0.0426528 0.029566694 -0.058055993
0.0025571394 -0.009261369 -0.039145477 -0.01522295 0.01826835 0.017834282 -0.020877128 0.025894543
-0.030314919 0.06172609 0.025202569 0.07316204 0.055543467 -0.04943411 0.02005313 0.08217325
-0.042024057 -0.016164776 -0.08692234 -0.056943066 0.06274671 -0.050414268 -0.021012131 0.01596286
-0.029563135 0.026257126 0.025990287 -0.017738003 -0.054180086 0.06588261 0.059083264 -0.0007723273
0.04621348 -0.014673252 -0.089871 -0.05069216 -0.00890955 -0.041327246 0.04667607 -0.00812873
00000000: ea22 693d 2acd d8bc b29b 2aba adab 62bc
00000010: c048 c23c 9421 efbc 1fe0 e33c 70dc 68bd
00000020: fde8 f1bc b222 6e3d fa43 52bd 7938 dabc
00000030: 994b 173d 33e1 90bd ee25 823c 93c2 f1bb
00000040: a484 15bd 0aa4 9a3c 4fde 9c3b b5e4 1b3d
00000050: 3212 42bd ec8b 48bb 7feb 2bbd 5944 cdbd
00000060: 36d1 8fbc f65d f03c ea02 2fbd 8a24 b13d
00000070: b107 903c 3f0e 0c3c 411a 9fb9 a2b4 1e3d
00000080: bf40 97bd 325f 85bd 1541 a7bd 4a29 713d
00000090: c7a7 17bc d6dd 993d 55cd d73c bf75 133d
000000a0: 477e 743d 5916 4f3d 9324 3cbb a888 12bd
000000b0: 3963 273d 551a 1c3d e2d9 5abd 8bf2 a63d
000000c0: c714 313d 6fff 953c d2c7 853d 7610 fb3c
000000d0: 0296 323d db68 14bd 44d0 fb3c 8672 813c
000000e0: 0bac bebd 7a92 91bd 3fbd 163d ef74 43bc
000000f0: 67df 343d e185 7e3c 6997 a63c 17f6 0d3c
00000100: 82a2 7dbd 610f 54bd da5f 5ebd 5ad7 90bd
00000110: 9879 91bc ad40 e73c ca10 00bc cbbb 16bc
00000120: 028a d23c 273c ffbc 3080 7a3c 7038 8e3d
00000130: 2cbb b0bc da7f 18bd dadd df3b fea3 613d
00000140: 0bee 983d 18aa 9b3d f0ed 31bd 64b4 2d3d
00000150: 2b58 a23b 4c87 323d 7e2f e8bc 5979 dabd
00000160: 1e38 193d d75d 15bd 40df 13bd 1366 83bc
00000170: beee cfbc 1e2d 183d b2af 70bd 8d4a 09bd
00000180: aef1 9dbc 9deb 3bbd b5c7 8f3d 3329 9aba
00000190: f96e 88bc cb8d 4abd c543 10bc e149 0dbb
000001a0: 5557 c43c 7a6e 5cbd 8bab febc 68af 1b3c
000001b0: 8411 a43d 4bf3 a03d ae5b 32bb ad58 7ebd
000001c0: c62b a53d 4c5c b83c 782d 6bbd 4fff 8abd
000001d0: 3d4a b0bc cc70 0bbd 7bad a03c 50b6 373d
000001e0: 5e25 15bd b0a1 2c3d 0c1d 4fbd 3fb4 713d
000001f0: 2870 463d 9e29 8a3d 199a 7ebb 5120 8bbd
00000200: 2b38 323c 13ab 3e3d 6ec4 93bd a017 05bd
00000210: 37a3 3b3d 933d f13c d01a 9c3d 1a4f c33c
00000220: 9d66 833d 7ad3 27bc 6c2b 7a3c 0787 b93d
00000230: 928e 08bd a561 8b3c db4a 5dbd f767 233d
00000240: 898e af3a 32b6 8fbd b0f0 903c 56a2 503d
00000250: d848 14bd 4390 38bd 4586 b23d 9e74 44bd
00000260: 89be 7ebd c885 533d b219 bbbd d70c a13d
00000270: 8d0f afbc d25a 8f3c 05cd 093d 60cd 8ebd
00000280: 061e 7e3d a83c e6bc 85c1 a7bd c90a aabd
00000290: 4629 3f3c 6c98 82bc 097f a2bd fb22 44bd
000002a0: 77da 1d3d e940 4b3d 12c0 36bc e025 a53d
000002b0: 2fbe ffbc b500 b43b db06 3e3d 86f8 3bbb
000002c0: a56d 35bc bdd9 ee3b f2bc 403d e884 80bd
000002d0: 767c 49bd b6d1 d5bd 0407 a43c 7ae3 3dbb
000002e0: aecd 89bc a28d 0e3d 97f5 ddbc e214 f13b
000002f0: 75cb f8bc 48b8 8abc d342 cdbc 561e a93d
00000300: 69bd 5dbb e8bb 84bd 8388 5dbd b034 0cbd
00000310: 7de4 88bd 58fa 963d 4c32 823d 368d 27bd
00000320: 01ed 65bc 311e c43c 3175 94bd cd61 94bd
00000330: 9b90 473c 735b f93c 9cdb a23d 2331 43bd
00000340: 5c06 cdbc 5dc1 a7bd 5f42 39bc 99ba 83bd
00000350: 0926 a0bd b4b4 2ebd da35 f23c 1fcc 6dbd
00000360: ae95 273b ffbc 17bc 0257 20bd ae69 79bc
00000370: 82a7 953c 3319 923c 8306 abbc cb20 d43c
00000380: fe56 f8bc 7fd4 7c3d 9e75 ce3c fbd5 953d
00000390: 8c81 633d 6c7b 4abd 7646 a43c 734a a83d
000003a0: 6b21 2cbd fe6b 84bc 5704 b2bd 223d 69bd
000003b0: 5981 803d 317f 4ebd a221 acbc 8bc4 823c
000003c0: 632e f2bc 2f19 d73c 95e9 d43c 4a4f 91bc
000003d0: f0eb 5dbd 76ed 863d 4b01 723d 0276 4aba
000003e0: 594a 3d3d 1468 70bc 490e b8bd 95a2 4fbd
000003f0: 5cf9 11bc c246 29bd 682f 3f3d 5d2e 05bc

net_container.2.bias f4 [128]
-0.016740741 -0.0909011 -0.026771387 -0.10097077 -0.09496136 0.042304646 0.07147362 -0.026673956
0.05162174 -0.08527509 0.07532305 -0.031884912 -0.02483302 0.012679985 -0.02270196 0.04714977
-0.09937693 -0.014099042 0.019560399 0.01277455 0.078552425 0.0021285524 -0.007031843 -0.015731707
0.01972792 0.02375246 0.011678295 -0.12831917 -0.084593914 -0.057637304 -0.096940674 -0.037593782
-0.010970522 -0.004141608 0.065869816 0.03645065 -0.029766195 -0.07727425 -0.018990276 0.008791715
-0.12008276 -0.020148106 -0.06673578 0.058119856 0.054230005 0.03733778 0.053320296 0.07602366
0.061334312 0.042473514 -0.029054182 -0.11515295 0.004908862 0.08005651 -0.08752374 -0.04580655
0.07203308 -0.10759674 0.07373455 0.05002855 -0.11290844 0.061380096 -0.026579343 -0.044718493
0.019044843 -0.029969817 0.11601199 -0.04710163 -0.0013712919 -0.03029909 -0.08700848 -0.05926015
-0.10515432 0.028255899 -0.028268624 -0.04528955 -0.0034470954 0.030302716 -0.07607094 0.003472369
0.012981089 -0.061604552 0.087646425 -0.0020336024 -0.06643311 -0.007465414 0.09380177 0.05260554
0.039815146 0.017236166 -0.12597218 0.04117907 -0.100898154 0.0023466204 -0.06754412 0.032077055
-0.000477866 0.045301877 -0.06576405 -0.015024988 -0.09944503 -0.006163885 0.007734738 0.0856715
-0.030073274 -0.023185434 -0.014030677 -0.045159426 -0.09841961 -0.037823305 0.096833155 0.05207853
-0.08217111 -0.017890433 0.01133798 0.05513487 0.04114144 -0.037842687 -0.1331541 0.012411905
0.057822824 -0.006777616 -0.05616689 -0.033155482 0.07946152 -0.011823804 -0.08757556 -0.055093005
00000000: e123 89bc 5b2a babd ab4f dbbc c3c9 cebd
00000010: 1a7b c2bd a347 2d3d c360 923d 5783 dabc
00000020: 5171 533d b5a4 aebd f942 9a3d c199 02bd
00000030: 9e6e cbbc b6bf 4f3c 76f9 b9bc 1e20 413d
00000040: 2286 cbbd abff 66bc 213d a03c 594c 513c
00000050: 18e0 a03d 2f7f 0b3b 606b e6bb c8df 80bc
00000060: 729c a13c 8594 c23c 5256 3f3c 1a66 03be
00000070: 933f adbd 1815 6cbd d588 c6bd f0fb 19bd
00000080: b4bd 33bc 53b6 87bb c1e6 863d 474d 153d
00000090: 3cd8 f3bc f641 9ebd 7f91 9bbc 200b 103c
000000a0: f3ed f5bd a40d a5bc c5ac 88bd 160f 6e3d
000000b0: 4820 5e3d 80ef 183d 6266 5a3d 4bb2 9b3d
000000c0: b039 7b3d b5f8 2d3d 0903 eebc 4fd5 ebbd
000000d0: 85da a03b abf4 a33d a63f b3bd a69f 3bbd
000000e0: 1486 933d ae5b dcbd 2402 973d bdea 4c3d
000000f0: 8a3c e7bd b269 7b3d ecbc d9bc bd2a 37bd
00000100: ee03 9c3c 4383 f5bc b297 ed3d a4ed 40bd
00000110: ecbc b3ba cc35 f8bc 8131 b2bd c5ba 72bd
00000120: 265b d7bd ea78 e73c 9a93 e7bc 8981 39bd
00000130: aae8 61bb 673d f83c 15cb 9bbd af90 633b
00000140: a2ae 543c 0e55 7cbd f87f b33d 3046 05bb
00000150: 150e 88bd 6ea0 f4bb 241b c03d e878 573d
00000160: 3515 233d dc32 8d3c dafe 00be 62ab 283d
00000170: b1a3 cebd c2c9 193b 9254 8abd 3b63 033d
00000180: 178a fab9 768e 393d 4daf 86bd 5e2b 76bc
00000190: d6a9 cbbd 6afa c9bb af73 fd3b 8a74 af3d
000001a0: 3a5c f6bc 61ef bdbc ede0 65bc 17f9 38bd
000001b0: 3890 c9bd 9cec 1abd 7650 c63d 4c50 553d
000001c0: 5449 a8bd f58e 92bc efc2 393c 1ad5 613d
000001d0: ed83 283d ef00 1bbd 8c59 08be 4e5b 4b3c
000001e0: a0d7 6c3d c416 debb 410f 66bd 0bce 07bd
000001f0: b9bc a23d a1b8 41bc d15a b3bd 34a9 61bd

net_container.4.weight f4 [64, 128]
0.015972538 0.062034585 -0.07580791 -0.03280383 -0.0014844331 -0.07210264 0.014672944 0.058772054
-0.014967133 -0.052390058 -0.053097237 0.012044683 0.07644184 -0.05180549 -0.021009643 -0.026013575
-0.023764854 -0.037068363 0.00025267107 0.05160584 -0.09577571 -0.09920542 0.124610275 -0.083859235
-0.0031509392 0.08043825 0.0316745 -0.013397814 0.07865234 0.030309077 -0.035499547 0.031440847
0.0029966799 -0.026615657 -0.107470565 -0.0944018 -0.013772677 -0.017925976 0.020335428 -0.022171125
-0.020196198 -0.020276723 0.04819475 -0.020533634 -0.0022943125 0.01125545 -0.0950087 0.040427644
-0.05002304 -0.06363166 0.07400144 0.06277555 0.07235597 -0.052203804 0.045499217 -0.017473515
0.06284977 -0.009971977 0.032533165 0.0053208433 0.063813634 -0.008888442 -0.030166805 0.005270479
-0.055307355 -0.047434185 -0.06580839 -0.07125715 0.02217893 0.10911789 -0.022637997 0.095671766
0.066542484 -0.018250953 -0.08628907 -0.036825716 -0.021115584 0.022373857 0.11018813 -0.058979403
-0.04853551 -0.001241392 -0.053542037 -0.073641784 0.008701388 0.08142906 -0.105789974 0.04197878
0.040218655 0.0023665596 0.058840472 -0.099409744 0.057409175 -0.05445658 -0.09196477 -0.11149921
-0.059381362 0.07383073 0.02007792 0.10199821 0.052941535 -0.012246315 0.037955586 -0.017730994
-0.004700854 0.016155168 0.077323824 -0.0809649 -0.048196446 -0.07447035 -0.0033548567 0.064065896
-0.033925362 0.010369762 0.039815053 0.027683713 -0.035564747 0.054159597 -0.02849604 -0.07622556
0.0195856 -0.09543431 -0.0038446165 0.062614724 -0.053030375 0.021811543 0.10172833 -0.029029794
0.10544131 -0.07959577 -0.06003617 0.04884096 0.07794612 -0.052656703 -0.019383712 -0.07126839
-0.08413997 -0.081567936 0.056626678 -0.05312877 0.001125938 0.022888988 0.09340832 -0.07375728
-0.010438922 -0.068820566 -0.05587578 0.05435085 -0.012952906 -0.005909353 0.07446403 0.049097277
0.01669791 -0.01662334 0.018220864 -0.03754184 0.044162963 -0.07448112 0.04852545 0.057155047
0.0551438 0.015476684 -0.027889635 0.0017392965 -0.03774037 -0.03303404 -0.014750822 -0.06230092
0.02330798 -0.03157965 -0.1208295 0.018819107 -0.035356823 0.027995884 -0.07672905 0.0194542
-0.08122508 -0.10744752 0.01866994 0.06719752 -0.11299005 0.021295382 -0.08298711 -0.06470787
0.014300136 0.026058655 0.0188234 -0.054071635 0.056363534 0.056568578 0.058557272 -0.08463752
-0.11562776 -0.09439996 0.054097213 0.053003885 0.037096024 0.025576318 -0.07566283 -0.045275684
0.087884314 -0.008070908 0.04517344 0.058911502 -0.032990955 -0.083193414 -0.07732131 -0.026418854
0.0025956102 -0.072745964 -0.035587978 -0.02007546 0.00014866932 0.025434956 -0.10834337 -0.06298826
0.065007135 -0.11169607 0.015128484 -0.051219027 0.020508125 0.0042128856 0.046846252 0.02841303
0.045246363 -0.04946514 0.037764806 0.010774041 0.080520526 -0.04318844 0.0420768 0.0704073
0.026730798 -0.038127206 -0.051738385 0.0059796553 0.025435675 -0.081672944 -0.07442582 -0.1131463
-0.0077736177 0.11400758 0.047969446 0.0071714725 0.11618207 -0.07362198 0.080233335 0.028618705
-0.0095266765 -0.023576021 0.043522984 0.05120359 0.034796875 -0.018945944 0.023732182 0.06301341
00000000: d7d8 823c fa17 7e3d 2d41 9bbd 4f5d 06bd
00000010: 4f91 c2ba 8daa 93bd ca66 703c f7ba 703d
00000020: b538 75bc f596 56bd 7d7c 59bd 1057 453c
00000030: 8a8d 9c3d fe31 54bd 6a1c acbc 6c1a d5bc
00000040: 83ae c2bc ffd4 17bd f078 8439 a560 533d
00000050: 0e26 c4bd 362c cbbd ac33 ff3d 64be abbd
00000060: fd7f 4ebb cfbc a43d 1fbd 013d 8182 5bbc
00000070: 7a14 a13d be4a f83c f967 11bd 1ec8 003d
00000080: f263 443b 1409 dabc 8719 dcbd bb55 c1bd
00000090: cba6 61bc 7fd9 92bc 7c96 a63c 38a0 b5bc
000000a0: 7f72 a5bc 5f1b a6bc dc67 453d 2736 a8bc
000000b0: 2d5c 16bb c768 383c ec93 c2bd 7597 253d
000000c0: f6e4 4cbd 5151 82bd 118e 973d 7890 803d
000000d0: 5e2f 943d a8d3 55bd 635d 3a3d 9e24 8fbc
000000e0: 61b7 803d 8161 23bc 7f41 053d 785a ae3b
000000f0: b9b0 823d d4a0 11bc 6020 f7bc fbb3 ac3b
00000100: f789 62bd 594a 42bd 8dc6 86bd 45ef 91bd
00000110: 96b0 b53c 3379 df3d 5273 b9bc 8fef c33d
00000120: 6d47 883d 0683 95bc 53b8 b0bd 90d6 16bd
00000130: 97fa acbc 6149 b73c 50aa e13d 6394 71bd
00000140: 2ccd 46bd 34b6 a2ba e54e 5bbd 81d1 96bd
00000150: 4490 0e3c 47c4 a63d 6aa8 d8bd f1f1 2b3d
00000160: 51bc 243d 4818 1b3b b502 713d 5697 cbbd
00000170: e225 6b3d dd0d 5fbd 0658 bcbd b359 e4bd
00000180: df39 73bd 9134 973d 737a a43c 70e4 d03d
00000190: 39d9 583d c5a4 48bc 5177 1b3d 9740 91bc
000001a0: 9f09 9abb d857 843c f45b 9e3d edd0 a5bd
000001b0: a369 45bd e983 98bd 28dd 5bbb fb34 833d
000001c0: 52f5 0abd efe5 293c 1c15 233d f4c8 e23c
000001d0: 57ac 11bd 74d6 5d3d 8770 e9bc 251c 9cbd
000001e0: fb71 a03c 1073 c3bd f6f5 7bbb 263c 803d
000001f0: 6136 59bd 1fae b23c f156 d03d e4cf edbc
00000200: 9df1 d73d 1b03 a3bd 7de8 75bd 750d 483d
00000210: 37a2 9f3d 8eae 57bd 97ca 9ebc 29f5 91bd
00000220: 9451 acbd 170d a7bd 60f1 673d 8e9d 59bd
00000230: 3694 933a b081 bb3c dc4c bf3d 0f0e 97bd
00000240: 0308 2bbc ccf1 8cbd 00de 64bd ff9e 5e3d
00000250: 6d38 54bc 3fa3 c1bb 9980 983d 3a1a 493d
00000260: 0eca 883c ac2d 88bc ec43 953c 79c5 19bd
00000270: 39e4 343d 8f89 98bd 9fc2 463d 691b 6a3d
00000280: 77de 613d eb91 7d3c ce78 e4bc 1bf9 e33a
00000290: a595 1abd b44e 07bd 6fad 71bc 402f 7fbd
000002a0: 60f0 be3c aa59 01bd 7575 f7bd 872a 9a3c
000002b0: 51d2 10bd a057 e53c 1f24 9dbd 6a5e 9f3c
000002c0: 5659 a6bd 720d dcbd b4f1 983c da9e 893d
000002d0: 5467 e7bd a773 ae3c 25f5 a9bd 8f85 84bd
000002e0: 1e4b 6a3c f678 d53c 8833 9a3c 387a 5dbd
000002f0: 73dd 663d 74b4 673d c0d9 6f3d 7056 adbd
00000300: 3fce ecbd c454 c1bd 0a95 5d3d 9a1a 593d
00000310: 00f2 173d 6d85 d13c 1df5 9abd ff72 39bd
00000320: b1fc b33d d73b 04bc c907 393d 304d 713d
00000330: 8621 07bd 4f61 aabd a35a 9ebd 5a6c d8bc
00000340: 1d1b 2a3b d6fb 94bd b3c4 11bd 4b75 a4bc
00000350: 1ee4 1b39 f85c d03c 21e3 ddbd fdff 80bd
00000360: 7622 853d e9c0 e4bd 76dd 773c 0bcb 51bd
00000370: a800 a83c 3f0c 8a3b dbe1 3f3d 71c2 e83c
00000380: 4054 393d f59b 4abd 45af 1a3d 9a85 303c
00000390: f2e7 a43d 5de6 30bd b958 2c3d b431 903d
000003a0: 8cfa da3c 462b 1cbd a1eb 53bd fcf0 c33b
000003b0: 7a5e d03c 2544 a7bd 906c 98bd 3fb9 e7bd
000003c0: d5b9 febb ce7c e93d 9c7b 443d acfe ea3b
000003d0: ddf0 ed3d 1fc7 96bd 6051 a43d c671 ea3c
000003e0: c715 1cbc 8022 c1bc 2845 323d dbba 513d
000003f0: 2b87 0e3d 8634 9bbc fe69 c23c 2d0d 813d

net_container.4.bias f4 [64]
-0.11398762 -0.05681535 0.08861626 0.01045204 -0.07872323 -0.013161547 -0.038570587 -0.1275985
-0.13146655 0.0822915 0.077360354 -0.012790721 0.02528993 -0.087150306 -0.034684088 0.100449316
-0.0076737334 0.045288287 0.0891195 0.11050928 -0.08123814 0.017175537 -0.10232115 0.02094701
0.049443386 -0.07950776 0.024442296 -0.032401796 -0.065051146 -0.000453032 -0.000659648 0.07312061
-0.044332158 -0.02530103 0.059572086 -0.014071953 -0.109719515 0.058655664 0.02080068 0.0011629952
0.019581586 0.034000166 0.005751728 -0.16371283 -0.039158102 0.0075232293 -0.039069586 -0.072543435
0.051922858 0.14538504 0.096372835 0.0016987433 -0.041979644 -0.10099519 -0.10863934 -0.015894696
0.002067346 0.040128127 -0.060884025 0.045045905 0.064067215 -0.03936523 -0.10912983 -0.08814914
00000000: 5772 e9bd 36b7 68bd 717c b53d 083f 2b3c
00000010: a539 a1bd 87a3 57bc 31fc 1dbd 2ea9 02be
00000020: 2b9f 06be 7288 a83d 1b6f 9e3d 2c90 51bc
00000030: d42c cf3c dc7b b2bd e710 0ebd 5fb8 cd3d
00000040: f173 fbbb 3680 393d 4984 b63d b052 e23d
00000050: 2f60 a6bd b6b3 8c3c c08d d1bd 1099 ab3c
00000060: 2685 4a3d f7d4 a2bd 363b c83c bfb7 04bd
00000070: 8939 85bd ed84 edb9 3aec 2cba 42c0 953d
00000080: a395 35bd 1b44 cfbc dc01 743d 0c8e 66bc
00000090: a0b4 e0bd ec40 703d 3066 aa3c a56f 983a
000000a0: 9069 a03c c243 0b3d fe78 bc3b 56a4 27be
000000b0: 3f64 20bd 6c85 f63b 6e07 20bd a791 94bd
000000c0: 10ad 543d d1df 143e 1f5f c53d 5ea8 de3a
000000d0: d9f2 2bbd 91d6 cebd 4d7e debd 9835 82bc
000000e0: 4f7c 073b 645d 243d 8761 79bd 0e82 383d
000000f0: ac35 833d 6f3d 21bd 767f dfbd 8987 b4bd

policy_layer.weight f4 [8, 64]
-0.04025559 0.009258564 -0.01730413 0.001338375 -0.12415202 0.13223413 0.02421794 -0.2073087
-0.013165227 0.09973369 -0.08582724 0.0801324 0.13482006 0.028070902 0.0156551 0.12690902
-0.0035340611 -0.013928698 0.12257967 0.03407264 0.06314907 0.024497494 0.10154975 -0.11451884
-0.023562208 0.0101465145 0.045012955 0.031731676 0.16851333 0.08123402 -0.049529757 0.09063004
-0.098621204 -0.005360698 0.063437894 -0.119100474 0.14345889 0.09556956 -0.011410293 0.06824991
-0.01320811 0.051120766 -0.105599694 0.1390553 -0.08544747 -0.14541194 0.055119596 0.048665572
0.016973974 0.04304353 -0.10469108 0.0068167136 0.0058289277 0.10830231 0.05706632 0.016439622
-0.07452296 0.090391144 0.036452223 0.07044545 0.03158825 0.097694844 0.035392303 -0.11435394
0.10301182 -0.0240722 -0.11380632 0.015135686 -0.008800012 -0.020592857 -0.10130464 0.06991176
0.09350191 -0.101218574 0.007623998 0.002430268 0.13721025 -0.014181151 -0.0008502352 -0.038075544
-0.08814615 0.10639155 0.11142436 -0.10938625 0.18133025 -0.052525908 0.09836363 0.09025238
-0.041847784 0.13387969 0.14783955 -0.010498445 0.018775389 0.16066231 -0.085549556 -0.01930926
0.16150387 0.12181854 -0.07434702 -0.09432882 0.033685837 -0.01041916 0.0263718 0.10640949
0.026197733 -0.06470526 0.12057902 0.11255611 -0.10027255 -0.057876203 0.096555926 0.1259636
0.03616904 -0.0082246605 -0.013740818 0.034341384 -0.12145794 0.10706131 -0.019818442 0.058975365
-0.016934909 -0.13936001 -0.008104329 0.0026130893 -0.047088772 -0.09726215 0.04256602 -0.10249376
-0.036463566 0.10377553 0.068875164 -0.11260606 -0.11439379 0.15257747 0.0073778904 0.020953093
-0.048737995 -0.0023432842 -0.12191612 -0.059698097 -0.12967342 -0.12782025 -0.0014938348 -0.100725375
0.0021685602 -0.022573963 0.13962805 -0.056185294 0.087967694 0.04832168 0.062456157 0.11882645
-0.0149497315 0.15539263 0.14800216 0.031158922 0.06815129 -0.011551826 -0.044384386 -0.0747914
0.091249995 0.08541175 -0.04876697 -0.07437744 0.15697409 -0.10707635 0.14470832 0.03013229
-0.05443746 -0.07661564 -0.06521948 -0.0013134448 0.016936215 0.112394765 -0.028599577 0.06590985
-0.005228899 0.025648437 -0.09917215 -0.08383268 0.018541552 0.05464043 0.024638517 0.14766392
-0.1383166 -0.12743779 -0.09698067 0.1490531 -0.12241122 0.05110236 -0.06453408 0.038718157
0.030748995 -0.030980479 0.018483037 -0.05303549 0.08927368 0.15469335 -0.065220825 -0.16090547
-0.12673812 -0.1017012 0.017704131 0.024861082 -0.073238604 0.085564815 0.015156765 -0.14300519
-0.11926711 0.118355155 -0.035666015 0.074842446 0.113469064 0.070907496 0.10004136 0.028020436
-0.10013782 -0.018718055 0.036407348 -0.09913086 -0.022382438 -0.07937569 -0.028176276 0.080815956
0.118897825 0.055450205 -0.04570112 0.018243251 0.019522708 0.06952972 0.08662536 0.15061742
0.0112947365 0.038698692 0.04316682 0.12848195 -0.14422609 0.014839388 -0.08198 0.029263064
-0.14475076 -0.07398235 -0.04914841 -0.048423976 0.1435924 0.04639768 -0.04371087 -0.028465018
0.038348947 0.022815978 0.044441197 0.13904266 0.009965573 0.027860967 -0.027396193 0.097040914
00000000: 0ce3 24bd 3bb1 173c 64c1 8dbc 6a6c af3a
00000010: 6a43 febd 6268 073e b464 c63c bb48 54be
00000020: f7b2 57bc 2d41 cc3d 31c6 afbd 751c a43d
00000030: 450e 0a3e f3f4 e53c 203f 803c 70f4 013e
00000040: b59b 67bb 3235 64bc 0d0b fb3d c18f 0b3d
00000050: 4d54 813d f8ae c83c 51f9 cf3d db88 eabd
00000060: 8805 c1bc 913d 263c 815f 383d 13f9 013d
00000070: c28e 2c3e 065e a63d b7df 4abd 3e9c b93d
00000080: eaf9 c9bd cba8 afbb baeb 813d f3ea f3bd
00000090: e3e6 123e f9b9 c33d 3df2 3abc 9cc6 8b3d
000000a0: d466 58bc 0264 513d a744 d8bd 8364 0e3e
000000b0: 15ff aebd dee6 14be 16c5 613d 8d55 473d
000000c0: 010d 8b3c 6a4e 303d 4768 d6bd bd5e df3b
000000d0: 9700 bf3b 9acd dd3d 60be 693d 63ac 863c
000000e0: 7e9f 98bd fe1e b93d ed4e 153d b445 903d
000000f0: ae62 013d 3c14 c83d 85f7 103d 6632 eabd
00000100: dcf7 d23d 1033 c5bc 4a13 e9bd abfb 773c
00000110: ed2d 10bc 5ab2 a8bc cf78 cfbd e62d 8f3d
00000120: ee7d bf3d af4b cfbd bbd2 f93b 2245 1f3b
00000130: d880 0c3e 0f58 68bc 52e2 5eba 1af5 1bbd
00000140: f885 b4bd d0e3 d93d 7432 e43d e605 e0bd
00000150: a3ae 393e 6825 57bd df72 c93d 3dd6 b83d
00000160: 9568 2bbd c217 093e 4063 173e ab01 2cbc
00000170: d8ce 993c a984 243e 9b34 afbd 742e 9ebc
00000180: 4561 253e 007c f93d 4043 98bd 782f c1bd
00000190: 29fa 093d 20b5 2abc ac09 d83c 38ed d93d
000001a0: a19c d63c 3184 84bd 22f2 f63d d183 e63d
000001b0: b25b cdbd 990f 6dbd 1dbf c53d 9afc 003e
000001c0: fd25 143d bac0 06bc 2b21 61bc 8da9 0c3d
000001d0: f1be f8bd f642 db3d 495a a2bc 2790 713d
000001e0: 14bb 8abc 64b4 0ebe 05c8 04bc 5d40 2b3b
000001f0: 28e0 40bd 6131 c7bd b559 2e3d 40e8 d1bd
00000200: d25a 15bd 4488 d43d 6c0e 8d3d 029e e6bd
00000210: 4b47 eabd 453d 1c3e 3bc2 f13b d2a5 ab3c
00000220: 7ea1 47bd c991 19bb 29af f9bd fe85 74bd
00000230: 1cc9 04be 50e3 02be c7cc c3ba 1b49 cebd
00000240: 671e 0e3b 08ed b8bc a8fa 0e3e 8d22 66bd
00000250: 6828 b43d f4ec 453d 07d2 7f3d 485b f33d
00000260: b8ef 74bc 3f1f 1f3e e18d 173e ff40 ff3c
00000270: e792 8b3d df43 3dbc 67cc 35bd 3c2c 99bd
00000280: 47e1 ba3d 5bec ae3d e0bf 47bd 3353 98bd
00000290: d1bd 203e d84a dbbd 6b2e 143e fed7 f63c
000002a0: d0f9 5ebd a9e8 9cbd ca91 85bd e527 acba
000002b0: d1bd 8a3c 3a2f e63d a949 eabc befb 863d
000002c0: 2f57 abbb ac1c d23c c51a cbbd 78b0 abbd
000002d0: 74e4 973c a5ce 5f3d b7d6 c93c 3635 173e
000002e0: dea2 0dbe 0d7f 02be cd9d c6bd 60a1 183e
000002f0: bcb2 fabd b550 513d 722a 84bd ee96 1e3d
00000300: 51e5 fb3c c6ca fdbc bd69 973c be3b 59bd
00000310: 1ed5 b63d ef67 1e3e 7f92 85bd 67c4 24be
00000320: a3c7 01be b848 d0bd 4108 913c 78a9 cb3c
00000330: 1ffe 95bd 9b3c af3d 1454 783c f46f 12be
00000340: 5142 f4bd 3064 f23d 8716 12bd ff46 993d
00000350: 7862 e83d f337 913d 7ce2 cc3d 1d8b e53c
00000360: 0f15 cdbd 9b56 99bc df1f 153d 1f05 cbbd
00000370: 605b b7bc b98f a2bd efd1 e6bc d682 a53d
00000380: b480 f33d c11f 633d 1931 3bbd df72 953c
00000390: 16ee 9f3c 9965 8e3d a368 b13d 743b 1a3e
000003a0: 8f0d 393c 8582 1e3d b1cf 303d c690 033e
000003b0: 01b0 13be e820 733c 21e5 a7bd 18b9 ef3c
000003c0: 8b39 14be 0f84 97bd d84f 49bd 3858 46bd
000003d0: e309 133e 7e0b 3e3d 2b0a 33bd 782f e9bc
000003e0: c913 1d3d 93e8 ba3c f907 363d 3361 0e3e
000003f0: a546 233c af3c e43c fb6d e0bc 63bd c63d

policy_layer.bias f4 [8]
-0.01614523 -0.10105719 -0.0677186 -0.047527652 -0.0028623613 -0.087667786 -0.12230132 0.04162007
00000000: 0043 84bc 12f7 cebd 0db0 8abd 5bac 42bd
00000010: 7496 3bbb 2b8b b3bd 1d79 fabd ce79 2a3d

value_layer.weight f4 [1, 64]
0.00775697 0.030659521 -0.004330231 -0.00043590402 -0.076602034 0.031610306 -0.031697825 0.0013821863
-0.023551691 0.02530417 -0.075558886 -0.030282788 0.04139734 -0.03316075 -0.03553915 -0.048702538
0.0064862897 -0.057927106 0.118691556 0.0353547 -0.062236104 0.06411427 0.06966174 0.12883262
0.054754987 0.10835937 -0.050398637 -0.095834844 -0.030524103 0.004011998 0.10071058 0.07228539
0.03064785 0.043145005 0.061289597 0.013041013 -0.068757236 0.01359668 -0.042923383 -0.025567586
-0.004096977 0.065597326 -0.033035 -0.030581687 0.08836767 -0.05739213 0.073086075 -0.017853454
-0.08061465 0.023510698 0.0755089 -0.00039978512 -0.050150186 -0.032241568 -0.085908264 -0.071016416
-0.053881202 -0.0068486566 0.016735043 0.010104686 0.03673723 0.06275004 -0.09790838 -0.06549455
00000000: 2e2e fe3b ad29 fb3c 9ce4 8dbb 0c8a e4b9
00000010: 87e1 9cbd cf79 013d 94d5 01bd 7a2a b53a
00000020: 7aef c0bc b14a cf3c 9ebe 9abd 9c13 f8bc
00000030: 4290 293d 91d3 07bd 8091 11bd 507c 47bd
00000040: f18a d43b f944 6dbd 8f14 f33d 17d0 103d
00000050: 49eb 7ebd 584e 833d d0aa 8e3d b3ec 033e
00000060: c446 603d 84eb dd3d cd6e 4ebd 0f45 c4bd
00000070: af0d fabc 1477 833b 5941 ce3d 5d0a 943d
00000080: 3311 fb3c d1b8 303d cd0a 7b3d f9a9 553c
00000090: 98d0 8cbd 9cc4 5e3c 6ed0 2fbd 1d73 d1bc
000000a0: ef3f 86bb e457 863d b54f 07bd 7286 fabc
000000b0: 1cfa b43d 0314 6bbd 27ae 953d 6841 92bc
000000c0: 4b19 a5bd 8299 c03c 69a4 9a3d 409a d1b9
000000d0: 486a 4dbd bc0f 04bd acf0 afbd 0e71 91bd
000000e0: 89b2 5cbd b26a e0bb ee17 893c 208e 253c
000000f0: c779 163d 1883 803d 3084 c8bd 0222 86bd

log_std_parameter f4 [8]
-3.3406074 -2.9480903 -3.2581089 -3.3482482 -3.9606285 -3.5704927 -4.1167064 -2.884846
00000000: 83cc 55c0 83ad 3cc0 db84 50c0 b349 56c0
00000010: f07a 7dc0 f482 64c0 0fbc 83c0 51a1 38c0

net_container.0.weight f4 [256, 45]
0.01586933 -0.21439984 0.0041455254 -0.07780075 -0.13534744 0.044418342 0.09998989 -0.008553635
0.019813878 -0.09672565 -0.046822697 0.09502464 0.062007133 -0.17379749 -0.034788784 -0.08191513
0.1228769 -0.09204655 -0.0055397176 -0.098647304 -0.15232451 0.12002619 0.14132787 -0.0952624
-0.07545838 -0.0032076195 -0.10634552 0.010419209 0.15628481 -0.092253074 -0.18129978 0.01678156
0.0765921 -0.116471946 -0.09719968 0.1362766 -0.059070546 -0.06201424 -0.14722778 0.09470758
0.057765577 -0.00686275 0.12311106 0.033401147 0.08418983 0.05933718 -0.09715403 0.05434361
-0.15018272 0.05367873 -0.11490772 0.16875118 0.14607537 0.1103354 -0.043406893 -0.1038991
0.08632259 -0.034656033 -0.10032125 0.19417657 -0.015122785 -0.07594057 -0.14930704 -0.08333851
-0.00029817378 -0.009878848 -0.008131208 -0.040471476 0.07699467 -0.070952624 0.008499674 0.062771365
-0.10062318 -0.122653104 0.25209066 -0.05527243 -0.027884722 -0.0109551195 0.084927425 -0.01573319
0.10499566 -0.0028938185 0.050619062 0.049606487 0.125147 -0.065106414 -0.07487086 -0.068319485
0.08589004 -0.093928374 0.15596583 0.14313543 -0.048934147 0.11172335 0.04415988 -0.10972612
-0.0072038504 0.08381862 -0.13735195 0.036122236 -0.096422285 0.16255416 -0.030875027 -0.1103613
-0.05291858 -0.08227502 0.0141481785 0.15727076 0.09702405 0.099317476 -0.10582103 -0.07721242
0.11149884 0.05675694 0.076088786 0.09795021 0.15117483 -0.007453369 0.12174361 0.034302298
-0.06400217 0.008795914 0.10663995 0.015417401 -0.08877754 -0.033724356 0.11332834 -0.0111260945
0.093673736 -0.055661984 0.119801104 -0.07054806 -0.07593286 -0.07976314 -0.08938746 -0.16646643
-0.02378558 0.058389604 0.038144723 0.17758882 -0.00011803597 0.019665945 0.0031990148 -0.22840858
-0.09209974 -0.14517716 0.13864253 0.14563671 -0.008971727 -0.17762858 0.041798163 0.037838418
0.15807213 -0.14890638 -0.03653324 0.04391119 0.095584296 -0.020149628 0.090753675 -0.114970736
0.008054239 0.0064003533 -0.032084268 0.04937115 0.05702638 0.09567717 -0.1347702 -0.061267633
0.098232746 0.124342255 0.101842694 0.11580033 0.050427582 -0.079134695 -0.00197484 0.18534274
-0.024564339 0.014609331 -0.10302567 -0.06946391 -0.054813966 0.056014545 0.011585966 0.0694274
-0.18834287 -0.04297915 0.04823176 -0.033518367 0.043693583 0.11841344 0.030872053 -0.10567839
0.03145845 0.18411234 -0.0619619 -0.007764421 0.11444861 0.025884416 0.03761947 -0.12646052
0.16045733 -0.0004763716 -0.017120356 0.0046330374 -0.11011295 0.11781526 -0.068203904 -0.047381993
0.0077505913 -0.030153098 -0.09219944 0.031376645 -0.06906502 0.16569597 -0.078027196 0.107078075
0.091887 0.11066126 -0.119018145 0.14670199 -0.036044866 0.033493053 0.1638827 -0.1481615
-0.0054644425 -0.08391513 -0.13954154 -0.045574572 -0.01069334 -0.10107325 0.057823133 0.111547805
0.14255495 0.022017593 -0.04987942 -0.061879802 -0.09803027 -0.11783318 0.034508403 -0.037134003
-0.08140966 0.06614586 -0.025401313 0.16244592 0.041745443 0.02862508 -0.09181167 -0.0025078398
-0.0062688948 -0.07803678 0.10719837 0.14261092 0.12436241 0.0442782 0.024571186 -0.16359463
00000000: 6600 823c a28b 5bbe 30d7 873b 0056 9fbd
00000010: 8598 0abe 02f0 353d 80c7 cc3d 8c24 0cbc
00000020: b750 a23c 1918 c6bd 28c9 3fbd 479c c23d
00000030: 31fb 7d3d f8f7 31be af7e 0ebd 1fc3 a7bd
00000040: e2a6 fb3d e782 bcbd 8586 b5bb 9907 cabd
00000050: f5fa 1bbe 4bd0 f53d 41b8 103e ef18 c3bd
00000060: ec89 9abd ed36 52bb aecb d9bd 54b5 2a3c
00000070: 2009 203e 2eef bcbd a6a6 39be 7b79 893c
00000080: 52dc 9c3d d888 eebd a010 c7bd 188c 0b3e
00000090: f5f3 71bd a502 7ebd e1c2 16be 0cf6 c13d
000000a0: 999b 6c3d ebe0 e0bb a721 fc3d a4cf 083d
000000b0: b86b ac3d 8b0b 733d b1f8 c6bd 6897 5e3d
000000c0: 80c9 19be 3ade 5b3d bd54 ebbd 1ccd 2c3e
000000d0: c894 153e 87f7 e13d 6dcb 31bd 0dc9 d4bd
000000e0: e6c9 b03d 7cf3 0dbd 3a75 cdbd 39d6 463e
000000f0: 8fc5 77bc bb86 9bbd f2e3 18be 61ad aabd
00000100: 3554 9cb9 e4da 21bc c238 05bc 6bc5 25bd
00000110: 62af 9d3d 9c4f 91bd 3742 0b3c 468e 803d
00000120: 8713 cebd 8d31 fbbd 0712 813e 5865 62bd
00000130: 806e e4bc 1a7d 33bc 6eee ad3d e4e2 80bc
00000140: f707 d73d 38a6 3dbb ef55 4f3d 2c30 4b3d
00000150: 8926 003e 8356 85bd e555 99bd 16eb 8bbd
00000160: 1ee7 af3d 855d c0bd 82b5 1f3e 1892 123e
00000170: 2c6f 48bd 36cf e43d fee0 343d 17b8 e0bd
00000180: 470e ecbb 19a9 ab3d fda5 0cbe e9f4 133d
00000190: 0c79 c5bd 9974 263e a0ed fcbc 1b05 e2bd
000001a0: 27c1 58bd ce7f a8bd c3cd 673c 960b 213e
000001b0: 8cb4 c63d f666 cb3d b2b8 d8bd 8c21 9ebd
000001c0: 8159 e43d f779 683d 70d4 9b3d 1f9a c83d
000001d0: 93cd 1a3e 643b f4bb b754 f93d 9180 0c3d
000001e0: 9213 83bd bd1c 103c 0c66 da3d 4499 7c3c
000001f0: 00d1 b5bd 8d22 0abd b018 e83d 394a 36bc
00000200: 04d8 bf3d d2fd 63bd 485a f53d 807b 90bd
00000210: b082 9bbd db5a a3bd c610 b7bd 2d76 2abe
00000220: fad9 c2bc f029 6f3d a43d 1c3d d8d9 353e
00000230: 148a f7b8 7a1a a13c 90a6 513b f0e3 69be
00000240: ca9e bcbd 52a9 14be 4ff8 0d3e ca21 153e
00000250: 27fe 12bc 44e4 35be 8d34 2b3d 75fc 1a3d
00000260: a9dd 213e ea7a 18be e1a3 15bd 38dc 333d
00000270: b3c1 c33d d510 a5bc 10dd b93d c775 ebbd
00000280: edf5 033c 0eba d13b cb6a 03bd 6739 4a3d
00000290: 7e94 693d 64f2 c33d 3301 0abe c5f3 7abd
000002a0: 402e c93d 27a7 fe3d e792 d03d b928 ed3d
000002b0: 278d 4e3d 5f11 a2bd 516c 01bb 7dca 3d3e
000002c0: 273b c9bc fa5b 6f3c 1fff d2bd 1843 8ebd
000002d0: 9c84 60bd 826f 653d 10d3 3d3c f42f 8e3d
000002e0: f4dc 40be e80a 30bd aa8e 453d 8e4a 09bd
000002f0: 0bf8 323d bf82 f23d 63e7 fc3c e96d d8bd
00000300: 93da 003d f287 3c3e c3cb 7dbd af6c febb
00000310: 0864 ea3d 8e0b d43c e016 1a3d de7e 01be
00000320: ed4e 243e 84c1 f9b9 fd3f 8cbc bcd0 973b
00000330: e682 e1bd 2149 f13d 7dae 8bbd 9f13 42bd
00000340: acf8 fd3b a103 f7bc 0fd3 bcbd cc84 003d
00000350: f671 8dbd 34ac 293e b9cc 9fbd c04b db3d
00000360: 402f bc3d 5fa2 e23d c9bf f3bd 0c39 163e
00000370: c8a3 13bd 0330 093d ded0 273e a6b7 17be
00000380: 110f b3bb b2db abbd fae3 0ebe 67ac 3abd
00000390: 1e33 2fbc 7eff cebd f3d7 6c3d 2d73 e43d
000003a0: edf9 113e 3d5e b43c 5d4e 4cbd ad75 7dbd
000003b0: 18c4 c8bd 8652 f1bd af58 0d3d d319 18bd
000003c0: 1cba a6bd 7b77 873d 6a16 d0bc 3958 263e
000003d0: 45fd 2a3d 257f ea3c c207 bcbd 925a 24bb
000003e0: 4d6b cdbb bfd1 9fbd d28a db3d 9908 123e
000003f0: b8b1 fe3d 0f5d 353d 8349 c93c 5a85 27be
